best_qaoa_gat_model.pt (torch, 805452 bytes, 78 tensors)

convs.0.att_src f4 [1, 8, 8]
00000000: d480 96bb 54ac 8fba 96d0 113b 301f b13a
00000010: 4679 abba e1df 9bba 41ba d9ba 98c3 efba
00000020: d210 f13a 3951 30bb 97b1 053b ded4 ffba
00000030: 5319 933b b469 c0bb a414 d9ba 56fd f3ba
00000040: 91e0 e73a 5de2 2dbb 9330 0b3b 5103 48bb
00000050: b1a7 02bb 26be 143b 83fa 06bb 2d7b 1a3b
00000060: af6b e7ba 74ce 063b b060 863a fc86 dbbb
00000070: 9c2e 0e3b 0038 35bb c8ca ebba 5a74 3bbb
00000080: 2a6a cb39 6d14 283c b2ac 56bd 67f1 2c3c
00000090: f414 e0ba a9e2 243b e7d3 64bc 8e1b 753b
000000a0: 2c4a 053e ff15 cf3a f88a 44bd e5ce d2bd
000000b0: 56b1 b43c 86d6 853e 5a36 fcbb 4647 0abe
000000c0: 72b7 e3b9 7213 e9ba b0d3 a0b9 6e6a 5abb
000000d0: 9b35 ba3a fe0a f63a 0aa8 06ba 6fe7 88ba
000000e0: bc1e 5d3a e008 153a e4fb a83a d27d 0c3a
000000f0: ad33 d839 7a62 673a 6653 2cba cf26 873a
-0.004592994 -0.0010961392 0.002224957 0.0013513323 -0.0013082407 -0.0011892283 -0.0016611294 -0.0018292544
0.0018391854 -0.0026903881 0.0020400041 -0.0019518395 0.004489103 -0.005871976 -0.0016561938 -0.0018614929
0.0017690827 -0.0026532628 0.002123867 -0.0030519555 -0.0019936378 0.0022696345 -0.0020596094 0.0023571954
-0.0017655994 0.0020569833 0.0010252204 -0.006699441 0.0021695262 -0.0027651787 -0.0017989511 -0.0028603286
0.00038798276 0.010258776 -0.05241079 0.010555602 -0.0017096088 0.0025159514 -0.013966537 0.0037400457
0.13016576 0.0015799402 -0.047984093 -0.10293368 0.022057217 0.2614023 -0.007696909 -0.13503751
-0.0004343349 -0.0017782284 -0.00030675298 -0.0033327597 0.001420665 0.0018771586 -0.0005136734 -0.0010444949
0.0008435061 0.00056852214 0.0012892452 0.0005359325 0.00041237232 0.0008826625 -0.00065737066 0.0010311248

convs.0.att_dst f4 [1, 8, 8]
00000000: fe35 2136 b0ab 81b8 d19a 1339 819e f038
00000010: 069a 8e38 6882 a6b8 c869 beb8 8a7d 09b9
00000020: bb1f 4a34 afc4 2433 5f52 83b3 1dc1 3633
00000030: 33f4 2a36 50dd 39b5 9e72 50b5 7480 abb8
00000040: d779 90b6 0966 16b9 799e ea38 f985 923a
00000050: 5643 3a3a d68d 0439 0bf9 b0b8 207c c538
00000060: d082 f0b8 01a5 4139 9806 2838 bc68 47bb
00000070: 38b0 bf38 4341 20ba 3694 4cb9 6a53 f3b9
00000080: f1f0 353b ddce 13bc 5878 66bc a45e 11bc
00000090: 0657 2fbc 4521 753c d914 223c 5086 7cbb
000000a0: 8672 723d d00e 8bbc 8c94 863d cb86 1c3e
000000b0: 3a9a 0fbd ca40 a6be 2bf4 2a3c 1fdf 80bc
000000c0: 8327 adb8 2961 1fb9 f87d 9bb8 36da 55b9
000000d0: 2eb3 6337 17d8 1638 effe 01b9 a768 e3b8
000000e0: 243c 3c39 3e63 bc38 3ef7 4139 8e27 5339
000000f0: 1c9a a8ba 8615 1939 cd62 e137 a3c5 3639
2.4022297e-06 -6.1831786e-05 0.00014076686 0.000114736155 6.799777e-05 -7.939787e-05 -9.079609e-05 -0.00013112105
1.882426e-07 3.836311e-08 -6.115146e-08 4.2550813e-08 2.5474117e-06 -6.923992e-07 -7.765283e-07 -8.177842e-05
-4.3057184e-06 -0.00014343126 0.00011187507 0.0011178843 0.0007105371 0.00012641339 -8.438722e-05 9.416812e-05
-0.000114684575 0.00018467383 4.0060462e-05 -0.0030427417 9.140413e-05 -0.00061132404 -0.00019510169 -0.0004641072
0.002776202 -0.009021488 -0.014066778 -0.008872662 -0.0107019 0.014961545 0.009892666 -0.0038532205
0.05919125 -0.016974837 0.06571302 0.15285794 -0.03505919 -0.32471305 0.010434191 -0.015731392
-8.2566425e-05 -0.00015199617 -7.4144395e-05 -0.00020394553 1.3571973e-05 3.5964036e-05 -0.00012397369 -0.000108436965
0.00017951481 8.983024e-05 0.00018498019 0.00020137263 -0.0012863311 0.00014599235 2.6868098e-05 0.00017430498

convs.0.bias f4 [64]
00000000: a792 6637 8d70 0db5 cd31 8034 9491 8f35
00000010: de33 40b4 e3cc 16b2 a710 9734 677a 5035
00000020: de51 7f35 ac69 4ab3 2198 a435 c16d c7b2
00000030: 4edb 0b35 e6bf e3b1 76ad a633 28d9 2537
00000040: 202e 2d35 a569 3fb4 35b0 9b31 306f a7b6
00000050: 896b 9436 4b41 3f32 bbc6 1ab3 f7f1 f533
00000060: 2376 9e35 049c 2e35 729c 91b4 0625 8d37
00000070: 40e9 5432 ae1f 83b5 398c 4e35 821a 0734
00000080: cba4 b934 7566 b734 68df 32b7 978d be33
00000090: 4336 e635 1232 6434 538a 8e31 f637 b133
000000a0: 5ced 0938 7246 9934 ed68 e530 b4ce 7131
000000b0: 796f 8b33 48c5 0934 5882 bb33 9e07 3436
000000c0: 952c 0533 0327 9db6 f644 4134 8361 7335
000000d0: 678f 26b5 3281 1d36 8f41 2334 7274 d535
000000e0: f9cc c835 4b49 dbb4 5191 9435 9d10 4035
000000f0: 1873 af36 0e24 1a34 91a7 35b6 eb0a 3b34
1.37432135e-05 -5.2690376e-07 2.3878093e-07 1.0696699e-06 -1.7900263e-07 -8.777735e-09 2.8138058e-07 7.7664157e-07
9.5114035e-07 -4.7127898e-08 1.2263228e-06 -2.321656e-08 5.2100665e-07 -6.628386e-09 7.76153e-08 9.885327e-06
6.4514643e-07 -1.7826694e-07 4.531126e-09 -4.9899318e-06 4.4232625e-06 1.1132509e-08 -3.6036663e-08 1.1452715e-07
1.18063e-06 6.5047084e-07 -2.7122184e-07 1.682575e-05 1.2393059e-08 -9.769481e-07 7.694503e-07 1.2582498e-07
3.4578838e-07 3.4160954e-07 -1.0661643e-05 8.8733195e-08 1.7152128e-06 2.125237e-07 4.1484696e-09 8.252384e-08
3.2884403e-05 2.8549726e-07 1.6691765e-09 3.5187613e-09 6.492969e-08 1.283089e-07 8.7315755e-08 2.6826524e-06
3.1007023e-08 -4.683506e-06 1.7999614e-07 9.066645e-07 -6.2048497e-07 2.3470025e-06 1.5204408e-07 1.5903627e-06
1.4960816e-06 -4.0845256e-07 1.1069152e-06 7.154975e-07 5.228805e-06 1.4355484e-07 -2.7068638e-06 1.7419704e-07

convs.0.lin.weight f4 [64, 7]
00000000: 5ef5 a8bb 7b2f 3e3e d4e4 233f c270 12be
00000010: 965d 92bd 41ec b1bc ada5 10be d8a2 d13b
00000020: 86f2 973c 5ec2 633c 7c25 d4ba 824a 933c
00000030: 13f1 803b 8c50 533c 8e32 a2bc bac8 a1bc
00000040: 6526 25bc 7141 15bc 2000 19bd 42b9 d9bb
00000050: 24ea c3bc 3fb5 1abc c6b0 96bc e4d3 003b
00000060: 99d8 9ebc 9f25 1bbd d694 5bbc cfb0 11bd
00000070: 46dc 8d3c edc8 e7bd ffa6 eebd 52db 193b
00000080: 8b80 90bd 3413 2d3b d512 a23a 2de3 e23b
00000090: 7170 ce3c ab0a cd3c 7296 ed3b 09f2 b93c
000000a0: 619e 093c 78c3 913c 78d4 843c b18e 673c
000000b0: 53ad f93a ec96 e53a 2118 3d3c 38d5 133b
000000c0: 34ea 283c 4004 4b3c 2a08 823d 127c 493e
000000d0: c5c7 a8bc ac40 313d f263 8d3b 4e2a aabc
000000e0: aa22 19bc ec9f d2bc 0e8e 64bd 4771 05bc
000000f0: 1839 77bd aade 5fbc 46e9 07bd 50c2 283c
00000100: 983c 7b3c 8f6f c3bb aa7a 083b e71f 273c
00000110: ee9e b23a d3f7 203c b0fb 2cbc c032 20bc
00000120: 436d d53b 2f09 b4bc 7d5e 4bbd 75bc 33bc
00000130: 2570 22bd 8315 543c c97e db3b 52db a83b
00000140: bea7 b039 9dbc ba3b 2b42 293a 9f96 5a3b
00000150: 0814 ebbc 768c 3abc 9b32 02bc 1505 89bb
00000160: 6054 c0bc bc08 99bb 51c9 81bc 0424 e13c
00000170: e104 903c 4aca b73c 674e dd39 f008 1b3c
00000180: 4a94 c23a a01b 823b e2f7 103c b3f1 2a3d
00000190: bfaf 373d 199e 5b3b 0d47 143d d11e 1f3c
000001a0: 40ff 9f3c c590 14bb fd3a 443e 6877 0e3f
000001b0: f433 54bd 80e6 fb3a 9487 793c 2392 71bd
000001c0: 8449 88bc 28f5 73bc 5e56 66bb 0f27 7fbb
000001d0: 8013 b2bc 538b 6bbb 5539 76bc 1240 f03c
000001e0: c9c1 e03c 5283 003d f9e7 e13a 6442 483c
000001f0: ef51 b83b d6fd 0e3c 4881 babc 3579 d0b9
00000200: 04b4 fe39 ff93 9838 dbe6 37ba 27bd 2d37
00000210: 39fb bdb9 015b 8bba d5ed c1bd 95fa 66be
00000220: 0947 ca3c ba42 353c 84c9 10bc 8d04 363d
00000230: 6fcb 16bc 648d 9b3c 5ec8 7fbe 1bc0 7e3c
00000240: 113a b0bd c452 91bc 6249 96bc 3498 cbbc
00000250: 8a50 b4b9 b6c2 3bba aa8e 98b9 d665 adba
00000260: 1a9e b2b9 f0f3 7eba 9547 b53c 20d4 723c
00000270: 8d69 9d3c 5844 b63a c551 5a3c e685 503b
00000280: b009 ca3b fb13 d4bc 797a 96bb 7e83 efbb
00000290: 1474 6bba 8df7 afbb 6dae f1ba bb5c 75bb
000002a0: 74bb 653c 9b71 1f3d 5b66 323d 8aa0 cabb
000002b0: 92bb 8b3a 7ce2 293b 37e9 553b 27f9 08bd
000002c0: 008d 93bc 23ff 783d 86b0 53bc 2012 41bc
000002d0: 9179 edbb 9448 ccbc 53df 3dbc 7756 67bc
000002e0: e065 18bc 853d 58bc 764c e6bc eb6c 21bc
000002f0: 3060 c0bc 6738 69bb 629e 383e 617d ff3e
00000300: 98bc babd 6344 133c ec50 1cbb ad41 bbbd
00000310: 66bd cebc 0de2 d0ba 4b72 27bb 06d9 4eb9
00000320: 0b1a f1ba f933 c3b9 9ccf 5bba fb36 683c
00000330: 59b5 303d 2316 653d 4727 193c 29d0 6a3d
00000340: 644e 423c 1016 bf3c 1b6c f33c 1fbf 53bc
00000350: e154 aabc 7921 e8bb 48fc c3bc 8ddf bebb
00000360: 4e9a 23bc ff04 a13c 7df6 053d 6394 493d
00000370: 6ea0 933b 8102 dc3c 9356 063c 8cb0 5f3c
00000380: ea38 923b 3bcd 4d3c 332b 893c 8199 1d3b
00000390: 17cc 013c 50e3 5d3a 5c47 703b 0015 c7bc
000003a0: e62a 2dbc ef97 333b 65b9 f6bb e676 0abd
000003b0: 58db aabb e2eb d5bc 8552 343a ba80 12bd
000003c0: 3df9 03bf 0593 1d3d 9e6b b83d f996 b4bc
000003d0: d895 d23d 950e f1bc 465a 2a3a 1ddd e0ba
000003e0: aa90 9fb9 571b 53bb bff7 51ba 54c1 0fbb
000003f0: b9e0 73bc e6ac edbc 97b1 8cbd dfe5 2abc
-0.005156203 0.185728 0.6402104 -0.14300826 -0.07146756 -0.0217191 -0.141257 0.0063975863
0.018548261 0.013901321 -0.0016185488 0.017979864 0.0039349883 0.012897622 -0.019799497 -0.019749034
-0.010079955 -0.009109841 -0.037353635 -0.006644399 -0.023915358 -0.0094426265 -0.018394839 0.0019657547
-0.019390391 -0.037877675 -0.0134021845 -0.03556901 0.017316949 -0.113176204 -0.11652946 0.0023476672
-0.070557676 0.002640915 0.0012365232 0.006924054 0.0252001 0.025029501 0.0072506005 0.02269842
0.008399577 0.017793402 0.016214594 0.014133141 0.0019048847 0.0017516292 0.011541397 0.0022557508
0.010309745 0.01239115 0.063492134 0.19676235 -0.02060307 0.043274567 0.004314893 -0.020772126
-0.009346643 -0.025711022 -0.055799536 -0.008144683 -0.060357183 -0.013663927 -0.03318145 0.010300234
0.015334271 -0.0059642266 0.0020825067 0.010200477 0.0013627687 0.009824711 -0.010558054 -0.009777725
0.006513269 -0.021977035 -0.049650658 -0.010970225 -0.03965773 0.012944582 0.0066984636 0.005153098
0.00033694314 0.005698754 0.0006456698 0.0033353937 -0.028696075 -0.011386028 -0.007946636 -0.004181514
-0.023477733 -0.0046702307 -0.015843065 0.027482994 0.017580451 0.022435326 0.0004221082 0.00946258
0.0014845219 0.0039705783 0.008848162 0.04173441 0.04484534 0.0033510982 0.03620057 0.009711937
0.019530892 -0.0022669297 0.19163127 0.5565095 -0.05180736 0.0019218475 0.015230078 -0.058977257
-0.016636617 -0.014889993 -0.0035146694 -0.0038933193 -0.021737814 -0.0035941198 -0.015028317 0.029327426
0.027436154 0.031375237 0.0017235271 0.01222286 0.0056250016 0.008727511 -0.022766724 -0.00039763158
0.00048580777 7.275491e-05 -0.0007015296 1.0355644e-05 -0.00036236065 -0.001063198 -0.09469191 -0.22556527
0.024692075 0.011063272 -0.008837108 0.044437934 -0.009203776 0.018988319 -0.24978778 0.015548731
-0.08604825 -0.017739661 -0.018345539 -0.02485285 -0.00034392282 -0.0007162498 -0.00029097992 -0.0013229202
-0.000340686 -0.00097256806 0.02212886 0.014821082 0.01921537 0.0013905866 0.013325159 0.003181809
0.0061657056 -0.025888434 -0.0045922366 -0.0073093763 -0.00089818356 -0.0053700865 -0.0018438824 -0.0037439305
0.014021743 0.038926702 0.043554645 -0.0061836885 0.0010660759 0.0025922349 0.0032640228 -0.033440735
-0.01801157 0.060790192 -0.012920504 -0.0117841065 -0.007247158 -0.024936952 -0.011588889 -0.014119736
-0.009301633 -0.013198261 -0.028112631 -0.009852628 -0.023483366 -0.0035586597 0.18029168 0.49900344
-0.09118003 0.008988473 -0.0023851944 -0.09143386 -0.025236797 -0.0015936509 -0.0025550302 -0.00019726538
-0.0018394602 -0.0003723202 -0.0008385123 0.014173265 0.043141697 0.055929314 0.009347743 0.057327423
0.01185951 0.02332595 0.029714635 -0.012923985 -0.020792427 -0.0070840684 -0.023924008 -0.005824989
-0.00998552 0.019655703 0.032705773 0.04921378 0.0045052087 0.026856663 0.008199352 0.013652932
0.004462351 0.012561138 0.016744232 0.0024047794 0.007922194 0.0008464353 0.0036663627 -0.024302006
-0.01056931 0.0027403792 -0.007529425 -0.033804797 -0.005214136 -0.026113454 0.00068787514 -0.035767294
-0.5155218 0.038470287 0.09004901 -0.022044646 0.10282487 -0.029425899 0.0006498437 -0.0017155741
-0.00030434626 -0.003221234 -0.00080096343 -0.00219353 -0.014885121 -0.029013108 -0.0686981 -0.010430782

convs.1.att_src f4 [1, 8, 8]
00000000: 41a7 f73c 5a3f fb3a 286c adba 8bc1 17bb
00000010: 23b9 653b 7d1d d23b d880 3d3a bab1 24bc
00000020: efa6 46bb 99ad f439 cc13 b4ba 3516 9db9
00000030: 6c86 2abb 78a2 1835 8fd6 afba 7c2c 033b
00000040: 81f3 1239 ca56 2eb8 3f1c 0037 6d66 2639
00000050: af3b adb9 7cdb 8237 0d6d a3b7 86df ac38
00000060: ee8c e03c 08ee 5b3a e4cc d33a 69c2 2a3c
00000070: 39be 80b9 fa68 98bc 0949 f23c 8216 743a
00000080: fcb9 b237 bd2b 27ba 3763 a5b9 a56b b339
00000090: ae14 56ba e097 feb7 fb49 323a 9545 8e37
000000a0: 3681 25bc a730 dcb9 1bb9 75ba e9ef 3a39
000000b0: fa49 dbb9 b03e a9ba d138 9e39 c140 6dba
000000c0: 8a87 c239 adab aa36 a808 9a39 a66d d3ba
000000d0: 4ee7 8fb9 4403 983b cfb0 60b7 7c4a 413a
000000e0: 364d 0ebc 97ec 043b 8aa7 06bc 42c0 003b
000000f0: d4bc c5bb 5c3d bbb7 31aa 87bc 25c8 b13a
0.03023112 0.001916866 -0.0013231086 -0.0023156132 0.0035052977 0.0064122067 0.0007228977 -0.010052139
-0.0030311903 0.00046668647 -0.001373881 -0.0002996192 -0.0026020063 5.6860836e-07 -0.0013415384 0.0020015528
0.00014014357 -4.156566e-05 7.635971e-06 0.0001586915 -0.000330416 1.5599413e-05 -1.9481895e-05 8.2432336e-05
0.02741095 0.00083896564 0.0016159085 0.010422328 -0.0002455579 -0.018604744 0.029575842 0.0009311215
2.130586e-05 -0.0006377062 -0.00031545173 0.00034221742 -0.00081665337 -3.0349882e-05 0.0006801185 1.696012e-05
-0.010101607 -0.0004199792 -0.0009373591 0.00017827716 -0.00041826052 -0.0012912359 0.0003017844 -0.00090504816
0.00037103548 5.0863805e-06 0.00029379618 -0.00161307 -0.0002744742 0.004639061 -1.3392607e-05 0.0007373465
-0.008685401 0.002028262 -0.008218655 0.0019645845 -0.006034473 -2.232071e-05 -0.016560646 0.0013563676

convs.1.att_dst f4 [1, 8, 8]
00000000: ec48 b4ba 1bdb 8a3a 5651 03ba 14f1 adb9
00000010: 3091 373a d579 0a3b 6e1a 8839 5b0b 56ba
00000020: 499e 7aba 6578 133a 7c91 53ba fa66 c0b8
00000030: 1ecf cfba 4d99 4c38 210c 163b 42f7 d23a
00000040: 5ff5 4d38 3285 44b8 6de7 9237 60dc 7838
00000050: e856 d8b7 4c82 ef36 1637 81b7 0c41 0838
00000060: 82c7 5abb 97e0 74bb d9a0 79bb d6b2 02bc
00000070: 9ddb bfb9 ccc0 a83c b9be e7bb 7c80 923b
00000080: 5196 18b7 c730 92b9 8954 7139 596f d838
00000090: 3e3b 9ab9 2236 d938 2863 a339 de69 da36
000000a0: dda0 113c 7eab 77ba edd8 39ba ebdb fbb9
000000b0: e228 56ba c7f2 8b3a df29 ea39 aec2 c0bb
000000c0: 2582 c3b9 ace6 0e3a 04ab a3b9 9a80 f4b9
000000d0: bbcc 9d3a 983b 023b 682c d1b9 4087 703a
000000e0: 54b4 b53b 0a66 85b8 8b7e 0d3b 4f5a 113b
000000f0: fac2 a53b a4ba 4a3a 8719 5a3c 189c f63a
-0.0013754643 0.0010593863 -0.00050093734 -0.0003317675 0.00070025306 0.0021129746 0.00025959633 -0.0008165144
-0.00095603295 0.0005625545 -0.000807069 -9.174454e-05 -0.0015854572 4.8780163e-05 0.0022895413 0.0016095417
4.910433e-05 -4.685409e-05 1.7512322e-05 5.9333048e-05 -2.5789675e-05 7.1379236e-06 -1.540365e-05 3.2485506e-05
-0.0033383076 -0.0037365311 -0.0038090257 -0.007977208 -0.00036593984 0.020599745 -0.0070722965 0.004470883
-9.094904e-06 -0.00027883632 0.00023015043 0.00010320423 -0.00029417308 0.00010357449 0.0003116366 6.509231e-06
0.00888845 -0.00094478566 -0.00070895144 -0.00048038302 -0.0008169544 0.0010677212 0.00044663154 -0.0058825826
-0.00037290264 0.0005451243 -0.000312172 -0.00046635122 0.0012039164 0.0019871946 -0.00039896672 0.0009175427
0.0055451784 -6.3609405e-05 0.0021590318 0.0022179072 0.0050586434 0.00077335 0.01331175 0.001881483

convs.1.bias f4 [64]
00000000: b77f 3a35 4c9a 5033 db46 a933 9a20 7b34
00000010: 73a0 aeb2 8a2b b233 41fe cdb2 a1bb 9fb2
00000020: 1709 4734 3a17 3ab4 1e4a 5fb3 6175 95af
00000030: 3c3d ceb3 141c 09b2 a94f a733 6f92 c235
00000040: 09f3 2a33 4d23 4b33 aae5 9cb2 defa 9734
00000050: a89e f4b4 9eac 1fb2 a6a2 1333 865b 83b2
00000060: 9c58 62b4 442e aa33 e303 6c33 3438 1f35
00000070: 9cea d1b1 5a54 1cb6 0efb b334 bad5 5733
00000080: ab4d f9b1 755f 6bb2 47f8 8c33 b449 d232
00000090: 0cb2 5433 8a96 d0b3 dba3 69b4 ceb5 2431
000000a0: 3a32 a135 6e92 27b2 7f2b 242f 3ff9 1834
000000b0: 89d8 b0b2 3847 1235 2979 1db2 4fca b4b4
000000c0: 93ae 9633 f027 5c33 1fe8 66b3 8496 f7b5
000000d0: 1694 7a34 2a88 a433 968d 9b31 0a88 b8b3
000000e0: d70f 6db4 2d4c 2732 9614 7db4 e649 3db3
000000f0: 5d3a 9835 f8be 1fb2 239d fc34 01e7 8ab3
6.947625e-07 4.8569106e-08 7.882564e-08 2.3388057e-07 -2.032923e-08 8.2966906e-08 -2.3980762e-08 -1.859536e-08
1.8536626e-07 -1.733105e-07 -5.1988643e-08 -2.7186345e-10 -9.603761e-08 -7.980834e-09 7.7910336e-08 1.4496744e-06
3.980225e-08 4.7296727e-08 -1.826523e-08 2.8308472e-07 -4.556398e-07 -9.294267e-09 3.4374033e-08 -1.5292027e-08
-2.1080126e-07 7.9246576e-08 5.4951567e-08 5.93139e-07 -6.1093726e-09 -2.329491e-06 3.3524014e-07 5.025297e-08
-7.2556836e-09 -1.3700505e-08 6.5644194e-08 2.4480734e-08 4.952203e-08 -9.713138e-08 -2.1759426e-07 2.3968485e-09
1.2010053e-06 -9.753974e-09 1.4931166e-10 1.4246778e-07 -2.0587565e-08 5.4492875e-07 -9.166151e-09 -3.3674812e-07
7.016674e-08 5.1259065e-08 -5.376216e-08 -1.844674e-06 2.3336938e-07 7.661613e-08 4.52719e-09 -8.592913e-08
-2.2078108e-07 9.738e-09 -2.356995e-07 -4.4072202e-08 1.1341868e-06 -9.298439e-09 4.705299e-07 -6.468145e-08

convs.1.lin.weight f4 [64, 64]
00000000: 14d7 a83d cdf6 ac3c d384 d23c 3425 04bc
00000010: c7f1 833d 320a 91bc a600 683c e9a5 e53d
00000020: 55d7 4b3a 4ea1 ff3b c970 e03c f1ee e2bb
00000030: 849d 253d cad8 19bc 21c9 f63c 3387 ce3d
00000040: 4522 f8bb 6fe8 dbba 59c2 5cbc efcb f4bc
00000050: 5aee d0bc 5307 dc3c 0379 d83c 9820 153d
00000060: f3d0 6a3d a20e b43d 9737 4e3d 5baf 1b3e
00000070: 4c01 15bc 641b 2f3b db6d 82bc 6401 153d
00000080: 06a9 e43c 0601 ca3c 93c9 1c3d a2fa 943c
00000090: c7db 87bc d8a8 9d3d 1fa0 bdbc 1e02 b93b
000000a0: 6eac ce3d 4de3 babb 4d03 fdbb b797 073d
000000b0: ec23 eb3b 5ae4 af3d e830 82bc d2a2 7f3d
000000c0: 52de 963c 766e 09bd d086 46ba eee3 893c
000000d0: 24e1 453d 3bb8 843c 9fa3 04ba 1134 c4bc
000000e0: 9306 9a3d 2b66 b83c cb5d 183b 9651 33bc
000000f0: 4aeb ef3d c252 283d 37e5 b5bc 3468 9a3d
00000100: 8cb3 b33c 1e7f 993b 71d7 c4bb 9d5c 80bb
00000110: 1f45 babb 5491 603b 8723 a83b ce62 cb3c
00000120: ce06 57bc 0771 00ba 2d26 07bc b871 af3b
00000130: c753 903b 4d4a 023c f690 dd3b de7a 8dbc
00000140: 6081 afbb 8c74 193c 04e2 963b cfd6 a539
00000150: 50a2 f7bb 9a8e 90bb f7fb d93b 1cbf 0cbc
00000160: 9323 a93b 2d5c 343c 18d0 0cba 3ecf f33c
00000170: 8f11 0a3b df07 983b edf5 00bb 7ac1 2aba
00000180: d46c 2a3b 4b18 923b 849a 61bc 4985 383b
00000190: cc85 81bc cca7 7a3c 9d9b ccbb ab19 33bb
000001a0: 4ad7 7c3b d36b 22bc 7554 f0ba d975 ef3a
000001b0: 01dc 1aba 7afb 8ebc 8254 cc39 65aa 0d3d
000001c0: c81d 203a 6352 44bc 0c7f c3bb 0905 dfb8
000001d0: 3153 623c 57ad 1f3c 7f4e 733b aad3 903a
000001e0: 8f71 24bc 253b cabb 1ab3 9cbc 8c48 05bb
000001f0: 1965 bcb9 258e 133b 3a0b a738 d374 cdb8
00000200: 5684 e7bb ba00 c23b 8e97 afbb 7e33 ffbb
00000210: 2939 e43a 95f8 b73b c87b ba3b f8e5 cf3b
00000220: 14b1 1abb 1839 e53a 0472 61bb 4f4f 473b
00000230: 629b 9dbb 3daf 633b 3714 443c 8b5c bd3a
00000240: c386 b0bb b419 993b d659 5aba 76d7 21bc
00000250: 9389 bfbc d7fc 49bb b7a0 b03a 62aa fabb
00000260: 6aad 093c 776d 07bc 2313 05bc f710 9ebc
00000270: 17c4 90ba a2ac 8f3b 2c10 0d3c 6e0d 233c
00000280: 078c 173b 6365 c0bb bde8 10bd 89b9 4abb
00000290: ca0a e2bb b6b2 063b b262 123c 9fa7 c6ba
000002a0: 55b6 e13c d21d c0bb 9fbc f33a 2de7 173b
000002b0: 8367 e8bb 8c88 56bc dfe2 083b 6d6b edbc
000002c0: fd0d 93bb bcec 2fbc f424 13bb 780f 4ebc
000002d0: 94b6 9fba fc38 123c 763e 16bc f5e1 efbb
000002e0: 4be8 7abc 294b 9abb e290 3fbc b33a 0abc
000002f0: a923 8d3c 6c13 d3bb 5495 8b3a 7979 cbbb
00000300: f27c 433c ab5a b73a db8f 2ebb 24a2 b1ba
00000310: ae8a 333a aeea c1b9 b11f d2b9 5bb7 a3bb
00000320: 4285 aaba 07a3 153b 3d1f 8bbb a3cd 1a3a
00000330: 30e1 3bbb 8b38 09bb 74e3 8fba e4a1 4bbb
00000340: 1fe5 a2bb 3874 c43a d401 9fb7 86ac dfbb
00000350: 6281 04bc bd97 f9ba eac9 063b 9b3d 0cbb
00000360: f2cd 263b 978e 6cbb 15ec d5ba 673e 44bc
00000370: 4b71 92ba 1c3a 783a 8995 e13b 90d0 adbb
00000380: 28cd 223b 447a 24bb a3e5 edbc 9a0a a73a
00000390: 22e5 90bb b3e0 8bb9 4374 543b 8fa1 32ba
000003a0: 0070 283c 9e5d 5abb cbad 453a 105b 9d38
000003b0: 91c2 2fbb 31e8 4dbc 6761 3d3a cd4f edbc
000003c0: e482 80bb d8af f0bb 49e9 bfb9 0a89 4dbc
000003d0: d78b f53b 95c4 e43b c540 edbb 382e edbb
000003e0: 05a2 57bc 5ada 71bb f8d7 bcbb a8b3 00bb
000003f0: f69a 1ebc 4fb5 99ba cbb1 94bb 59ae 71bb
0.08244148 0.021113778 0.025698101 -0.008065511 0.064426 -0.017705057 0.014160311 0.112132855
0.00077759224 0.0078012114 0.02739753 -0.0069254567 0.04043342 -0.009390065 0.030125203 0.10084381
-0.0075724446 -0.0016777645 -0.0134740705 -0.0298824 -0.02550428 0.026858961 0.02642489 0.036408037
0.057328176 0.087918535 0.050345983 0.15203612 -0.0090945475 0.0026719207 -0.015921524 0.03637828
0.027912628 0.024658691 0.038278174 0.018185917 -0.01658429 0.0769822 -0.02314764 0.0056460043
0.10091482 -0.005703366 -0.0077213407 0.03310367 0.007175913 0.085884765 -0.015892461 0.062411137
0.018416557 -0.03355261 -0.0007573189 0.016832318 0.048310414 0.01620113 -0.0005059782 -0.023950608
0.07520785 0.022509655 0.0023249264 -0.010944745 0.117148 0.04109455 -0.022204025 0.075394064
0.0219362 0.004684343 -0.006007128 -0.0039172904 -0.0056845094 0.003426631 0.0051311883 0.024827387
-0.013124181 -0.0004899655 -0.008248848 0.0053541325 0.0044045183 0.007952285 0.0067616655 -0.017270502
-0.005355999 0.009366166 0.00460458 0.00031631297 -0.007557191 -0.0044115307 0.006652351 -0.008590486
0.0051617115 0.011008305 -0.00053715846 0.029761907 0.0021067595 0.00463961 -0.0019677833 -0.00065138156
0.0026004808 0.0044584624 -0.01376975 0.0028155616 -0.01581087 0.015298795 -0.0062441365 -0.0027328532
0.003858047 -0.009913403 -0.0018335717 0.0018269374 -0.0005907417 -0.017453898 0.00038972875 0.03458633
0.00061079534 -0.011982533 -0.005966073 -0.000106344065 0.01381378 0.009745917 0.0037125645 0.0011049409
-0.01003684 -0.0061716014 -0.019128371 -0.002033743 -0.00035933478 0.0022515145 7.965272e-05 -9.796922e-05
-0.007065336 0.005920497 -0.005358643 -0.007788121 0.0017412055 0.00561435 0.0056910254 0.006344553
-0.0023604082 0.0017488329 -0.0034400234 0.0030412262 -0.004809783 0.0034741901 0.01196771 0.0014447136
-0.0053871586 0.0046722535 -0.00083294266 -0.00987803 -0.02338103 -0.003082087 0.0013475631 -0.0076497057
0.008403162 -0.008265845 -0.008122238 -0.019295199 -0.0011044767 0.004384593 0.008609813 0.009951932
0.0023124234 -0.0058714612 -0.035378207 -0.0030933341 -0.006898259 0.0020553297 0.008934664 -0.0015156156
0.027552763 -0.00586293 0.0018595642 0.0023178563 -0.0070924177 -0.013094079 0.0020887179 -0.028981889
-0.0044877515 -0.010737594 -0.0022452446 -0.01257693 -0.001218515 0.008924719 -0.009170165 -0.0073206373
-0.015314172 -0.004708667 -0.011692258 -0.008436847 0.017228918 -0.0064415243 0.0010649362 -0.006209549
0.011931645 0.0013988813 -0.0026636038 -0.001355235 0.0006848973 -0.0003698668 -0.00040077933 -0.004996223
-0.0013009685 0.0022832768 -0.0042456673 0.0005905276 -0.0028668158 -0.0020938243 -0.001097782 -0.0031071836
-0.004971161 0.0014988249 -1.8955128e-05 -0.0068259863 -0.008087488 -0.0019042414 0.0020567128 -0.0021399024
0.0025452343 -0.0036095732 -0.0016320968 -0.0119777685 -0.001117268 0.0009469108 0.006884281 -0.0053044036
0.002484152 -0.002509729 -0.029040163 0.0012744248 -0.004421846 -0.0002667956 0.003241793 -0.0006814235
0.010280609 -0.003331996 0.0007540851 7.503305e-05 -0.0026818851 -0.012567566 0.0007224292 -0.028968716
-0.0039218534 -0.007345181 -0.0003660417 -0.01254488 0.007493477 0.006981442 -0.007240387 -0.0072381757
-0.013161187 -0.003690383 -0.00576305 -0.0019638333 -0.0096805 -0.0011727008 -0.004537796 -0.00368776

convs.2.att_src f4 [1, 8, 64]
00000000: 5f2a efba 5a8b 9539 1dfe 62b8 6e46 22ba
00000010: edfa 6138 ffc3 28b9 0391 8ab9 9c18 84b9
00000020: 73b6 b6b9 cdbe c8b7 6c8c d0b8 9438 61b5
00000030: 49ea 9c39 b427 be38 e980 f5b9 efa8 faba
00000040: 0b62 3937 f5cc a6b8 383c 9937 a8db 10b8
00000050: 262d 9aba e762 9337 4e93 ceb7 fca4 79b8
00000060: cbfb b6b6 6f84 6139 d5c3 7ab9 2462 acba
00000070: 8bc5 13b9 9b10 e9b9 c92b 34b9 351e a6b8
00000080: fe27 44b8 55e2 bfb9 86fe 4738 535c 2bb9
00000090: fc55 d1b5 f7f2 d038 7b33 53b9 f5d4 13b8
000000a0: 0b15 aa3b b384 4838 93d3 3e38 30f4 5fb7
000000b0: 17dc 1b38 04f8 f4b8 9bad aa37 6cb0 613a
000000c0: a12c a7b8 644e 9b37 aaef 1038 f96e b6b9
000000d0: f65c a139 c50d 8fba a614 71b8 1db9 6eb9
000000e0: 8dce 1eba cd02 c038 1d76 3aba fc5b 6739
000000f0: 1f9e 8bba 427d b1b7 cf69 d438 1e6c 8237
00000100: 71e6 75b9 d7a6 1a39 a791 6fb9 ba08 d6b9
00000110: daca f5b9 a870 70b9 6749 06b9 976b b2b9
00000120: 2d4a af39 4d03 00b6 f381 f238 a047 24b5
00000130: c6b0 6038 3c75 1b39 f59f f4b8 dc08 45b9
00000140: 29f4 cf38 2782 53b9 3b3d feb7 a2ab 2eb9
00000150: ecb9 4539 18b6 d037 c621 8737 fa61 48b7
00000160: 6f07 9539 cca3 0a39 fa8d 023a 0a8d 9339
00000170: bb6f b4b7 ad31 9bb9 29df bc38 6e7e 9cb8
00000180: 8b83 91b8 8559 48b7 8a43 9038 eacf 27b9
00000190: 3c34 4bb9 aca5 2839 a4a7 89b9 028e 0838
000001a0: c017 143b f7f9 0f39 bd58 6c38 7c19 d536
000001b0: 792e 6138 f5a5 0d38 63ce 2938 996b 93ba
000001c0: 2467 9838 b87d 403a 2307 99b6 1b06 e7b7
000001d0: 1c53 9c39 d44f a7b9 8fd8 3039 bc2e d039
000001e0: 79ed 20b9 ba90 1339 321d 9f39 2204 253a
000001f0: ceaf 93ba 5678 7e38 59ee 51b8 d311 c538
00000200: c348 90bb 20b5 a539 b785 aa38 5d6d 5eba
00000210: bfb5 493a ff6b d839 d93c 23b9 ed6e adb9
00000220: 41b8 eeb9 1624 0a38 8436 4639 5cf5 65b5
00000230: 5c8e af38 a530 bb39 3b92 2cba 44c2 56bb
00000240: d9e6 18b9 ba4d 2d38 fcd4 0438 5a7b 2cb9
00000250: 0f61 d4ba b451 68b8 a95b 6fb8 c393 93b8
00000260: ba79 0aba 71c1 1c39 f36a aeb8 7d6f 50bb
00000270: 9271 bfb7 ed22 edb9 9b93 57ba aa0a f2b9
00000280: f1ec 2239 2c60 e4b9 629b 98b9 da81 5f39
00000290: 36b8 ecb8 e8f2 1bb9 ac75 2239 e459 73b8
000002a0: da48 cf3b 140c 3339 b68a 9238 e435 9338
000002b0: 23c1 d937 6698 62b8 3aff 0f38 0961 e53a
000002c0: 5f0f 50b9 60c9 28ba bee2 9138 e750 9b39
000002d0: 2aec 7b38 16a7 c2ba 53d6 79b9 b779 1438
000002e0: e5d7 c3b9 3709 0c38 cda2 70ba 0acd 0a3a
000002f0: 6f77 0dbb 7bf4 5cb8 1335 0cbb 98f4 00b8
00000300: 25d7 dbba c1b2 8638 3afd c139 fe60 5939
00000310: cc62 433a 9807 363a d075 bbb9 db4f a639
00000320: 3870 f6b9 d31f 5e38 bad3 89b9 6950 5534
00000330: bc6f 2339 a7f0 fab8 5147 af39 6bb1 9eba
00000340: af15 b8b8 17ec 8639 124b 3736 23e5 8d39
00000350: da7d 28ba 7903 7837 e8a6 cfb7 4fd5 30b7
00000360: e3b1 a8b9 f6d9 22b7 372a 88b9 925b a7ba
00000370: 237a c238 dc7b 72b9 7b88 6fb9 f830 7839
00000380: 8263 6b39 6b53 1c39 560c 8939 a891 3bb8
00000390: 52f2 09b8 0589 9838 c0b9 5039 92bf aab8
000003a0: 3505 033b 2ef1 9fb9 2ee2 efb8 f3ca f038
000003b0: b399 0db9 2a19 52b9 a89b 25b7 e0d1 753a
000003c0: df7c 84b9 762c 46b9 f1e4 a8b7 ade0 00ba
000003d0: 3454 c239 0402 113a c3f3 74b9 abd1 93ba
000003e0: f112 7db9 4673 3bb8 222c 13ba 034d ce38
000003f0: 4080 b33a 491b 9fb8 36f7 05ba 5599 7ab8
-0.001824688 0.0002852332 -5.411926e-05 -0.00061903044 5.3877873e-05 -0.00016094743 -0.00026429453 -0.00025195337
-0.0003484968 -2.3930706e-05 -9.9443685e-05 -8.3901364e-07 0.00029929195 9.067301e-05 -0.00046826087 -0.0019123832
1.1049687e-05 -7.953673e-05 1.8267063e-05 -3.4536846e-05 -0.0011762723 1.756982e-05 -2.4625708e-05 -5.951988e-05
-5.4533352e-06 0.00021507007 -0.00023914811 -0.0013151807 -0.00014092603 -0.00044453595 -0.00017182449 -7.921123e-05
-4.6767287e-05 -0.0003659899 4.768234e-05 -0.00016342224 -1.5596738e-06 9.9634686e-05 -0.00020141706 -3.5245863e-05
0.005190497 4.78073e-05 4.5496574e-05 -1.334869e-05 3.7159854e-05 -0.00011681023 2.034642e-05 0.0008609358
-7.971493e-05 1.8513943e-05 3.455548e-05 -0.00034796426 0.00030777574 -0.0010914138 -5.7478108e-05 -0.00022766409
-0.0006058 9.155795e-05 -0.0007112937 0.00022064144 -0.0010651982 -2.1158372e-05 0.00010128656 1.5547554e-05
-0.00023450867 0.00014748737 -0.00022847076 -0.00040823763 -0.00046881178 -0.00022930151 -0.0001280658 -0.00034030966
0.00033433866 -1.9075408e-06 0.00011563664 -6.119899e-07 5.3570395e-05 0.00014825625 -0.00011664621 -0.00018790684
9.9160075e-05 -0.00020171014 -3.0307672e-05 -0.00016657871 0.00018856645 2.4880326e-05 1.6108981e-05 -1.1943741e-05
0.00028425033 0.00013221725 0.00049802626 0.00028143107 -2.15097e-05 -0.00029600915 9.0061054e-05 -7.462209e-05
-6.9386406e-05 -1.1941772e-05 6.879035e-05 -0.00016003815 -0.00019379047 0.00016083446 -0.00026255578 3.2557182e-05
0.0022597164 0.00013730662 5.634943e-05 6.3508614e-06 5.368746e-05 3.377158e-05 4.0484952e-05 -0.0011247277
7.267136e-05 0.00073429523 -4.560586e-06 -2.7540189e-05 0.0002981656 -0.000319122 0.00016865342 0.0003970767
-0.00015347255 0.00014072927 0.00030348595 0.00062948663 -0.0011267604 6.067039e-05 -5.005146e-05 9.397012e-05
-0.004403205 0.000316062 8.131138e-05 -0.00084849243 0.0007694624 0.00041279194 -0.00015567559 -0.00033079777
-0.00045532177 3.293537e-05 0.0001890306 -8.566619e-07 8.371167e-05 0.00035703662 -0.00065830693 -0.00327696
-0.00014581847 4.1318803e-05 3.166961e-05 -0.0001644915 -0.0016203242 -5.5389202e-05 -5.7067406e-05 -7.037029e-05
-0.0005282421 0.00014949382 -8.3168874e-05 -0.0031804733 -2.282186e-05 -0.00045230184 -0.0008223594 -0.00046165782
0.00015537791 -0.00043559202 -0.00029107468 0.00021315311 -0.00011287669 -0.00014872442 0.0001549336 -5.8019432e-05
0.0063258233 0.0001707527 6.9876594e-05 7.019544e-05 2.5958352e-05 -5.402453e-05 3.4331555e-05 0.0017500232
-0.00019842152 -0.00064386986 6.956373e-05 0.0002962418 6.006301e-05 -0.0014850821 -0.00023826332 3.5399305e-05
-0.00037354152 3.3387183e-05 -0.00091795326 0.00052948354 -0.002158608 -5.2679778e-05 -0.002139394 -3.0745374e-05
-0.0016772492 6.4229134e-05 0.00037000497 0.00020730865 0.00074533815 0.00069438806 -0.00035755197 0.00031721484
-0.00047004386 5.2958563e-05 -0.00026288425 1.9866424e-07 0.00015586516 -0.00011965754 0.00033431736 -0.0012107318
-8.7778426e-05 0.00025734372 2.7312822e-06 0.00027064336 -0.0006427445 1.478276e-05 -2.4754045e-05 -1.0540082e-05
-0.00032175993 -9.7067e-06 -0.00025971394 -0.0012768379 9.2733906e-05 -0.0002312506 -0.00022843659 0.00023669365
0.00022448416 0.00014908395 0.00026139867 -4.4719927e-05 -3.2889024e-05 7.273447e-05 0.00019905623 -8.1419144e-05
0.0019992117 -0.00030506536 -0.00011438537 0.00011481894 -0.00013504065 -0.00020036535 -9.871008e-06 0.0009377282
-0.00025270038 -0.00018899314 -2.013377e-05 -0.0004916292 0.000370653 0.00055316114 -0.00023360462 -0.0011277696
-0.00024135016 -4.469163e-05 -0.0005614181 9.83719e-05 0.0013694838 -7.586793e-05 -0.00051103847 -5.9747446e-05

convs.2.att_dst f4 [1, 8, 64]
00000000: ab13 e4ba 4776 7138 92c5 ee39 8c6e 6d3a
00000010: 70db 4b3a 8208 c3b7 5237 b0b9 066a 8f3a
00000020: 1997 5cba 820c c837 1413 24ba 9b0f 5634
00000030: 584b ffb8 c7a4 f1b9 b13b a5ba 9f67 2abb
00000040: e6fb f2b9 82fe 0539 4d45 0939 e43b fc39
00000050: 259c 09bb 017a 0bb8 fac7 64b9 9896 91b7
00000060: 9f7e a4ba abd4 45b9 270a 94ba 0b2c 0ebb
00000070: 0ac1 c938 b06d 31b9 c0da 65ba a44c 083a
00000080: afaa 343a 60fc 08ba 3d9f 263a 15fc 52b8
00000090: e1a1 bd38 ee5f 3838 ac14 0d3a e200 1ab9
000000a0: d609 1db9 b9d6 21ba 07eb eab8 66c7 4738
000000b0: d172 e7b9 2605 2039 d4ad 7537 005a 063b
000000c0: 740d 35ba 8174 0cb9 5ba1 de37 784f 16bb
000000d0: 5ad7 043a 7bc2 f23a 7469 8eba 8e88 ebb9
000000e0: 211f 21b9 e122 f4b8 2881 b9b9 bfec 8db9
000000f0: b250 883b cfff 2cb9 aeb8 aaba a251 1537
00000100: 4429 dd39 a639 22b9 522a ddb8 9ce1 2139
00000110: 4cac ab39 5770 c937 9866 6c38 5890 c137
00000120: b9e9 0939 a5e5 b2b7 4aa5 8db7 dc11 5f34
00000130: 7d8f e136 b28f 5db8 5ddd bbb8 0f16 2a3a
00000140: f388 d637 8dfa dfb8 872a e2b6 b631 33b7
00000150: 10ac 80b8 fead 7437 fe6f bdb7 d471 0637
00000160: 5c5f 26b8 3b3d a5b8 4240 49b9 12a1 c639
00000170: d6fd 3e38 31b8 4a39 0f27 2e36 f0ec da38
00000180: 59dd 9737 9bc2 e438 0345 4538 9a8b dc38
00000190: 045f 8eb8 d58f 1739 b0db 2838 6c4d ec34
000001a0: cbed 59b9 4e69 bdb7 b3b4 55b7 f5fd d437
000001b0: 47ce 11b7 8e7c cd37 7ce1 3d37 2f42 0438
000001c0: 433b a6b7 67d8 27b9 d4d9 96b7 def0 3938
000001d0: 9951 99b8 a294 dfb9 11b5 e337 ad5e 29ba
000001e0: 6ca6 9638 db5b 8eb7 35c1 6f39 656e 9eb8
000001f0: cc06 0bba bd8f 1db8 2fee d038 908f be38
00000200: 2db8 10bb 3fad c139 dde9 1f3a 53c2 6cb9
00000210: dee0 d13a cebf 643a d853 2dba 8759 c239
00000220: 1b2c 77ba c6ad 0938 2327 12ba edbb cfb4
00000230: ad34 8b39 f1fb 1a3a fbf8 f2b9 25cd 8aba
00000240: b3dd 04b9 8407 4f37 586b 6438 7c29 1f39
00000250: ea27 f1ba f407 91b8 a02e 0bb9 62ea a6b7
00000260: f2f9 68ba bd9e 82b9 6721 80ba 175b aeba
00000270: c167 ba38 4716 f4b7 f531 17ba 2e11 9739
00000280: 9fb2 b839 7125 2bb9 543d 6639 3391 9039
00000290: 02ff 11b9 d8bc e9b7 5fa8 1b3a f2ef f5b8
000002a0: 6611 993a 0437 aab8 32e3 d5b8 cf70 1538
000002b0: 6211 d8b8 c9e9 0c39 895e e937 c6d3 a53a
000002c0: b50e 59ba 9135 30ba 8143 7138 f127 1aba
000002d0: 326a 8738 2f5e 583a 3b78 56b9 3f29 95b9
000002e0: 3d52 b9b8 30a7 57b8 a460 a1ba 214c 1d39
000002f0: ac12 ed3a 8579 5ab9 381e 5dba bb41 abb8
00000300: b0c8 c0ba 351b e737 e61d 5139 5b53 e639
00000310: 3508 e53a 27db 4a3a ac30 35b9 6385 0a3a
00000320: fab7 89b9 e81d ab38 9f72 37b9 b56d 1a34
00000330: 6d83 e032 992b fe38 a4f6 173a 810b 43b9
00000340: 6cab 92b9 1d6d 7739 a107 9637 1de3 c439
00000350: 12aa 86ba f0a4 08b7 f971 0bb9 44a3 cc36
00000360: c8af 07ba 5674 22b9 709b 4aba a8c0 5bba
00000370: c9de 9a38 7efb 1bba b51a 68b9 e77b 4439
00000380: 514d 5239 19ee 9438 1d7b a539 ede9 7d39
00000390: b9cd 56b9 8e8a 7f38 c432 3238 a0f3 afb8
000003a0: bff7 f53a 5406 8cb9 efda b2b8 dd5e fb38
000003b0: e9d9 46b9 718e 2bb9 d457 b4b7 a14d 163b
000003c0: 9c19 13ba a53c aeb9 9c68 5a37 bdd4 49ba
000003d0: f9bd c539 5486 9438 0fc9 8ab9 b7c5 31ba
000003e0: 67e0 75b9 155d 1bb9 e724 14ba 0ff6 2039
000003f0: e380 8839 6322 afb8 7852 dfba f31f 3938
-0.0017400881 5.7569032e-05 0.000455421 0.0009057305 0.0007776534 -2.3249773e-05 -0.00033610553 0.0010941632
-0.0008414849 2.3847682e-05 -0.00062589464 1.993598e-07 -0.000121733814 -0.0004608987 -0.001260629 -0.0026001704
-0.00046345516 0.0001277868 0.00013091155 0.00048109808 -0.002099761 -3.3253807e-05 -0.00021818271 -1.7355473e-05
-0.0012549943 -0.00018866609 -0.001129453 -0.0021693732 9.620383e-05 -0.00016920897 -0.0008768253 0.00051994086
0.0006891889 -0.0005225595 0.0006356126 -5.030267e-05 9.0423746e-05 4.395836e-05 0.00053818035 -0.00014686913
-0.00014976351 -0.0006173659 -0.00011201767 4.7631e-05 -0.00044145298 0.00015260707 1.46436105e-05 0.0020500422
-0.0006906607 -0.00013394842 2.65396e-05 -0.002293555 0.000506749 0.0018521094 -0.0010865168 -0.00044924434
-0.00015365753 -0.00011641323 -0.0003538218 -0.00027070005 0.0041600103 -0.00016498494 -0.001302501 8.900099e-06
0.0004218315 -0.00015471 -0.00010545984 0.00015438203 0.00032744033 2.401338e-05 5.6362333e-05 2.3074608e-05
0.00013152407 -2.132619e-05 -1.6885479e-05 2.077499e-07 6.7222268e-06 -5.2824333e-05 -8.958087e-05 0.00064882723
2.557456e-05 -0.00010680137 -6.7402757e-06 -1.0680806e-05 -6.135565e-05 1.4584044e-05 -2.2582706e-05 8.013525e-06
-3.9666294e-05 -7.879218e-05 -0.00019192792 0.0003788551 4.5535933e-05 0.00019332838 2.5950756e-06 0.00010439183
1.8103676e-05 0.00010908135 4.7032732e-05 0.0001051642 -6.788786e-05 0.00014454064 4.025892e-05 4.4014757e-07
-0.00020783317 -2.2579592e-05 -1.2737862e-05 2.5390627e-05 -8.690701e-06 2.4495905e-05 1.13177775e-05 3.153289e-05
-1.9816338e-05 -0.00016006977 -1.7982828e-05 4.4331762e-05 -7.310807e-05 -0.00042644615 2.7144824e-05 -0.0006460946
7.183556e-05 -1.6970493e-05 0.00022864791 -7.55459e-05 -0.0005303442 -3.7565584e-05 9.962578e-05 9.0866466e-05
-0.0022082434 0.00036940907 0.0006100217 -0.00022579105 0.001601245 0.0008726091 -0.000661192 0.00037069267
-0.00094288745 3.2825184e-05 -0.000557529 -3.869349e-07 0.00026551393 0.0005912176 -0.00046343342 -0.0010589702
-0.0001267109 1.2339911e-05 5.4459408e-05 0.00015178876 -0.0018398736 -6.91562e-05 -0.00013273442 -1.9897885e-05
-0.00088873424 -0.00024913801 -0.000977558 -0.0013302293 8.888497e-05 -2.909744e-05 -0.0005767637 0.00028813764
0.00035228298 -0.00016321779 0.00021957356 0.00027574002 -0.00013923275 -2.7863702e-05 0.000593787 -0.00011727204
0.0011678159 -8.116479e-05 -0.0001019895 3.562943e-05 -0.000103029204 0.00013438532 2.7819786e-05 0.0012651614
-0.00082800846 -0.0006721849 5.7521745e-05 -0.00058805855 6.457082e-05 0.00082537805 -0.0002045342 -0.00028450225
-8.8368055e-05 -5.14157e-05 -0.0012312126 0.00015001047 0.001808723 -0.0002083537 -0.0008434984 -8.166159e-05
-0.0014708247 2.7550015e-05 0.00019942931 0.00043931123 0.0017473759 0.0007738345 -0.00017279637 0.00052841584
-0.0002626775 8.159486e-05 -0.0001749494 1.4382279e-07 2.6136798e-08 0.000121197845 0.0005796945 -0.00018600935
-0.0002797501 0.00023596403 1.7884946e-05 0.00037553246 -0.0010274074 -8.144634e-06 -0.00013298531 6.0986804e-06
-0.0005176035 -0.00015492862 -0.00077288505 -0.0008382895 7.384789e-05 -0.0005950256 -0.00022135193 0.00018738174
0.00020055963 7.101539e-05 0.0003156298 0.00024215104 -0.00020485268 6.0925777e-05 4.2485786e-05 -8.390029e-05
0.0018765851 -0.00026707596 -8.528481e-05 0.00011986282 -0.0001896393 -0.00016360894 -2.149857e-05 0.0022934454
-0.0005611421 -0.0003323305 1.3018169e-05 -0.0007699242 0.0003771631 7.0822105e-05 -0.00026471211 -0.0006781476
-0.00023448617 -0.00014816628 -0.0005651251 0.00015350453 0.0002603597 -8.351055e-05 -0.0017038127 4.4137192e-05

convs.2.bias f4 [64]
00000000: 276d fab5 ed38 42b1 f818 1233 0909 cb33
00000010: 6a54 0fb5 30e0 1b34 b127 08b3 5c2f 9c33
00000020: 9a42 45b4 8499 21b2 86e8 d234 8322 23ad
00000030: 8976 c8b3 0d64 85b3 3f83 83b5 75a8 a236
00000040: 55db f133 f9c3 fe33 b906 eb30 0afc 42b3
00000050: cfbb 95b5 30ff 3432 765c 59b2 fd32 d4b2
00000060: b161 6634 31bc a1b3 c6fa f034 50c7 3cb5
00000070: 45de d5b2 82f6 f2b3 738d 2234 a154 b1b3
00000080: 4963 d433 561f b733 79d8 29b5 e815 1fb4
00000090: e133 50b1 1063 1fb3 031c 4534 4324 a932
000000a0: 6d3f a4b4 20c2 17b3 7b9e 32b3 0807 4132
000000b0: a32f 7fb1 de67 81b4 446f f3b1 a0e0 02b6
000000c0: f0ce b5b3 809f 2eb5 03b3 6731 219e 4c34
000000d0: 898f 2832 2294 52b5 61c3 1233 6618 3ab5
000000e0: 293d eab2 77b6 e4b3 6c71 fab3 c84c 0a34
000000f0: fcd3 4235 c228 f232 dc7e 14b5 786c 2334
-1.8658219e-06 -2.8263074e-09 3.4015983e-08 9.4545676e-08 -5.339449e-07 1.4517059e-07 -3.1701067e-08 7.272931e-08
-1.8371284e-07 -9.406339e-09 3.928473e-07 -9.27314e-12 -9.334787e-08 -6.211494e-08 -9.798458e-07 4.847587e-06
1.1262333e-07 1.1863444e-07 1.7100411e-09 -4.5398373e-08 -1.1156025e-06 1.0535402e-08 -1.2652086e-08 -2.4703235e-08
2.1455959e-07 -7.5313785e-08 4.4885945e-07 -7.0325495e-07 -2.489754e-08 -1.1313843e-07 1.5138885e-07 -8.257599e-08
9.890079e-08 8.5273015e-08 -6.3272415e-07 -1.4815998e-07 -3.0297473e-09 -3.711017e-08 1.8357245e-07 1.969068e-08
-3.059353e-07 -3.5333983e-08 -4.158799e-08 1.1235677e-08 -3.7134462e-09 -2.4103696e-07 -7.0848802e-09 -1.9502259e-06
-8.466111e-08 -6.5052154e-07 3.371668e-09 1.9056507e-07 9.811523e-09 -7.844666e-07 3.417097e-08 -6.9325904e-07
-2.7268998e-08 -1.06502675e-07 -1.16621635e-07 1.2880184e-07 7.257911e-07 2.8191042e-08 -5.53189e-07 1.5220019e-07

convs.2.lin.weight f4 [512, 64]
00000000: 1472 0ebd c680 9b3c 074f f8bb 34ab 46bc
00000010: 9424 283c ae78 e53c 6ee9 403c 6b69 1c3d
00000020: c41f a3bc d52c e43b 8168 b9bb 2565 e83b
00000030: 9981 87bb ad16 733c 73d7 dd3c 8466 273c
00000040: 404c febb 179a 693c 9e25 b9b8 bf20 02bd
00000050: ee9e 06bd 61b5 17bb 917a e73b 68a1 a6ba
00000060: 685f 3fbb 78e8 17bc c596 13bc 5f6f 18bc
00000070: 9e09 d6ba d03f 483d b134 50bc 5804 1c3c
00000080: 2d8d 4e3c c66b e33a ca7e 22bd 1177 153b
00000090: 6134 d9bc 4af6 8f3c ffec 713c 5e1f 80bb
000000a0: 5942 2a3c ec14 5ebc 7d6c 86ba 73c2 f83b
000000b0: 56e9 1cbc 303c a6bc 4486 9a38 6c73 a03b
000000c0: 72e7 d2bb 1a3b 38bd fa96 cfbb c235 6dbc
000000d0: e055 b2ba b580 3bbc fe1e 2bbc 888f dfbc
000000e0: 052e a33a 4fbd 99bb efef db39 bfa8 89bc
000000f0: f1e4 fb3c ecae 9f3a c6cd 363c 0fd5 0bbb
00000100: 2f7a b83b 0d36 c4b9 51bc 22b8 be03 68ba
00000110: c7ea ed3a 50ca d6b9 0df7 5eba ca6b e3ba
00000120: 2c3d 403a 7d91 b738 7345 09ba 3edb e7b9
00000130: 7fea 673a e246 dab7 c6b6 fab9 ac68 8ab9
00000140: 634b 263a 864d ecb8 b90e c338 6f62 333a
00000150: 2785 e13a c767 7f38 5690 93ba e01e 7cb7
00000160: c5d0 853a e6a4 0d3a 2b6b 24b7 ff25 dc3b
00000170: 8c14 1e38 b0c5 a23a 24e9 a23a 3240 4ab7
00000180: b7f4 c7b9 d6f4 4cb7 92f9 113a 4b52 043a
00000190: 3a68 253b 4a87 25ba 6ccc e239 ddf8 25b4
000001a0: 608f d03a a72a 3d39 4e55 103a 5292 94b9
000001b0: a5b4 9939 4633 98b9 6113 52b9 5797 aebb
000001c0: db17 e6b8 2886 573b 2bcc 0f39 f644 313a
000001d0: 8193 6e3b 3669 ac3a f092 fd39 c96c da3a
000001e0: dc87 613a 1b27 9cb9 edb3 603a a80e ccb9
000001f0: 5796 57bb 31c3 163a 672b 4e3a 9f46 9439
00000200: 36cf eebb 7995 85ba c6d7 df38 adbc b139
00000210: c063 3c3a 51fa 66ba b2c8 20ba e9a3 173a
00000220: 3908 4939 fc7a 7739 c404 a439 a495 47b9
00000230: 3895 12ba 44af f5b9 d02b 16ba 353a 9039
00000240: 1dab 88b6 a143 ceb9 e809 96b4 df13 f1b8
00000250: 4fd7 0c3b 4ed2 7738 459a f239 a829 b239
00000260: 82c2 1bbb 5403 0bba 0f49 7139 c7f1 473a
00000270: 93dc 73b6 df5e 4c3b 50d3 6dba b339 14ba
00000280: ec2e 3eb9 52ef 6639 561e 883b bee1 8839
00000290: 166e 4a39 0b11 51ba 944d d1b9 4496 4539
000002a0: 0315 c0b9 0c34 8c39 b6cc d139 16e3 c639
000002b0: dce6 1439 3fff 2cba b7a5 8eb8 3cf3 3ebb
000002c0: 22e2 a536 929a ee39 0800 4e39 9192 a73a
000002d0: 78ee 313b d756 f1ba ca31 9539 7794 7439
000002e0: 0a90 ae3a ff5e 8e39 d9e8 c93a faf7 d139
000002f0: 6dbc 7cbb 1e7a 7d38 0c95 9bb9 c6a3 4239
00000300: ae6f 9dbc c241 20bb 7a51 c83b e178 083b
00000310: 5a5c 3db9 ea89 73bb 7680 c2ba 3c41 a0bb
00000320: ba0c c0b9 9c38 81ba ee97 b0ba 1dc8 3cba
00000330: 5c7f 6e39 c25d ff3a f1c8 5f3b e3ce c53b
00000340: 8058 653b 0b31 0ebb 8fbf 0039 3584 b53b
00000350: 566b d8bb 1611 b8b7 0e3a 403b ebcc c53a
00000360: 329b 6abb 944c 6f3b bb13 773b ebfb dbbb
00000370: 78c1 513a 3cba 1a3b abe3 d2bb 4af2 4ab9
00000380: d69c 05b9 2f2b 14bb 4bc7 6a3c 66d7 063a
00000390: e177 3c3b 5768 3b3a 3940 31bb eaba f039
000003a0: 50a6 2d3c 3a54 d03a 6917 ae3a 52bf da38
000003b0: ea9c cd3a 88d8 0abb 1ebc c1b9 cf3a f83a
000003c0: d503 553a 7e0e be3b 5487 8aba 8eb5 933b
000003d0: 51b6 713b c448 ccbb 3bab 8039 cfde 863b
000003e0: c0ff 023b b1a3 893a fba7 a73a 5556 453b
000003f0: fc87 a5bb 6365 d439 2281 4d3a 28bc bd3a
-0.034776762 0.018982302 -0.00757778 -0.012125779 0.010262627 0.028011646 0.011774404 0.038186472
-0.019912608 0.006963352 -0.00565821 0.0070921355 -0.0041353223 0.014836949 0.027080273 0.010217313
-0.0077605546 0.014257929 -8.828494e-05 -0.03176951 -0.03286641 -0.0023148882 0.0070641716 -0.0012712898
-0.0029201154 -0.009271733 -0.009008114 -0.009303897 -0.001632977 0.04888898 -0.012707875 0.00952252
0.012606901 0.0017350845 -0.039671697 0.0022806565 -0.026514234 0.017573494 0.014765977 -0.0039099893
0.010391795 -0.013554793 -0.0010255721 0.0075915395 -0.009577116 -0.020292372 7.368301e-05 0.004896572
-0.006436282 -0.04497824 -0.0063351365 -0.014478149 -0.0013605915 -0.01144426 -0.010444401 -0.02729012
0.0012449628 -0.004691757 0.000419497 -0.016804097 0.030748816 0.0012182868 0.011157459 -0.002133671
0.0056298 -0.00037424304 -3.8799193e-05 -0.0008850655 0.0018151634 -0.00040967995 -0.00085054414 -0.0017350849
0.0007333334 8.753219e-05 -0.0005236484 -0.00044223102 0.00088468933 -2.6020633e-05 -0.00047819893 -0.00026399398
0.0006343631 -0.00011267797 9.301067e-05 0.0006842976 0.001720582 6.0893388e-05 -0.0011258225 -1.5027559e-05
0.0010209313 0.0005403295 -9.800114e-06 0.0067183967 3.768927e-05 0.0012418535 0.00124291 -1.2055085e-05
-0.00038138565 -1.2216353e-05 0.00055685 0.0005047663 0.0025239126 -0.000631441 0.00043258385 -1.5457358e-07
0.001591187 0.00018040334 0.00055058755 -0.00028337777 0.00029317025 -0.000290299 -0.0002003438 -0.0053280997
-0.00010971698 0.003288636 0.00013713601 0.000676229 0.0036403837 0.0013153914 0.00048365397 0.00166645
0.00086033135 -0.00029783775 0.0008571733 -0.00038920832 -0.0032896006 0.00057511317 0.0007864744 0.00028281377
-0.007287885 -0.0010191641 0.000106736596 0.00033900645 0.0007186495 -0.0008811104 -0.00061334216 0.00057846174
0.00019171917 0.00023601571 0.00031284068 -0.00019033864 -0.00055916933 -0.00046860625 -0.00057285745 0.00027509188
-4.073036e-06 -0.0003934177 -2.7946885e-07 -0.00011495477 0.0021490639 5.908525e-05 0.00046272777 0.00033981842
-0.0023767059 -0.0005302925 0.00023010767 0.0007627275 -3.6338213e-06 0.0031184477 -0.00090723205 -0.000565435
-0.00018137292 0.00022023663 0.004154007 0.00026108132 0.00019305231 -0.0007975257 -0.00039921387 0.00018843362
-0.0003663675 0.0002674166 0.00040016108 0.00037934695 0.00014200382 -0.0006599314 -6.8019544e-05 -0.0029136678
4.9437085e-06 0.0004551006 0.00019645703 0.0012784769 0.0027150195 -0.0018412721 0.0002845659 0.00023324961
0.0013318073 0.00027155128 0.0015404477 0.00040048343 -0.003856446 6.043363e-05 -0.00029674952 0.00018562292
-0.019218292 -0.0024453257 0.0061132284 0.0020824003 -0.00018058848 -0.003716106 -0.001483931 -0.004890589
-0.00036630576 -0.000985879 -0.0013473013 -0.000720145 0.00022744894 0.0019482898 0.003414687 0.0060366257
0.0034995377 -0.0021696712 0.00012278392 0.005539442 -0.0066045923 -2.1942466e-05 0.0029331478 0.0015090978
-0.003579807 0.003651415 0.003770097 -0.0067133806 0.00080015464 0.002360954 -0.0064358315 -0.00019354481
-0.00012742294 -0.0022608747 0.014329742 0.0005143791 0.0028757977 0.0007149032 -0.0027046336 0.0004591563
0.010598734 0.0015894242 0.0013282123 0.00010430686 0.0015687023 -0.0021186192 -0.00036951987 0.0018938425
0.0008125876 0.0058000674 -0.0010568895 0.004507727 0.003688235 -0.0062342603 0.0002454164 0.0041159163
0.0019988865 0.0010501054 0.0012791151 0.0030111272 -0.005051611 0.0004051133 0.00078393717 0.0014475631

batch_norms.0.weight f4 [64]
00000000: 7442 623f db85 663d ae60 eb3d ee84 043e
00000010: 9e43 bb3d 86f4 b23d ec6b 893d eff2 9f3e
00000020: 7e02 293e bd98 4f3d 6435 ea3d 9f33 ef3c
00000030: bf3e d03d dcd5 933d 21c5 1a3e 478b 2d3f
00000040: d61b a83d 18ff 1b3e 500b 2b3c 5156 4a3e
00000050: 80cb bb3e c882 a43c 4fff 863d 52ed 943d
00000060: 5959 883e afa5 463e 3605 a53d 9653 393f
00000070: d258 8c3c 8fae 623e 2535 223e 1298 3b3e
00000080: ebad 0f3d 986c 243e d439 023f dabb 453d
00000090: 84d8 4b3e 403b 5a3e 4a0d f23d 32de a33c
000000a0: 8361 3a3f daf6 bb3d e175 193d 7364 3c3d
000000b0: 5b08 833d 6293 783e 1a6c bf3c 33ba 2d3f
000000c0: 6292 7b3d 1b80 4c3e 63b4 013d ee5a 943e
000000d0: 5841 013e 14c2 493e 5e7b a13d 7710 373e
000000e0: 4a28 673e 7bb9 973d 190c 423e 3e32 0a3e
000000f0: 300a ff3e 1290 663d 28cc 863e 5f9a 973d
0.8838265 0.05628 0.114930496 0.12941334 0.09143756 0.087380454 0.067100376 0.3124003
0.16504857 0.050682772 0.11435965 0.02919942 0.10168218 0.07218525 0.15114261 0.67790645
0.08208434 0.1523403 0.010439709 0.1975949 0.36678696 0.020081893 0.06591665 0.07271828
0.26630667 0.19399141 0.080576345 0.72393167 0.017132197 0.22136901 0.15840586 0.18319729
0.03507797 0.1605705 0.5086949 0.048274852 0.19906813 0.21311665 0.11818941 0.020003412
0.7280504 0.091779426 0.037465934 0.045994233 0.06398078 0.24274972 0.023366977 0.6786224
0.0614189 0.19970743 0.03166617 0.28975624 0.12622583 0.19702941 0.078848585 0.17877375
0.22573963 0.074084245 0.18949927 0.13495728 0.4981246 0.05628974 0.26327634 0.07402491

batch_norms.0.bias f4 [64]
00000000: d37b d73d 956a 8cbb 1287 703b b02d a8bc
00000010: e4cd 18bb ddb3 f5bc 0dd9 2a3b 5b5b 9bbd
00000020: e1fa c6bc 247d 2d3c 616b c23c edfc ecb9
00000030: ceb4 84bb 2123 f0bc abf9 81bd 2e1c c33d
00000040: 652c 7bbb 3324 6cbd df97 823a 5684 a0bd
00000050: afc7 59bd 83a0 7dbb bf94 7fbc f9fb 9bbc
00000060: 5f85 efbc 66b3 86bd 7938 c5ba 8cd3 9c3b
00000070: 1e9f 73bb 1a44 86bd 31f6 19bd 982e 95bd
00000080: 7bee eb3b 11b7 bebc f784 5dbe 8108 c5bc
00000090: 4da3 ac3b 2941 a3bd 4c1e 16bd d3ed 95bc
000000a0: d890 853d 64a4 04bd 0111 6c3c 8001 b5b9
000000b0: 9988 96bc ed32 38bd a945 203c 2bdf ce3c
000000c0: 1783 84bc 3295 0abd 09fa a2bb 3062 d3bb
000000d0: 9a84 6ebc 6afb 9e3b c152 f7bb 3a5c 2cbd
000000e0: b534 5fbd 29b1 b5bc 39d6 1cbd 12a0 c4bc
000000f0: bb36 4abc 874d b2bc 7db6 2ebd 46cc 01bc
0.105216645 -0.0042851665 0.0036701602 -0.020529598 -0.002331608 -0.029992992 0.0026069314 -0.07585784
-0.02428955 0.010588918 0.023732843 -0.00045201872 -0.004049874 -0.029313626 -0.063464485 0.09526859
-0.0038326022 -0.05765171 0.0009963474 -0.07837741 -0.05316895 -0.0038700409 -0.015599429 -0.019041048
-0.029238401 -0.06577186 -0.0015046737 0.0047859605 -0.0037173699 -0.06555958 -0.037588302 -0.07284278
0.00720006 -0.023280652 -0.21632753 -0.024051907 0.0052684904 -0.07971413 -0.036649987 -0.01830188
0.065217674 -0.032383338 0.014408351 -0.00034524128 -0.018375682 -0.04497044 0.009782233 0.0252529
-0.01617579 -0.03383369 -0.004973654 -0.006450914 -0.014557982 0.0048517482 -0.007547707 -0.04208014
-0.054493625 -0.022179203 -0.038290236 -0.024002109 -0.01234215 -0.021765484 -0.042654503 -0.007922238

batch_norms.0.running_mean f4 [64]
00000000: b8c7 a23e 4a7a 233e 97e8 e3be 2a85 71be
00000010: 4e93 1d3e 297a 493e 7d81 b03e cab9 de3e
00000020: b486 90be 9a78 623e 35f9 80be 7b0d 8b3e
00000030: 2bf6 1abf a0cb 143f f8c3 893e 3dfd cc3e
00000040: 09bc b9be e4d8 213f a056 e9be af2f 51be
00000050: a1fe c7be 1a0c ffbe 67e9 f23e 268b 07bf
00000060: 2f00 ad3e 5c25 28bf 86ab 88be bea1 a93e
00000070: 8979 02bf 357e ca3e a0cc 0d3f e7fb f03e
00000080: 632f db3d 0fa2 04bf 8a1c 65be f828 17bf
00000090: 6e86 d7be a96e 4c3f 30a5 313f cc70 33be
000000a0: aa9e de3e fda2 93be 2a08 b83f 74d9 5c40
000000b0: 6552 52bf b02d fcc0 a87c 6a3e 9c3f 6a3b
000000c0: 1199 87be 900c a7be c295 0fbe 096a dbbe
000000d0: 70e3 fdbd 1bfa 993e 9894 8bbe 76ec 95be
000000e0: 2960 ccbe 78d4 5ebe c32f 1fbf 0389 80be
000000f0: 4276 d33e 9437 debe 9a07 c03e 1173 0cbf
0.31792998 0.15964618 -0.4451339 -0.23585954 0.15388224 0.19675507 0.34473792 0.4350112
-0.2822777 0.22116318 -0.2519013 0.27158722 -0.6053187 0.5812321 0.26907325 0.40036955
-0.36276272 0.63221574 -0.45573902 -0.20428346 -0.39061454 -0.4981392 0.47443697 -0.529467
0.33789203 -0.65682006 -0.26693362 0.33131212 -0.509667 0.39549413 0.5539036 0.47067186
0.10702398 -0.5180978 -0.22374168 -0.5904689 -0.4209475 0.79856354 0.6939268 -0.17523497
0.43480426 -0.28835288 1.4377491 3.4507723 -0.82156974 -7.880577 0.22899115 0.003574348
-0.26483968 -0.32626772 -0.14021972 -0.42854336 -0.12396896 0.30073628 -0.27261806 -0.29281968
-0.39917114 -0.21760738 -0.62182254 -0.25104532 0.4130116 -0.43401778 0.375058 -0.5486308
