best_qaoa_gat_model.pt (torch, 835023 bytes, 104 tensors)

convs.0.att_src f4 [1, 8, 8]
0.20810513 0.32509893 0.2963981 -0.16392493 -0.16419661 -0.17910372 -0.1174594 0.23347136
-0.017800696 0.057332695 -0.050012298 -0.021026958 0.00058135577 0.11928396 0.03186265 -0.19209255
0.19513187 0.14588057 0.027199369 -0.27624542 -0.051881704 -0.05985891 0.0016455188 0.21361384
-0.05361547 0.20892258 0.28719234 0.015257819 -0.052785967 0.06903069 0.028608892 -0.19026168
0.054969557 2.7037175e-05 0.20423782 -0.22964045 -0.11540622 0.21577515 -0.1273469 -0.24567293
0.15107594 -0.053736128 0.100232854 0.014518026 0.026174067 0.11663284 0.15189505 0.20709391
-0.06945591 0.1981053 -0.054956317 -0.10503082 -0.050527953 0.10425096 -0.119570605 -0.042225216
0.14162897 0.13903035 -0.12900874 -0.06057491 0.06351407 0.07660752 -0.0753408 -0.30355823
00000000: 8319 553e 5e73 a63e 7ec1 973e f0db 27be
00000010: 2823 28be f766 37be 8e8e f0bd 1e13 6f3e
00000020: c4d2 91bc b0d5 6a3d b2d9 4cbd ba40 acbc
00000030: 2066 183a 264b f43d 6982 023d e9b3 44be
00000040: a6d0 473e b761 153e 36d1 de3c 0a70 8dbe
00000050: e981 54bd 9e2e 75bd 73ae d73a 96bd 5a3e
00000060: e59b 5bbd cdef 553e e00a 933e eefb 793c
00000070: 1936 58bd f65f 8d3d 325d ea3c f5d3 42be
00000080: c227 613d e4cd e237 b823 513e de26 6bbe
00000090: 195a ecbd 29f4 5c3e 3a67 02be af91 7bbe
000000a0: a7b3 1a3e 6a1a 5cbd e246 cd3d 04dd 6d3c
000000b0: ff6a d63c 33dd ee3d 608a 1b3e 6d10 543e
000000c0: e63e 8ebd 1edc 4a3e e019 61bd 661a d7bd
000000d0: 66f6 4ebd 8781 d53d 6fe1 f4bd 59f4 2cbd
000000e0: 2f07 113e f95d 0e3e de1a 04be 661d 78bd
000000f0: aa13 823d 67e4 9c3d 474c 9abd fc6b 9bbe

convs.0.att_dst f4 [1, 8, 8]
-0.07197549 0.08801421 0.06443174 0.0034717682 -0.02569227 0.032253414 0.08841316 -0.061388545
0.023454431 -0.048978325 0.00022214741 0.08385007 0.096183844 -0.0028255214 0.052673563 -0.017543793
0.045643594 -0.040901925 -0.034849588 0.05901856 0.046340574 0.098576054 -0.017573064 -0.08718547
-0.12482125 -0.058734767 0.07318324 0.005080259 0.023222864 0.07502624 -0.011809554 -0.043135326
0.05038432 -0.0014494163 0.008604015 0.0166597 -0.00019943823 -0.010632806 -0.10402883 0.031260345
-0.068360314 -0.04225457 0.0067804814 -0.04681812 0.018414954 0.0019118842 -0.030471062 -0.08181003
-0.043019067 0.0013288537 0.032118246 0.0025529892 0.0034576068 0.043133 0.013833656 -0.036568835
-0.008709049 -0.022882221 -0.0036560677 0.020978967 0.01498163 -0.020236248 0.010811282 -0.025871208
00000000: e367 93bd cb40 b43d caf4 833d 9b86 633b
00000010: 9878 d2bc 281c 043d f511 b53d 8e72 7bbd
00000020: 8223 c03c 7f9d 48bd 3ef0 6839 96b9 ab3d
00000030: 09fc c43d 622c 39bb 3cc0 573d 00b8 8fbc
00000040: c7f4 3a3d c788 27bd 71be 0ebd 72bd 713d
00000050: 9dcf 3d3d 3ee2 c93d 63f5 8fbc 4c8e b2bd
00000060: 49a2 ffbd de93 70bd 18e1 953d 4d78 a63b
00000070: e03d be3c 5ba7 993d dc7c 41bc abae 30bd
00000080: ca5f 4e3d 57fa bdba dbf7 0c3c ec79 883c
00000090: 4b20 51b9 3935 2ebc 110d d5bd d90a 003d
000000a0: 7e00 8cbd 2113 2dbd cd2e de3b 5bc4 3fbd
000000b0: f5da 963c 3098 fa3a 739e f9bc 048c a7bd
000000c0: c334 30bd ee2c ae3a 6c8e 033d 0d50 273b
000000d0: 0499 623b 3bac 303d 8fa6 623c 34c9 15bd
000000e0: 66b0 0ebc 7f73 bbbc a39a 6fbb 15dc ab3c
000000f0: 8375 753c 7dc6 a5bc ce21 313c dbef d3bc

convs.0.att_edge f4 [1, 8, 8]
2.655166e-07 0.0003352004 -3.0364554e-08 4.3737542e-05 -6.333598e-08 1.6465992e-05 0.0004043035 -3.8856015e-06
0.000110213616 3.8839168e-10 9.3412e-08 -0.00012054149 -6.332868e-05 0.00017785939 1.4551056e-05 1.1868928e-05
8.672242e-06 4.0310366e-07 -2.0950472e-11 9.908773e-08 -7.116005e-05 -5.5103224e-05 -0.000118198885 3.9464867e-05
-2.87439e-06 8.121072e-07 4.0466084e-09 0.00037156735 -2.2296e-40 0.00044060356 -7.000348e-05 3.188527e-09
-1.2405209e-08 6.1269e-07 -1.10718275e-10 -2.775548e-06 -2.9349872e-06 1.7515339e-07 -4.590139e-07 4.2371084e-06
4.048016e-08 -6.316168e-05 7.616515e-06 1.0213974e-08 -4.0300558e-05 8.0177e-24 -8.875167e-07 -0.00014563305
-4.842457e-07 2.9495652e-07 -1.0649322e-11 3.1514443e-08 -8.347374e-18 -3.7075893e-08 -9.170791e-09 8.077203e-08
9.2382317e-07 6.729434e-17 -2.76611e-40 -6.491579e-08 -3.8245084e-06 7.556376e-09 -7.4019005e-07 -1.2918996e-11
00000000: 538c 8e34 d6bd af39 2e6a 02b3 d472 3738
00000010: 5303 88b3 7320 8a37 b2f8 d339 1061 82b6
00000020: 7c22 e738 4585 d52f ca99 c833 38cb fcb8
00000030: 54cf 84b8 c47f 3a39 4f20 7437 a820 4737
00000040: ff7e 1137 256a d834 4548 b8ad 0eca d433
00000050: c33b 95b8 a31e 67b8 8be1 f7b8 1487 2538
00000060: a5e5 40b6 95ff 5935 580a 8b31 edce c239
00000070: 866d 0280 cf00 e739 d5ce 92b8 291d 5b31
00000080: b01e 55b2 bc77 2435 d978 f3ae 8d43 3ab6
00000090: b2f6 44b6 cc11 3c34 646e f6b4 7c2c 8e36
000000a0: 68dc 2d33 ab75 84b8 5e91 ff36 8879 2f32
000000b0: 6508 29b8 ba15 1b19 af3d 6eb5 13b5 18b9
000000c0: 1cfd 01b5 845a 9e34 4858 3bad 7f5a 0733
000000d0: 5cfb 19a3 603d 1fb3 918d 1db2 e574 ad33
000000e0: a5fc 7735 912b 9b24 1403 0380 d567 8bb3
000000f0: 4754 80b6 4bd1 0132 79b1 46b5 fc45 63ad

convs.0.bias f4 [64]
3.2121528e-07 -1.3667751e-07 -2.4943387e-07 -1.7953344e-08 1.5093846e-07 -1.8238794e-07 -4.3634046e-07 -1.5844219e-07
8.867013e-07 3.305972e-07 -9.288079e-08 -6.7298004e-07 8.6751095e-07 1.4895842e-07 7.628689e-07 -4.1351106e-07
8.632377e-07 1.3766851e-07 -3.1170777e-07 -1.3428766e-07 -2.0148338e-08 -4.9129557e-07 -3.5807783e-08 -3.586386e-07
-7.985398e-08 -8.2315076e-08 -4.4433693e-07 4.92629e-07 1.2660591e-06 -4.0771774e-08 1.2313832e-08 5.2049668e-08
9.029949e-08 5.0069065e-07 -2.077822e-08 4.6322168e-07 -8.899163e-08 -8.095644e-07 -2.7726887e-07 6.0889036e-08
-4.757615e-07 -6.263837e-09 4.90266e-07 -2.1453277e-06 -2.173661e-06 6.6720554e-07 1.385295e-07 2.0065106e-07
5.9020306e-07 -3.8289966e-07 -1.3644582e-07 -1.6746205e-06 -7.607056e-07 -2.0938595e-08 1.3430301e-07 5.0566433e-07
3.8905487e-08 -2.2222356e-07 2.4440564e-07 2.9010993e-08 -8.38857e-07 2.1134372e-07 -1.5486783e-06 -1.0531662e-08
00000000: 7e73 ac34 a1c1 12b4 eee9 85b4 d237 9ab2
00000010: a611 2234 6ad6 43b4 2d42 eab4 4220 2ab4
00000020: a605 6e35 ef7c b134 c175 c7b3 d6a6 34b5
00000030: e6de 6835 61f1 1f34 f4c7 4c35 8700 deb4
00000040: 3eb9 6735 08d2 1334 ca58 a7b4 b630 10b4
00000050: aa12 adb2 93e1 03b5 13cb 19b3 ea8a c0b4
00000060: 317c abb3 31c5 b0b3 348d eeb4 353d 0435
00000070: 76ed a935 0a1d 2fb3 ce8c 5332 378d 5f33
00000080: abea c133 3367 0635 ca7b b2b2 b4b0 f834
00000090: aa1b bfb3 d850 59b5 8bdb 94b4 1ac2 8233
000000a0: 2a6c ffb4 4b39 d7b1 d39a 0335 73f8 0fb6
000000b0: 36df 11b6 041a 3335 b3be 1434 8b72 5734
000000c0: 726e 1e35 5491 cdb4 f181 12b4 86c3 e0b5
000000d0: 4a33 4cb5 75dc b3b2 ee34 1034 fdbc 0735
000000e0: 0919 2733 599c 6eb4 db36 8334 d933 f932
000000f0: d02d 61b5 b8ed 6234 2edc cfb5 bdee 34b2

convs.0.lin.weight f4 [64, 11]
-0.04973355 0.11797954 0.096335344 0.018882966 0.1645999 0.02412574 0.053526998 0.11343439
0.009993785 -0.06325161 0.005177066 0.0144345295 -0.013572329 0.032433175 -0.08861078 0.03575267
-0.071040615 0.0029964056 0.13242288 -0.16500372 -0.087711595 0.14172046 -0.12153761 0.04331309
-0.22165923 -0.0034738113 -0.027008867 0.07384038 -0.03599969 -0.16055974 -0.15157105 -0.061468426
0.15682091 -0.07360275 -0.04965588 -0.11672289 0.122613676 0.08853178 0.046853542 0.1094768
0.08580522 0.12542646 0.006381662 -0.09398336 0.18805815 -0.08485455 0.07301466 0.043280102
0.15461153 0.20191804 -0.23186825 0.1166725 0.021985149 -0.04737888 -0.13441013 -0.07631104
0.088455014 -0.021704966 0.15034834 0.10922942 -0.14535898 -0.18867847 0.18404086 -0.19799094
0.17197663 -0.09659601 -0.08055858 -0.0343286 -0.15943877 -0.13021454 -0.08474119 0.07572715
-0.0919605 -0.0408871 0.028805168 -0.04331296 -0.06702087 0.07443315 -0.08497926 0.19248562
0.2170682 0.26546687 -0.021636326 0.11298655 0.021645647 0.112112604 0.0015474467 0.12508823
0.0008611434 -0.044182856 0.1711224 -0.009658534 0.061991643 0.026710216 0.0040026833 -0.0143528655
-0.017499529 0.013491028 0.0013242522 0.048368517 -0.037133563 -0.21843344 0.08707478 0.14229935
-0.0017038314 -0.09483582 -0.11429753 0.19399086 0.13534391 0.05934909 -0.008361621 -0.09925501
-0.044148292 0.07142154 -0.10873141 -0.17853773 0.1203918 0.03503288 -0.07536233 -0.07600656
0.01937419 -0.16631609 0.024510086 0.11302257 -0.20240177 -0.17937945 0.16200437 -0.0951314
-0.042613145 -0.14019676 0.11885221 -0.06984429 0.20403038 -0.1288905 -0.12015823 -0.016304286
0.0140193645 -0.006978428 0.14204137 -0.17496055 -0.103340045 -0.1481126 0.037396383 0.09505252
-0.016566454 0.056269296 -0.13565671 0.1010405 -0.057245225 0.08361883 -0.05351456 0.06884307
0.059550554 -0.023030058 -0.057909697 -0.22029015 0.13227043 -0.08697651 -0.07802312 -0.029424379
0.11139598 0.14431736 -0.10761171 -0.11956476 -0.04975519 -0.08189218 -0.0048918207 -0.07664901
0.11606597 0.018838903 0.020017747 0.017726734 -0.06748056 -0.20219642 0.15778 0.056974072
0.13162476 -0.01001982 0.03631484 -0.15676601 -0.03392509 -0.123456985 0.12921266 0.063428834
-0.07430909 -0.032835398 -0.013798418 0.045997016 0.17436442 0.006600924 0.13718407 0.18194509
-0.07297559 0.10681618 0.14506048 0.0344142 0.0065063694 -0.06700585 -0.03241458 0.23189822
-0.09940286 -0.27848354 -0.17155188 0.120116815 0.072008 -0.19842954 0.059770714 -0.118026055
-0.024748653 0.15438524 -0.09535169 0.10412991 -0.17962672 -0.103092216 0.116904825 -0.034067404
0.18054272 0.13604599 0.020561794 -0.10188511 -0.09527867 0.09360727 0.15810949 -0.16541553
0.12030408 0.17068869 -0.06415359 0.035744652 -0.03717773 0.09074838 0.010997042 0.071590066
-0.09332205 0.1302715 -0.10406912 -0.037426375 0.04688737 0.009983178 0.10078551 0.017220221
0.032112256 -0.0024522112 -0.12581937 0.11170356 -0.12018713 -0.045056656 -0.02247734 -0.16995327
0.07902135 -0.09193139 0.007189845 0.11614077 0.06070024 0.1781833 -0.070628606 -0.15104415
00000000: 68b5 4bbd 429f f13d 774b c53d 73b0 9a3c
00000010: e08c 283e 58a3 c53c 203f 5b3d 4a50 e83d
00000020: f9bc 233c 0f8a 81bd 61a4 a93b ce7e 6c3c
00000030: 795e 5ebc a6d8 043d 9279 b5bd 6471 123d
00000040: be7d 91bd 585f 443b dd99 073e bcf6 28be
00000050: 23a2 b3bd 2b1f 113e b6e8 f8bd 1169 313d
00000060: a3fa 62be e2a8 63bb b341 ddbc a039 973d
00000070: 6974 13bd c669 24be 7135 1bbe 51c6 7bbd
00000080: a995 203e 0abd 96bd f763 4bbd 690c efbd
00000090: e11c fb3d 2650 b53d 80e9 3f3d 5f35 e03d
000000a0: a6ba af3d cb6f 003e 431d d13b 597a c0bd
000000b0: 5192 403e 39c8 adbd b688 953d 7a46 313d
000000c0: 7c52 1e3e 9ac3 4e3e df6e 6dbe fef1 ee3d
000000d0: 331a b43c 5b10 42bd cfa2 09be f648 9cbd
000000e0: e727 b53d 9dce b1bc eaf4 193e adb3 df3d
000000f0: fcd8 14be ee34 41be 3575 3c3e 23be 4abe
00000100: a41a 303e 21d4 c5bd e6fb a4bd 259c 0cbd
00000110: eb43 23be f656 05be ca8c adbd d616 9b3d
00000120: c955 bcbd 3b79 27bd d1f8 eb3c ee68 31bd
00000130: 3d42 89bd 6870 983d 9b09 aebd f31a 453e
00000140: 2047 5e3e 46eb 873e aa3e b1bc 7e65 e73d
00000150: 3652 b13c 4b9b e53d b2d3 ca3a 2117 003e
00000160: 5bbe 613a 15f9 34bd b63a 2f3e d43e 1ebc
00000170: f3ea 7d3d 62cf da3c f128 833b 4828 6bbc
00000180: 2c5b 8fbc 7909 5d3c 8892 ad3a 111e 463d
00000190: 5d19 18bd 04ad 5fbe 4354 b23d ecb6 113e
000001a0: 1853 dfba 4839 c2bd d314 eabd 8aa5 463e
000001b0: 9897 0a3e 0818 733d 2eff 08bc 3646 cbbd
000001c0: d7d4 34bd 7545 923d 93ae debd 98d2 36be
000001d0: fa8f f63d a37e 0f3d 9157 9abd 54a9 9bbd
000001e0: 9fb6 9e3c c44e 2abe 60c9 c83c 6178 e73d
000001f0: 6942 4fbe 3faf 37be 79e4 253e 40d4 c2bd
00000200: 1f8b 2ebd bd8f 0fbe ca68 f33d 860a 8fbd
00000210: 57ed 503e dffb 03be 8515 f6bd 9190 85bc
00000220: 7ab1 653c 4cab e4bb 4b73 113e dc28 33be
00000230: f2a3 d3bd d4aa 17be f32c 193d e5aa c23d
00000240: 5fb6 87bc a27a 663d 98e9 0abe 52ee ce3d
00000250: f879 6abd 5940 ab3d 1532 5bbd 98fd 8c3d
00000260: 48eb 733d 88a9 bcbc b832 6dbd be93 61be
00000270: e671 073e be20 b2bd 96ca 9fbd 650b f1bc
00000280: 9323 e43d eec7 133e 8763 dcbd 5ede f4bd
00000290: 19cc 4bbd 16b7 a7bd 914b a0bb 28fa 9cbd
000002a0: ffb3 ed3d 0b54 9a3c 42fc a33c a837 913c
000002b0: 3f33 8abd 940c 4fbe 1591 213e a55d 693d
000002c0: a4c8 063e 2c2a 24bc dfbe 143d 4587 20be
000002d0: 09f5 0abd 04d7 fcbd 5350 043e fae6 813d
000002e0: 5d2f 98bd 697e 06bd c312 62bc 5e67 3c3d
000002f0: 968c 323e 904c d83b fb79 0c3e d04f 3a3e
00000300: 3a74 95bd 71c2 da3d bc8a 143e e7f5 0c3d
00000310: 6233 d53b 5d3a 89bd 27c5 04bd ba76 6d3e
00000320: ba93 cbbd 6595 8ebe 4cab 2fbe ceff f53d
00000330: ee78 933d 1d31 4bbe 23d2 743d a5b7 f1bd
00000340: b0bd cabc 2a17 1e3e bf47 c3bd 1042 d53d
00000350: 11f0 37be 0322 d3bd cc6b ef3d 438a 0bbd
00000360: 31e0 383e a44f 0b3e 3571 a83c 24a9 d0bd
00000370: 7721 c3bd 2bb5 bf3d 74e7 213e b062 29be
00000380: fc61 f63d 04c9 2e3e f562 83bd fc68 123d
00000390: ad47 18bd 49da b93d f02c 343c d09d 923d
000003a0: a21f bfbd e465 053e 3122 d5bd 664c 19bd
000003b0: f90c 403d 7c90 233c a268 ce3d 6c11 8d3c
000003c0: 2488 033d 47b5 20bb cbd6 00be d6c4 e43d
000003d0: ac24 f6bd 548d 38bd 6622 b8bc 3b08 2ebe
000003e0: f2d5 a13d 8646 bcbd cb98 eb3b 36db ed3d
000003f0: d1a0 783d af75 363e bba5 90bd 51ab 1abe

convs.0.lin_edge.weight f4 [64, 1]
2.356103e-06 0.0054441397 -3.4218197e-09 0.0004580097 -5.8100153e-07 0.00015126819 0.0064505027 -3.9542323e-07
0.0003432085 3.1492273e-10 8.2426294e-07 -0.0013916281 -0.0009135413 0.002462742 0.00016345402 0.00010806994
1.4603215e-06 2.3605082e-06 -4.7716267e-12 4.1917454e-07 -0.0005864034 -0.00021977029 -0.0010421065 0.0003227803
-1.0994086e-06 2.3861236e-07 2.550041e-09 0.0015835024 1.92622e-40 0.0018034569 -0.0002726465 3.070976e-08
2.861239e-11 -2.800335e-05 4.9031446e-09 0.00011636027 0.00015782873 -3.3449603e-09 7.353423e-09 1.1975014e-06
2.2500328e-07 -0.00027521653 3.289607e-05 3.2975331e-09 -0.00016180388 2.0948061e-23 -2.0410367e-07 -0.00061232504
8.769882e-07 9.296306e-09 -1.1850161e-12 3.1665533e-07 -1.4292256e-16 -6.3056723e-07 -1.03325036e-07 -6.5820364e-05
2.7612716e-05 8.388845e-18 3.6788e-41 -1.0272628e-06 -9.203944e-05 8.69878e-08 -4.0155137e-05 -1.0219484e-10
00000000: 8b1d 1e36 c164 b23b 4a25 6bb1 0521 f039
00000010: 1ff6 1bb5 bf9d 1e39 bd5e d33b 8e4a d4b4
00000020: aaf0 b339 6f21 ad2f eb42 5d35 4a67 b6ba
00000030: b87a 6fba f465 213b db64 2b39 9ba3 e238
00000040: 4400 c435 3969 1e36 fee2 a7ac e90a e134
00000050: deb8 19ba 2372 66b9 4b97 88ba d73a a939
00000060: 648f 93b5 a21a 8034 cc3c 2f31 868d cf3a
00000070: f418 0200 f961 ec3a fef1 8eb9 bde5 0333
00000080: 60ad fb2d bce8 eab7 8478 a831 7206 f438
00000090: d47e 2539 2add 65b1 65a9 fc31 d6b9 a035
000000a0: 6e98 7134 f04a 90b9 e3f9 0938 d19a 6231
000000b0: e6a9 29b9 e398 ca19 9727 5bb4 7084 20ba
000000c0: 2c6a 6b35 96b5 1f32 b4c6 a6ab c700 aa34
000000d0: 4bc7 24a5 4044 29b5 8ae3 ddb3 0a09 8ab8
000000e0: dba1 e737 33bf 1a23 8d66 0000 7be0 89b5
000000f0: 4c05 c1b8 0cce ba33 406c 28b8 95ba e0ae

convs.1.att_src f4 [1, 8, 8]
-0.041537922 0.14541039 0.11745655 -0.16182299 -0.1604223 0.18599641 -0.03984532 -0.032521535
-0.029326309 -0.17578474 0.053304955 -0.06897888 0.38840264 0.2738764 0.26678345 -0.03859377
-0.011487828 0.16375916 -0.051239148 -0.024348445 0.1900126 -0.09717358 0.10493877 0.023532555
0.3079625 0.24642062 -0.10386569 0.11154576 -0.08947667 0.059534617 -0.15769616 -0.1214263
0.17332649 0.114992075 0.30584225 -0.045014806 0.19660473 -0.119271696 0.22532085 -0.22739238
0.107069455 0.08469526 -0.15713838 -0.29544222 0.03354512 -0.21309753 0.10314452 -0.01323167
0.046637043 -0.23392622 -0.09454754 0.15829025 0.03758537 0.011414232 -0.111074224 -0.1598293
-0.050219033 0.20270221 -0.08037842 -0.19084293 0.19386443 0.16957398 0.2022596 0.016198875
00000000: ab23 2abd 76e6 143e 0f8d f03d edb4 25be
00000010: be45 24be d875 3e3e d934 23bd 4d35 05bd
00000020: ba3d f0bc ea00 34be 4c56 5a3d cd44 8dbd
00000030: b6dc c63e 8739 8c3e d797 883e 8014 1ebd
00000040: 7137 3cbc 7bb0 273e 24e0 51bd 6476 c7bc
00000050: aa92 423e f102 c7bd 23ea d63d 58c7 c03c
00000060: 43ad 9d3e b055 7c3e 89b7 d4bd 1a72 e43d
00000070: 8b3f b7bd 92da 733d 1a7b 21be 5aae f8bd
00000080: 807c 313e f780 eb3d 5b97 9c3e 7261 38bd
00000090: c052 493e b844 f4bd 82ba 663e 8cd9 68be
000000a0: 3b47 db3d b574 ad3d e2e8 20be 3444 97be
000000b0: 9c66 093d 3d36 5abe 6f3d d33d a5c9 58bc
000000c0: 7c06 3f3d 5b8a 6fbe 24a2 c1bd d716 223e
000000d0: 1ef3 193d c202 3b3c e27a e3bd 4baa 23be
000000e0: 79b2 4dbd 2b91 4f3e 719d a4bd 546c 43be
000000f0: 6684 463e cda4 2d3e 241d 4f3e 81b3 843c

convs.1.att_dst f4 [1, 8, 8]
-0.043552022 0.004651147 -0.10595624 -0.0057078223 0.07161548 0.0016519333 0.048745308 -0.013439113
-0.032136574 0.019013155 0.023212597 0.006713652 -0.007256906 0.008975763 0.023415402 0.0060789287
0.04590065 0.08505225 -0.008629123 -0.033448447 -0.010197634 -0.03353314 -0.023381684 0.05699871
-0.025868924 -0.077379785 0.041911554 -0.008098348 0.07154614 0.11072044 -0.09061154 0.039519127
0.03722133 -0.0075424374 -0.10238185 -0.21438675 -0.23454323 -0.079032786 -0.12809741 0.02718106
-0.0047304444 -0.011303464 -0.02008079 0.22270872 -0.069643326 0.000115275645 0.02020038 0.029351858
-0.0872937 -0.0012058436 -0.13726255 0.057116013 0.042518094 0.14146474 -0.07726315 -0.096657686
-0.021445556 -0.038817696 0.10123012 -0.0885956 0.02169909 -0.102185085 -0.019572254 0.0016439212
00000000: 9b63 32bd a668 983b 96ff d8bd af08 bbbb
00000010: 23ab 923d af85 d83a 29a9 473d ba2f 5cbc
00000020: a4a1 03bd 7ac1 9b3c 5828 be3c 32fe db3b
00000030: 57cb edbb 140f 133c a8d1 bf3c c031 c73b
00000040: 5202 3c3d e02f ae3d 2a61 0dbc 3d01 09bd
00000050: fa13 27bc 0c5a 09bd f28a bfbc 7b77 693d
00000060: 11eb d3bc 4b79 9ebd 73ab 2b3d efae 04bc
00000070: c886 923d 66c1 e23d 8b92 b9bd cfde 213d
00000080: 6575 183d 8d26 f7bb 93ad d1bd 3388 5bbe
00000090: 1a2c 70be f1db a1bd f82b 03be d0aa de3c
000000a0: d801 9bbb 2a32 39bc 7880 a4bc c10d 643e
000000b0: 29a1 8ebd 24c0 f138 447b a53c 4f73 f03c
000000c0: 0ac7 b2bd 660d 9eba 8e8e 0cbe 7bf2 693d
000000d0: 7427 2e3d 22dc 103e 243c 9ebd 77f4 c5bd
000000e0: 97ae afbc 4eff 1ebd bd51 cf3d 9c71 b5bd
000000f0: 4ac2 b13c 6a46 d1bd fe55 a0bc d878 d73a

convs.1.att_edge f4 [1, 8, 8]
1.5842158e-10 7.262304e-16 3.963128e-12 -3.0358945e-07 9.85341e-11 -1.2708973e-08 -3.4283417e-07 -7.747465e-09
2.604855e-09 2.6068037e-09 4.3102247e-07 4.0388656e-13 -1.2529331e-08 -3.2968463e-12 -2.6789666e-08 3.3702654e-24
1.5802923e-12 -6.3642045e-07 -5.9549515e-10 -2.4111372e-07 9.69218e-06 -2.5325232e-08 1.5487556e-07 4.062639e-09
1.307218e-07 4.94109e-40 9.927631e-17 6.3072594e-19 -1.3967187e-11 -2.94591e-40 2.568595e-08 -1.0449117e-08
-3.7038242e-06 4.622595e-06 -2.355541e-06 3.4699476e-06 -2.8751897e-06 -7.022214e-08 -1.0298313e-06 -7.613663e-07
-1.443638e-11 -2.235394e-19 1.1643252e-09 2.3041928e-17 1.344432e-07 -5.4031115e-16 -7.466641e-10 3.1199404e-11
9.813206e-08 1.1998906e-06 -1.3173893e-10 1.5225623e-08 -7.8957245e-13 -4.40693e-09 6.86926e-08 -1.2042289e-11
3.9308495e-18 3.753557e-08 1.6597903e-13 6.762065e-08 -4.384276e-16 5.379424e-09 -3.9754924e-09 2.6634297e-22
00000000: b62f 2e2f 5852 5126 af70 8b2c 04fd a2b4
00000010: c4ad d82e a856 5ab2 c50e b8b4 b619 05b2
00000020: 1801 3331 6023 3331 4767 e734 305e e32a
00000030: 9540 57b2 b4fe 67ac 191f e6b2 7e61 8218
00000040: 0868 de2b 7bd6 2ab5 3fb0 23b0 6b72 81b4
00000050: 999b 2237 c68a d9b2 df4b 2634 5a97 8b31
00000060: 895c 0c34 6061 0500 64ea e424 4e28 3a21
00000070: 9eb6 75ad 3335 0380 00a4 dc32 b483 33b2
00000080: 378f 78b6 ca1b 9b36 e313 1eb6 3fdd 6836
00000090: 62f3 40b6 08cd 96b3 bc38 8ab5 b260 4cb5
000000a0: adf7 7dad 52f4 83a0 0d06 a030 3786 d423
000000b0: 775b 1034 edbb 1ba6 d13d 4db0 6837 092e
000000c0: acbc d233 ed0b a135 36d9 10af 80c9 8232
000000d0: b13e 5eab c46b 97b1 2884 9333 a6d9 53ad
000000e0: d305 9122 cc36 2133 33e0 3a2a d836 9133
000000f0: 7ebc fca5 ead5 b831 cd98 88b1 94fe a01b

convs.1.bias f4 [64]
1.6257048e-06 -5.869498e-07 -1.436057e-07 -6.614726e-08 5.4828426e-09 -2.0532106e-07 8.722907e-08 1.0342015e-07
8.447589e-09 -9.528883e-08 1.8787462e-07 -1.1992032e-07 -3.045864e-07 4.111724e-07 1.6942634e-07 2.1659185e-08
4.3367388e-07 1.2403697e-07 -5.624776e-07 -9.98046e-07 -5.2007326e-08 2.5740488e-07 -6.2059506e-08 2.3053194e-07
-4.395277e-09 -7.7541534e-07 -4.19933e-08 9.706362e-08 6.45816e-08 -1.9746942e-07 3.4287247e-08 7.847886e-08
-5.1178444e-07 2.3898136e-07 -4.2063573e-07 8.219538e-08 -3.3667905e-07 -4.1804384e-08 -8.0246316e-08 9.3217444e-08
1.8064003e-07 -3.6179662e-07 -1.9975955e-07 -1.3130271e-07 -4.163596e-07 2.4459854e-07 -9.569849e-08 6.7278485e-08
-1.3509823e-07 -1.0989282e-07 -5.4098224e-09 4.2586024e-07 5.203194e-07 -1.7997372e-08 -3.657883e-07 3.2295648e-07
3.364661e-08 -4.5096925e-08 -9.6569806e-08 1.2762789e-07 -6.257833e-07 1.0943931e-07 -2.61734e-07 2.8519867e-08
00000000: cb32 da35 e28e 1db5 0932 1ab4 d70c 8eb3
00000010: 9863 bc31 3976 5cb4 b052 bb33 d417 de33
00000020: e420 1132 97a1 ccb3 95ba 4934 72c3 00b4
00000030: 0986 a3b4 1bbf dc34 8feb 3534 0d0d ba32
00000040: afd3 e834 062f 0534 2bfd 16b5 99f4 85b5
00000050: a95e 5fb3 7531 8a34 9345 85b3 2388 7734
00000060: 4405 97b1 2326 50b5 1f5c 34b3 4a71 d033
00000070: 1cb0 8a33 fb07 54b4 3a43 1333 3688 a833
00000080: 8f61 09b5 594d 8034 bcd3 e1b4 6383 b033
00000090: d1c0 b4b4 688c 33b3 e153 acb3 d52e c833
000000a0: f4f5 4134 f33c c2b4 7d7d 56b4 37fc 0cb4
000000b0: 0788 dfb4 5e51 8334 cd82 cdb3 bd7a 9033
000000c0: 850f 11b4 37fe ebb3 4de1 b9b1 c9a1 e434
000000d0: 14ac 0b35 a498 9ab2 9061 c4b4 cd62 ad34
000000e0: d782 1033 98b0 41b3 d061 cfb3 160a 0934
000000f0: 80fb 27b5 e604 eb33 7284 8cb4 dafb f432

convs.1.lin.weight f4 [64, 64]
0.101369575 -0.044243492 -0.056227274 0.08466531 0.07104269 -0.022722125 -0.00019735415 0.115449555
0.04600586 -0.07675207 -0.022029925 0.14054975 -0.10161154 0.067751475 0.1301273 0.09664101
-0.083241716 0.061192844 0.008646854 0.0020006783 0.09474187 0.11493662 -0.034939237 -0.0064451927
0.021999791 0.028062595 0.15439735 0.0951421 0.072995774 0.067256086 0.044029653 -0.047697194
0.07934972 0.10440415 0.03453378 -0.08440146 -0.00094280683 -0.0031763592 -0.00024308513 0.040328704
0.059509005 -0.029053945 -0.031336118 0.027595768 -0.067165464 0.027501684 0.018370263 -0.033932976
-0.07700865 0.1476439 -0.006348868 0.12821972 -0.0030811455 0.08920362 0.036733143 0.113832384
-0.11805004 0.12143181 0.02563802 -0.03806233 -0.017752837 0.12981986 0.011472574 -0.022898635
0.044787697 0.10824082 0.1328431 -0.07262209 -0.032725308 -0.009238114 -0.11001837 0.12084135
0.008636066 0.016623205 -0.049898963 -0.06218785 0.11374686 0.037102956 0.14534096 -0.010626066
-0.041669637 -0.017991362 -0.1257586 -0.081484094 0.037417915 0.022281768 -0.006664596 -0.0039841738
0.06645752 -0.042958323 -0.10147449 -0.0057358947 0.069689885 0.084784575 0.03004825 -0.09717569
-0.06312174 0.005414265 0.072941855 -0.03774018 0.039462704 0.13711369 0.0021491812 -0.023062436
0.010895967 0.08910974 0.10883674 -0.041516505 -0.118948385 -0.055093408 0.04137678 0.104113966
0.024560886 -0.110632874 0.11812298 -0.10098346 -0.10104046 0.026991613 -0.07274948 -0.0030186842
0.018647326 -0.032154478 0.056776393 0.05974405 -0.029696498 -0.037194263 0.03693822 0.0015629482
-0.0077627334 0.030338172 -0.08156175 0.025958298 -0.029720541 -0.012841766 -0.0022029507 0.07514746
0.06919121 -0.015809484 0.0427912 0.047289662 0.018800514 0.03466518 0.02456111 -0.028049037
0.037583314 -0.0019311357 0.07406578 0.011911955 -0.019093137 0.038771518 -0.017183857 0.013537586
0.005607645 0.029846858 -0.0058021145 0.052713968 -0.010630361 -0.0031560494 -0.042695083 0.05403376
0.023135697 0.00370599 -0.036353916 0.02737473 -0.0246525 -0.014937164 0.010313871 0.07351298
-0.03637675 -0.056557234 0.10836161 0.0071581416 -0.0052564796 0.04247945 0.008110392 0.025726855
-0.028159758 0.028947886 -0.030687913 0.026057519 0.04842551 0.015351658 0.056885988 0.04351687
0.023233697 0.06077696 0.014454315 0.09347797 -0.014162052 0.021406576 -0.03770649 0.005682614
-0.02713511 0.01074808 -0.10042702 0.037880834 0.014091269 -0.016584553 0.0121190455 0.014042106
0.006047062 0.018072993 -0.0034602748 -0.0071272235 -0.042672586 0.0007348754 -0.048953887 0.035025705
-0.0028126996 0.052562013 -0.0631394 -0.0039490894 -5.0811694e-05 -0.00019914686 -0.01151805 0.059739254
-0.0012727064 0.011982944 0.03316972 -0.031978194 0.07423704 0.0068426155 -0.026267918 0.020108169
0.010471965 0.033395614 -0.017794466 0.0030066548 0.056898467 0.01894848 0.020520136 -0.0022571562
0.019904317 -0.0032288835 -0.0060321614 -0.014759874 0.019194335 -0.0045309938 0.014717918 -0.0070629274
0.03589341 -0.04335838 0.018182412 0.04416605 -0.018117366 0.0014608939 0.007643984 0.0052819652
-0.039250486 0.019078795 0.014297968 -0.07838503 -0.05422236 -0.008146711 -0.035569124 -0.013662292
00000000: da9a cf3d aa38 35bd 924e 66bd 0265 ad3d
00000010: d47e 913d c023 babc daf0 4eb9 d170 ec3d
00000020: a470 3c3d 3030 9dbd 1a78 b4bc 46ec 0f3e
00000030: b619 d0bd 49c1 8a3d 1740 053e b9eb c53d
00000040: a27a aabd 59a5 7a3d 89ab 0d3c d01d 033b
00000050: 0708 c23d e463 eb3d 721c 0fbd 3232 d3bb
00000060: e838 b43c 87e3 e53c 571a 1e3e dcd9 c23d
00000070: cf7e 953d 8fbd 893d 7058 343d 225e 43bd
00000080: 1b82 a23d d8d1 d53d 4b73 0d3d acda acbd
00000090: b226 77ba 772a 50bb abe4 7eb9 b62f 253d
000000a0: b7bf 733d 8a02 eebc 4d5a 00bd 8510 e23c
000000b0: 0c8e 89bd 364b e13c 3c7d 963c 4efd 0abd
000000c0: b6b6 9dbd f62f 173e 2a0a d0bb 084c 033e
000000d0: 0bed 49bb 63b0 b63d 7e75 163d f420 e93d
000000e0: 38c4 f1bd 3eb1 f83d d306 d23c 3fe7 1bbd
000000f0: 666e 91bc 7fef 043e 77f7 3b3c eb95 bbbc
00000100: 4e73 373d 5dad dd3d 0608 083e e4ba 94bd
00000110: f90a 06bd 755b 17bc 5051 e1bd ab7b f73d
00000120: 497e 0d3c 632d 883c db62 4cbd b0b8 7ebd
00000130: 1df4 e83d 45f9 173d 43d4 143e f318 2ebc
00000140: c8ad 2abd 9f62 93bc ddc6 00be 22e1 a6bd
00000150: 8743 193d 4188 b63c af62 dabb ac8d 82bb
00000160: e11a 883d 11f5 2fbd dbd1 cfbd 2cf4 bbbb
00000170: 92b9 8e3d 89a3 ad3d bf27 f63c 0c04 c7bd
00000180: f945 81bd 266a b13b 8a62 953d 7295 1abd
00000190: a5a3 213d 8867 0c3e 47d9 0c3b 6fed bcbc
000001a0: ff84 323c 2b7f b63d cce5 de3d 360d 2abd
000001b0: 369b f3bd a0a9 61bd b37a 293d b439 d53d
000001c0: e933 c93c 7d93 e2bd 76ea f13d 6bd0 cebd
000001d0: 4dee cebd 841d dd3c aefd 94bd 1ed5 45bb
000001e0: 47c2 983c 6ab4 03bd 5d8e 683d 2db6 743d
000001f0: 1246 f3bc 0359 18bd 884c 173d d7db cc3a
00000200: 875e febb c287 f83c d909 a7bd 7fa6 d43c
00000210: 7e78 f3bc 4566 52bc 615f 10bb e9e6 993d
00000220: 1fb4 8d3d e482 81bc d345 2f3d ceb2 413d
00000230: 8903 9a3c 13fd 0d3d 6234 c93c 18c7 e5bc
00000240: f6f0 193d 291e fdba cdaf 973d 5c2a 433c
00000250: 3669 9cbc e2ce 1e3d 29c5 8cbc c0cc 5d3c
00000260: 56c0 b73b 6681 f43c aa1f bebb 9aea 573d
00000270: f72a 2ebc b9d5 4ebb 0ae1 2ebd 8152 5d3d
00000280: 1387 bd3c 32e0 723b d8e7 14bd f840 e03c
00000290: 0af4 c9bc 02bb 74bc 83fb 283c f98d 963d
000002a0: c9ff 14bd 8fa8 67bd b1ec dd3d d88e ea3b
000002b0: 8c3e acbb effe 2d3d 73e1 043c 20c1 d23c
000002c0: 4baf e6bc 1e24 ed3c 3865 fbbc 9476 d53c
000002d0: d459 463d 8585 7b3c 4801 693d bf3e 323d
000002e0: 9854 be3c 43f1 783d cbd1 6c3c 6171 bf3d
000002f0: f407 68bc d85c af3c 1f72 1abd 3935 ba3b
00000300: 734a debc b718 303c aeac cdbd ef28 1b3d
00000310: 11df 663c 54dc 87bc f68e 463c dd10 663c
00000320: 6f26 c63b d00d 943c c7c5 62bb 7c8b e9bb
00000330: 73c9 2ebd a7a4 403a df83 48bd 1d77 0f3d
00000340: 4555 38bb 444b 573d 3b4f 81bd 5d67 81bb
00000350: a41e 55b8 14d2 50b9 34b6 3cbc 26b1 743d
00000360: f1d0 a6ba 1c54 443c f9dc 073d 91fb 02bd
00000370: 9709 983d 0538 e03b d12f d7bc e3b9 a43c
00000380: 9b92 2b3c d7c9 083d b3c5 91bc 4c0b 453b
00000390: 5e0e 693d d839 9b3c d819 a83c ccec 13bb
000003a0: 610e a33c ad9b 53bb 70a9 c5bb 66d3 71bc
000003b0: 703d 9d3c bb78 94bb 6c23 713c 2170 e7bb
000003c0: f804 133d 8f98 31bd 48f3 943c 76e7 343d
000003d0: df6a 94bc 777b bf3a 637a fa3b 5614 ad3b
000003e0: 1ec5 20bd 224b 9c3c 0642 6a3c 5588 a0bd
000003f0: 4418 5ebd c879 05bc eeb0 11bd ced7 5fbc

convs.1.lin_edge.weight f4 [64, 1]
-4.1899755e-09 -3.68273e-14 -3.2075054e-12 6.028118e-06 5.926587e-12 2.2338638e-07 6.7716787e-06 1.3742002e-07
1.3566516e-10 3.761947e-11 4.2715055e-05 5.408364e-15 -2.8791453e-06 -3.238675e-10 -8.7058095e-07 1.6714334e-22
6.352826e-12 5.5850282e-06 4.8821587e-09 -1.9342371e-05 -9.769123e-05 2.2127158e-07 -1.8596504e-08 -4.978514e-10
1.4722456e-05 3.4416e-41 -4.5011547e-15 5.0701337e-21 -5.798925e-10 -2.15413e-40 -4.908288e-06 -1.1502992e-06
1.933351e-06 -0.00021873653 0.00015729878 -0.00016766209 9.3142364e-05 4.6763716e-06 7.404606e-05 2.435493e-05
8.4080984e-13 2.470292e-20 3.9178055e-08 -2.3831295e-15 -3.036579e-06 2.7063902e-17 -8.991587e-08 5.9474306e-13
6.2530296e-07 -2.9891307e-05 2.9025943e-11 -3.912672e-10 2.2565805e-11 1.6100239e-07 -1.1780217e-08 -1.4365747e-09
2.0525658e-20 -9.6563e-06 -2.1951958e-15 3.4746387e-07 -1.0078774e-12 -3.290396e-11 -8.626404e-10 -2.2663946e-20
00000000: 6af7 8fb1 fcda 25a9 48b5 61ac 2445 ca36
00000010: f385 d02c fbdb 6f34 4738 e336 ba8d 1334
00000020: 592a 152f c273 252e f128 3338 5adb c227
00000030: 5737 41b6 4c0c b2af deb1 69b5 5c10 4a1b
00000040: 2b85 df2c 0767 bb36 ecbf a731 6d41 a2b7
00000050: 94df ccb8 ab96 6d34 25be 9fb2 2ed9 08b0
00000060: 7800 7737 f05f 0000 d32b a2a7 538b bf1d
00000070: 4f66 1fb0 7c58 0280 dfb1 a4b6 fb63 9ab5
00000080: b8be 0136 a45c 65b9 92f0 2439 73ce 2fb9
00000090: 6d55 c338 bae9 9c36 2d49 9b38 d04d cc37
000000a0: bcaa 6c2b ff4f e91e ba44 2833 fbb8 2ba7
000000b0: 08c8 4bb6 d59e f923 c617 c1b3 c167 272b
000000c0: 7eda 2735 18bf fab7 9d50 ff2d f719 d7af
000000d0: ad7d c62d 00e0 2c34 f161 4ab2 fb70 c5b0
000000e0: ffdb c11e 7e01 22b7 372e 1ea7 128b ba34
000000f0: 9cd8 8dab 91b6 10ae ec1e 6db0 0f0e d69e

convs.2.att_src f4 [1, 8, 64]
-0.045971893 -0.014044564 -0.02717206 -0.006031561 -0.06697654 0.0028606458 0.004387848 0.026019007
0.017048217 -0.00079431466 0.03574877 0.0063919066 0.0001496143 0.0029247245 0.008134895 0.012827025
-0.06543247 -0.018297387 0.019537466 0.016915102 -0.021201907 0.013754523 -0.009274296 0.0063897534
-0.020377308 0.019415254 -0.006212698 0.007013085 -0.02128754 0.0009646887 -0.016943812 0.0068797255
-0.0058089755 0.0009892838 0.01903583 0.022849096 -0.0007850845 0.0015136864 -0.100358404 0.014131136
0.005881255 0.004780763 0.025786858 -0.036944866 0.0556924 -0.038273953 0.0034277043 -0.055106208
0.03503206 -0.06337868 0.0014211597 -0.030535974 -0.023884138 -0.005750577 -0.044665385 0.015018865
0.033060636 -0.014665106 -0.04262101 0.044796247 -0.03169795 -0.021507945 0.04850385 -0.0064168293
0.04593796 -0.037916135 -0.023709895 -0.027920514 0.023570169 -0.0474959 0.006478169 -0.0048561515
0.012661336 0.0067626243 0.026548905 0.031551417 -0.00388274 0.011094244 0.015764665 0.043229096
0.0020409548 -0.029434094 -0.009106558 0.010946041 0.041695707 -0.035881046 0.031011682 -0.046620034
0.015516027 0.095361754 -0.012868369 -0.025838684 -0.0010116162 0.002392183 -0.0017734122 0.021875232
-0.012421433 0.016207632 0.0034818288 -0.010191024 0.032501567 0.033644866 0.0071445145 0.0038321977
0.06599839 0.011771823 0.0006844936 0.029944526 -0.019414203 0.032278564 -0.022767046 0.046084646
-0.0058152275 0.0030952878 0.010027042 -0.02462273 0.065747224 -0.006363649 0.04240816 -0.00030162712
-0.047936182 0.048905514 0.04487037 0.017516488 0.006244375 0.019928746 -0.034179628 -0.010924883
-0.026672846 0.015274472 0.02167466 -0.052568752 0.02255884 -0.007151642 0.014634756 -0.0072504412
0.019348783 -0.04455711 -0.03276021 0.046436977 0.009688341 0.012341422 -0.010797538 -0.012867469
0.019838223 0.0017949552 0.01541382 -0.0022472127 -0.004297364 -0.063772514 0.012876214 -0.029463226
0.033710297 -0.0142867565 -0.03752303 0.00942019 -0.017659925 0.0061191963 -0.015419665 0.012329947
0.023725178 -0.0068445513 0.039791882 0.021724107 0.026628362 0.025611246 -0.0012901486 0.043257706
-0.044976413 -0.0055950307 0.046703618 0.039724257 -0.012955852 -0.011119101 -0.043925334 -0.0052688965
-0.00785965 -0.052228473 0.04945547 0.025045209 -0.052113388 0.0119125685 -0.021617008 0.024234114
-0.034449503 0.0045451024 0.017525278 0.031725705 0.009509673 -0.011463063 0.013381751 -0.0077643413
-0.0017663513 0.02456474 0.017092317 0.0054809274 0.030283667 -0.041343585 -0.0108156 -0.026386647
-0.005135479 0.019922657 -0.008083045 -0.009297006 -0.04323403 -0.01091301 -0.035991736 -0.03540234
-0.0412255 -0.0073776664 -0.0074512404 -0.023306208 0.009118906 -0.014420597 -0.003352832 -0.017457247
-0.0044148485 0.011392454 -0.00183023 0.053414997 -0.03178374 -0.06132218 0.014816948 -0.037012156
-0.0310749 0.05941864 0.055202134 0.04410776 -0.042733684 -0.03881702 0.034562636 -0.023565957
0.045929324 -0.022639785 0.0030191764 0.03845894 -0.023622107 -0.0020850457 -0.052723415 0.0032826967
-0.004651391 0.020189647 -0.03587353 -0.045080602 -0.023839915 0.0077763437 -0.0042482023 0.026432876
0.013585304 -0.009673803 0.008041072 0.020079767 0.0004247123 0.056221977 -0.031357266 0.05538834
00000000: 064d 3cbd 2c1b 66bc f197 debc 67a4 c5bb
00000010: ff2a 89bd ac79 3b3b f0c7 8f3b d025 d53c
00000020: b4a8 8b3c 8e39 50ba 4d6d 123d 3373 d13b
00000030: c8e1 1c39 bcac 3f3b 3948 053c 7128 523c
00000040: 7501 86bd 67e4 95bc 090d a03c 8a91 8a3c
00000050: 9faf adbc a75a 613c 38f3 17bc 2361 d13b
00000060: 50ee a6bc bd0c 9f3c e393 cbbb 05ce e53b
00000070: 3563 aebc 2ae3 7c3a c0cd 8abc 526f e13b
00000080: 3859 bebb dbaa 813a 07f1 9b3c 072e bb3c
00000090: 21ce 4dba e366 c63a b588 cdbd 4886 673c
000000a0: 8bb7 c03b f2a7 9c3b f63e d33c 8053 17bd
000000b0: b71d 643d 26c5 1cbd 56a3 603b 0cb7 61bd
000000c0: c77d 0f3d aecc 81bd 3546 ba3a 9426 fabc
000000d0: aba8 c3bc 566f bcbb 0df3 36bd af11 763c
000000e0: 976a 073d ea45 70bc 5e93 2ebd 457c 373d
000000f0: b6d5 01bd 6e31 b0bc f9ab 463d 4444 d2bb
00000100: 7129 3c3d f34d 1bbd 413b c2bc 90b9 e4bc
00000110: 3a16 c13c 108b 42bd d246 d43b 5a20 9fbb
00000120: 7e71 4f3c 0199 dd3b 177d d93c 0f3c 013d
00000130: 9175 7ebb a2c4 353c e624 813c fe10 313d
00000140: 8ac1 053b c51f f1bc ac33 15bc 0657 333c
00000150: 1ec9 2a3d 01f8 12bd 360c fe3c a6f4 3ebd
00000160: ef36 7e3c 064d c33d dad5 52bc a6ab d3bc
00000170: 3598 84ba 2cc6 1c3b d771 e8ba b033 b33c
00000180: 4483 4bbc dec5 843c 652f 643b 41f8 26bc
00000190: 5d20 053d 33cf 093d 881c ea3b 9c25 7b3b
000001a0: 2a2a 873d 9bde 403c 976f 333a 394e f53c
000001b0: 890a 9fbc 8736 043d f581 babc 41c3 3c3d
000001c0: aa8d bebb 50da 4a3b 7648 243c 9cb5 c9bc
000001d0: 7ba6 863d 2886 d0bb 2eb4 2d3d b523 9eb9
000001e0: bb58 44bd 2651 483d fec9 373d bd7e 8f3c
000001f0: 9d9d cc3b 9c41 a33c f0ff 0bbd 48fe 32bc
00000200: 0381 dabc c741 7a3c 0e8f b13c 5552 57bd
00000210: 51cd b83c 5258 eabb 9ec6 6f3c 1c95 edbb
00000220: 5781 9e3c 8481 36bd 922f 06bd b334 3e3d
00000230: d9bb 1e3c ad33 4a3c 28e8 30bc 14d2 52bc
00000240: c583 a23c b444 eb3a 3f8a 7c3c f945 13bb
00000250: e7d0 8cbb 2a9b 82bd c2f6 523c dd5c f1bc
00000260: cf13 0a3d 0013 6abc c0b1 19bd 2457 1a3c
00000270: 8cab 90bc 8a83 c83b c3a2 7cbc 8c03 4a3c
00000280: 4e5b c23c 4248 e0bb d0fc 223d c1f6 b13c
00000290: b923 da3c adce d13c 341a a9ba fe2e 313d
000002a0: 3039 38bd 8556 b7bb 4b4c 3f3d e7b5 223d
000002b0: c844 54bc e42c 36bc 0deb 33bd b5a6 acbb
000002c0: c3c5 00bc 86ed 55bd d291 4a3d 9c2b cd3c
000002d0: d974 55bd ef2c 433c 2716 b1bc 9f86 c63c
000002e0: ec1a 0dbd 15ef 943b 2c91 8f3c d0f2 013d
000002f0: 76ce 1b3c 92cf 3bbc 223f 5b3c 046c febb
00000300: ea84 e7ba fe3b c93c 3005 8c3c 5a99 b33b
00000310: 7415 f83c e457 29bd ea33 31bc cf28 d8bc
00000320: 8547 a8bb d734 a33c bf6e 04bc 7852 18bc
00000330: 2b16 31bd 7bcc 32bc 126c 13bd 0b02 11bd
00000340: 12dc 28bd 5ac0 f1bb 8929 f4bb a9ec bebc
00000350: 7767 153c 5e44 6cbc 30bb 5bbb 8002 8fbc
00000360: 6faa 90bb 6aa7 3a3c 54e4 efba afc9 5a3d
00000370: ab2f 02bd f72c 7bbd c9c2 723c 0f9a 17bd
00000380: ca90 febc f660 733d a21b 623d 57aa 343d
00000390: 8409 2fbd 98fe 1ebd 8d91 0d3d 650d c1bc
000003a0: 6320 3c3d 1277 b9bc 60dd 453b 1f87 1d3d
000003b0: 2683 c1bc 43a5 08bb 82f4 57bd 8322 573b
000003c0: b26a 98bb c264 a53c 1ff0 12bd 70a6 38bd
000003d0: ed4b c3bc b3d0 fe3b 8134 8bbb c289 d83c
000003e0: e594 5e3c df7e 1ebc b3be 033c 537e a43c
000003f0: ecab de39 0449 663d 7a70 00bd e2de 623d

convs.2.att_dst f4 [1, 8, 64]
0.001409003 0.0028699343 -0.0032211372 -0.0003851939 -0.00079094473 0.0001520572 0.0018087461 -0.0005914631
0.00028892042 -0.0007765227 -0.00045141572 0.0013942422 0.0011571225 -0.000766931 0.003287904 0.0014798406
-0.00017642678 -0.0006397663 0.0008245605 -0.004255322 0.0010512191 0.0024283435 -0.0009930121 -0.00075744156
-0.00042874514 0.004744701 0.0004828187 0.0011820246 0.00036536012 0.0018834032 -5.2146606e-05 0.00028047911
0.002386472 0.00020024723 0.00029087748 -0.0008063075 -0.00039954527 0.0011517757 0.00041272616 0.000488846
0.0015202643 0.0028986442 -0.0005999635 -0.004434994 -0.0001303551 -0.00038396654 0.0021674184 -0.00052070443
-0.00012472282 0.0009106478 -0.001402088 0.0015286183 0.0035074546 -0.0008105827 0.0016230175 0.00085209555
0.0020741823 -0.000524375 -0.00063436583 -0.00095186156 0.0017895892 0.00019884181 -0.00095031824 -0.0012936662
-0.00022079876 -0.0020859698 0.00012614083 0.0028062537 -0.0006659596 -0.00014687351 0.00016505178 0.0011201632
-0.003756056 -0.002163978 0.001641584 -0.006904126 -0.0010166183 0.001313151 0.0018636115 -0.0022495561
-0.00036371674 0.0074560083 -0.004759936 0.0009335396 -0.0036013839 -0.00046764765 0.027043268 -0.00951022
0.001643272 -0.011851679 0.0023465573 0.0012253897 0.019329408 -0.005070407 -0.0030345216 -0.0001694915
-0.0068230713 1.5284048e-05 0.0011035526 0.0038484768 0.001011059 -0.0015159076 -0.010348658 -0.00027533376
0.00058922346 -0.005682712 0.004973859 -0.0003231059 -0.00015298008 0.000982389 -0.0040611946 -0.0026511797
-0.0036170424 -0.0002802903 -0.012831587 0.003639001 -0.012690839 0.0014255644 0.0042144028 -0.014854857
0.0021223389 -0.0051288325 -0.002083857 -0.0013785736 -0.00092338334 0.00035400555 0.004465794 -0.006913978
-0.0016458479 -5.122303e-05 0.00043544854 -0.00490282 0.0037065553 0.00031812963 0.0011580889 0.00065587217
6.784974e-05 -0.0010803544 9.738093e-06 -0.0018293037 -0.0002839489 0.00067690347 0.010382739 0.00015995296
-0.0021283044 0.004212826 -0.012888406 0.0008787702 0.00021629294 -0.00073434913 -0.0057507684 0.0032889373
0.00093347835 0.01937136 -0.004725934 0.0004958759 -0.0011727 0.0053492505 -0.00071843655 -0.0002354443
0.00048467316 -0.00092023914 0.00013321229 -0.0008739489 0.0002120917 0.0001717232 0.0021555726 -0.0008286286
-0.00018576674 0.0005169551 0.0021455013 -0.00093187904 -0.0010733579 6.4642595e-06 0.00096804043 0.0018026208
-0.0042518848 0.00013339313 -0.00029460536 -8.55436e-06 0.0008849081 -0.0017755467 0.012979567 -0.0013616346
0.0006204889 -0.00040382653 -0.00024682682 0.00034418516 -0.014886965 0.0016975305 0.0059224092 0.0021001813
-0.0006157692 -0.0014529141 0.0005371642 0.00061668153 -0.0011138535 -0.0020527812 -0.0019310783 -0.0011340551
-0.0016083802 -0.0002947863 -0.0013106444 -0.00063788646 0.0007050743 -0.0023558538 9.188556e-05 0.0006312608
-0.00078896154 -0.0015838855 0.0003934087 0.0017350173 -0.0006221138 -0.0003332902 -0.00025419545 -0.003101512
-0.0014309909 0.0009844654 0.00013371331 -0.002074158 0.0004919887 -0.001899295 0.00023280295 -0.0005939809
-0.00016800262 -0.0010372967 -0.0013766695 -1.0663436e-05 -0.0018384154 0.0016817325 0.00074739516 -0.00061763305
0.0020816152 0.0018857812 -0.0020814359 0.0012880649 0.0007951644 -0.00086712046 0.0006588185 -0.0002275538
-0.0015370214 0.00061327557 -0.0010587246 0.0009567812 0.00048484493 -0.0010893572 6.15914e-05 -0.00058747374
-0.001077403 -1.4532946e-05 -0.0011751493 -0.00086328236 0.00073380437 -0.0006241704 0.0002639157 -0.0007772736
00000000: 4cae b83a 8215 3c3b b719 53bb daf3 c9b9
00000010: 6757 4fba 8b71 1f39 7313 ed3a 6b0c 1bba
00000020: 3e7a 9739 8e8f 4bba feab ecb9 01bf b63a
00000030: 97aa 973a de0b 49ba e079 573b 36f7 c13a
00000040: 34ff 38b9 fdb5 27ba 5227 583a 3a70 8bbb
00000050: 0fc9 893a d824 1f3b f527 82ba 0b8f 46ba
00000060: 33c9 e0b9 7079 9b3b d422 fd39 2aee 9a3a
00000070: ce8d bf39 86dc f63a feb7 5ab8 450d 9339
00000080: 5b66 1c3b 75f9 5139 ea80 9839 615e 53ba
00000090: 0f7a d1b9 2ef7 963a 2b63 d839 e625 003a
000000a0: 9b43 c73a 2ef7 3d3b de46 1dba 6d53 91bb
000000b0: eeaf 08b9 1e4f c9b9 3f0b 0e3b e27f 08ba
000000c0: 07c8 02b9 8ab8 6e3a 44c6 b7ba eb5b c83a
000000d0: 53dd 653b 497d 54ba 6ebb d43a 2a5f 5f3a
000000e0: 01ef 073b 3676 09ba 924b 26ba 5986 79ba
000000f0: a690 ea3a 3180 5039 c71e 79ba 3c90 a9ba
00000100: 3786 67b9 c4b4 08bb ac44 0439 20e9 373b
00000110: cb93 2eba 0f02 1ab9 c011 2d39 71d2 923a
00000120: 2a28 76bb 87d1 0dbb 6b2a d73a 023c e2bb
00000130: 0d40 85ba 091e ac3a 6d44 f43a 4a6d 13bb
00000140: 3cb1 beb9 8851 f43b 3df9 9bbb c8b8 743a
00000150: 3205 6cbb 9b2e f5b9 d889 dd3c c1d0 1bbc
00000160: 0f63 d73a 8b2d 42bc b3c8 193b 419d a03a
00000170: b558 9e3c a825 a6bb d3de 46bb 87b9 31b9
00000180: 1294 dfbb 3e36 8037 15a5 903a ba36 7c3b
00000190: 8385 843a 6bb1 c6ba 6b8d 29bc ac5a 90b9
000001a0: 1e76 1a3a 0b36 babb c1fb a23b 8a66 a9b9
000001b0: 4769 20b9 81c3 803a c513 85bb 6abf 2dbb
000001c0: e70b 6dbb edf3 92b9 943b 52bc 4e7c 6e3b
000001d0: 3ded 4fbc 01da ba3a f918 8a3b c961 73bc
000001e0: f016 0b3b c40f a8bb 5291 08bb 41b1 b4ba
000001f0: 350f 72ba d299 b939 cc55 923b a78e e2bb
00000200: 7eb9 d7ba 4fd8 56b8 ea4c e439 d6a7 a0bb
00000210: aee9 723b a3ca a639 04cb 973a d6ee 2b3a
00000220: 8d4a 8e38 ae9a 8dba ca60 2337 3fc5 efba
00000230: fade 94b9 3972 313a 5d1c 2a3c 0cb9 2739
00000240: 067b 0bbb bf0b 8a3b e529 53bc 455d 663a
00000250: b2cc 6239 5681 40ba f170 bcbb 368b 573b
00000260: acb4 743a b0b0 9e3c 02dc 9abb abfd 013a
00000270: 48b5 99ba c448 af3b 7655 3cba 99e1 76b9
00000280: bb1b fe39 343c 71ba e7ae 0b39 b819 65ba
00000290: ef64 5e39 9810 3439 8244 0d3b 5338 59ba
000002a0: 61ca 42b9 4584 073a 8a9b 0c3b 5849 74ba
000002b0: eaaf 8cba 91e7 d836 18c4 7d3a eb45 ec3a
000002c0: 6553 8bbb 72df 0b39 4375 9ab9 b284 0fb7
000002d0: 2df9 673a 76b9 e8ba 40a8 543c e078 b2ba
000002e0: 4ea8 223a aeb8 d3b9 8968 81b9 c073 b439
000002f0: 75e8 73bc ac7f de3a c510 c23b 32a3 093b
00000300: 926b 21ba b56f beba 7bd0 0c3a cca8 213a
00000310: b9fe 91ba f487 06bb 3c1c fdba 93a4 94ba
00000320: 49d0 d2ba 8c8d 9ab9 eec9 abba d637 27ba
00000330: bcd4 383a ab64 1abb afb2 c038 327b 253a
00000340: 50d2 4eba 619a cfba 6c42 ce39 8569 e33a
00000350: 5a15 23ba 74bd aeb9 8945 85b9 bd42 4bbb
00000360: 1690 bbba 2d09 813a 6535 0c39 99ee 07bb
00000370: cef8 003a c4f1 f8ba 911c 7439 62b5 1bba
00000380: dc29 30b9 e7f5 87ba 5d71 b4ba 1ce7 32b7
00000390: fcf6 f0ba 946d dc3a d7ec 433a a7e8 21ba
000003a0: b56b 083b 512c f73a b368 08bb 49d4 a83a
000003b0: 9472 503a 784f 63ba 90b4 2c3a 829b 6eb9
000003c0: e175 c9ba 3ac4 203a e7c4 8aba 80d0 7a3a
000003d0: c932 fe39 c3c8 8eba a22a 8138 b200 1aba
000003e0: a537 8dba 87d2 73b7 7807 9aba e64d 62ba
000003f0: c75c 403a 5e9f 23ba 2a5e 8a39 f3c1 4bba

convs.2.att_edge f4 [1, 8, 64]
-4.19634e-40 2.96844e-40 -4.719726e-27 2.55995e-40 1.3009202e-27 4.0162e-40 -7.2225153e-29 -1.5015057e-27
-2.60513e-40 2.8078857e-28 -3.1923998e-28 1.62893e-39 -6.9241226e-27 -4.98988e-40 6.536983e-38 -6.249038e-31
-7.49187e-21 -7.628259e-23 3.9524974e-20 2.7284e-40 -5.04543e-40 6.9033087e-34 -5.4727995e-23 -2.44131e-40
3.29763e-40 2.7614656e-27 -4.48735e-40 -2.1176123e-33 4.6662387e-33 -4.95508e-33 4.289883e-22 -9.8361e-41
-1.9178166e-27 -3.772e-40 -6.766603e-27 1.5288158e-25 1.05808e-40 -4.26311e-40 -8.573773e-28 6.5990494e-22
-1.2487251e-38 4.34013e-40 3.86103e-40 -4.9280497e-22 4.92272e-40 3.3474316e-20 -2.9456e-40 4.62504e-40
-4.969501e-22 -1.6865327e-24 -5.0433646e-21 -5.906992e-32 -5.04175e-40 4.2077048e-22 -4.8075e-40 -6.421101e-20
3.47885e-40 -2.12491e-40 4.02216e-40 -4.36128e-40 -1.764905e-24 -3.85357e-40 5.10838e-40 9.598249e-28
3.725003e-28 6.001371e-37 3.0345233e-24 -2.8313462e-18 -4.4621e-40 5.642851e-21 4.198771e-16 -9.407006e-15
-2.58862e-40 1.6748157e-16 -1.9447735e-22 -1.5137859e-24 -1.1904954e-37 7.887766e-24 2.2310188e-21 5.698485e-30
-3.8595416e-16 -2.4477555e-21 -7.1501115e-25 5.966747e-21 -8.9899314e-20 -2.42695e-40 1.014385e-18 -3.28555e-40
-4.4788206e-19 2.6724495e-17 1.505168e-20 -8.156167e-19 -2.70463e-40 2.0112071e-18 2.140997e-15 2.5257e-40
3.16139e-40 1.7621933e-15 -1.9311884e-21 -4.31525e-22 1.9682654e-20 5.4285295e-18 -2.3937306e-15 1.7821118e-14
-6.582634e-19 6.2462545e-21 4.699746e-37 -4.74027e-40 4.9213092e-14 1.1816842e-22 1.2736e-40 1.4837984e-28
1.82991e-40 -2.13269e-40 -4.480897e-15 -6.2117e-41 -4.6882663e-23 -4.023073e-15 8.375412e-21 -3.02704e-40
-1.9601125e-16 1.0636827e-18 1.2668862e-14 -2.3378098e-31 7.070642e-19 -4.4545e-40 4.74124e-40 -4.956939e-20
1.5515589e-38 -3.0567043e-19 -3.013772e-15 -5.192222e-14 6.0884363e-16 -1.5567134e-22 6.1793334e-30 -4.207083e-25
2.1454181e-23 -2.42057e-40 3.233393e-32 -7.740667e-13 8.946007e-19 8.6779745e-15 2.2256353e-34 1.3896723e-21
-4.445344e-17 -2.85579e-40 1.1762606e-13 7.1178193e-32 5.004892e-25 1.0903787e-14 -7.26481e-15 -1.699583e-27
4.02331e-40 -4.4835e-41 -6.345303e-35 9.57672e-14 6.1541955e-34 2.39646e-40 -9.747726e-22 -8.349002e-16
4.71645e-40 -8.906283e-35 -7.6291e-40 3.8095712e-18 1.3794781e-17 -1.6905918e-28 8.05292e-20 3.3577171e-22
5.8957693e-24 1.2265106e-17 4.98866e-40 3.6876006e-14 1.3498656e-13 1.08804824e-13 -2.7369423e-14 -1.8591921e-29
1.8866986e-21 -3.1257017e-13 3.544875e-15 -1.7298488e-14 -1.18132525e-17 -5.6456956e-28 -1.37914e-40 2.3293026e-30
2.8414e-40 4.68345e-40 -7.9210724e-18 -2.6545642e-17 -3.454e-40 -4.09139e-40 -4.99149e-18 2.6668866e-31
2.1552665e-32 2.187988e-34 -4.62727e-40 3.23766e-40 -4.10384e-40 -1.30014e-40 3.11468e-40 -2.509779e-32
-7.9216323e-32 5.518e-42 4.1486614e-37 2.02275e-40 -5.04598e-40 1.8428e-40 4.29519e-40 4.95537e-40
4.86997e-40 -2.38117e-40 2.9467589e-34 4.13476e-40 -3.79584e-40 1.76697e-40 -4.39407e-40 -4.03301e-40
-4.15079e-40 -1.18973e-40 -2.58034e-40 2.3108599e-38 -1.8366e-40 -2.7063e-41 -7.089155e-35 -2.3591e-40
-3.00797e-40 1.83262e-40 3.054745e-39 -4.92664e-40 3.86613e-40 4.48275e-40 -7.897823e-31 -4.16218e-40
-2.30718e-40 3.26022e-40 -3.32552e-40 -4.69368e-40 -2.6375e-40 4.85878e-40 -3.52562e-40 -4.60343e-40
4.74295e-40 -4.5538e-40 9.048e-41 3.84058e-40 -2.15717e-40 -2.8729858e-34 2.13999e-40 4.34777e-40
3.56087e-40 -3.53926e-40 -3.31508e-40 2.65204e-40 -2.3077e-41 4.05e-40 -2.03328e-40 4.83133e-40
00000000: c591 0480 7b3b 0300 b5f7 ba93 9cc9 0200
00000010: 9823 ce12 8e5f 0400 ce1c b790 4fec ed92
00000020: 34d6 0280 8df8 b111 a657 ca91 cbbc 1100
00000030: 7925 0994 fa6e 0580 1ff4 b101 faca 4a8d
00000040: 7684 0d9e a370 b89a c3a6 3a1f 91f8 0200
00000050: 767e 0580 db66 6508 fd52 849a 8aa8 0280
00000060: 3f97 0300 2dc9 5a13 e4e2 0480 a2ec 2f89
00000070: f6d3 c109 73d3 cd89 5da7 011c 3112 0180
00000080: f1f1 1793 7b1b 0480 c106 0694 1b42 3d16
00000090: f326 0100 62a4 0480 5bdb 8792 ac71 471c
000000a0: 60f9 8780 dab9 0400 4c34 0400 f0f0 149c
000000b0: 415c 0500 f713 1e1f 1d35 0380 4609 0500
000000c0: a731 169c 397d 0298 6e88 be9d b25a 998b
000000d0: 6f7d 0580 1457 fe1b 233c 0580 2d9d 979f
000000e0: c3c9 0300 5750 0280 3761 0400 bfbf 0480
000000f0: 8c8d 0898 3832 0480 0290 0500 2017 9812
00000100: a119 ec11 5137 4c03 edc8 6a18 9eea 50a2
00000110: dadb 0480 4e2e d51d ec0a f225 2876 29a8
00000120: 9ad1 0280 d617 4125 d31b 6b9b 3d3f ea97
00000130: b60a 2282 5392 1819 2e92 281d 7428 e70e
00000140: c87c dea5 7af2 389d 0549 5d97 d66a e11d
00000150: cd44 d49f 89a4 0280 62b2 9521 e193 0380
00000160: 0331 04a1 6e7d f623 bb28 8e1e 41ba 70a1
00000170: f1f1 0280 a166 1422 6c46 1a27 10c0 0200
00000180: 4471 0300 75f5 fd26 9eea 119d a16b 029c
00000190: bde5 b91e 0347 c822 897c 2ca7 b384 a028
000001a0: fa48 42a1 11fa eb1d 90ec 1f03 6529 0580
000001b0: d5a2 5d29 5bdb 0e1b 0763 0100 0318 3c11
000001c0: 1bfe 0100 8252 0280 fb70 a1a7 28ad 0080
000001d0: edb5 629a 4df2 90a7 0235 1e1e d14b 0380
000001e0: 4ffc 61a5 ccf8 9c21 d038 6428 87bb 978c
000001f0: 43b0 5021 bcd9 0480 aa29 0500 b715 6a9f
00000200: 26f3 a800 9c6f b4a0 482a 59a7 3ed6 69a9
00000210: bb7c 2f26 f231 3c9b dea9 fa0e f233 0297
00000220: fb7d cf19 c2a2 0280 2ae3 270b 62e1 59ab
00000230: 0f05 8421 1854 1c28 39eb 9307 5800 d21c
00000240: 5c01 4da4 141c 0380 676f 042a 06ca b80b
00000250: d7e4 1a17 d86c 4428 06df 02a8 a3a7 0693
00000260: 8961 0400 fb7c 0080 e5af a886 08a6 d729
00000270: 1b82 4c08 099c 0200 b04d 939c c3a4 70a6
00000280: c122 0500 05c5 ec86 af4e 0880 628c 8c22
00000290: 0378 7e23 d74e 5691 ea24 be1f 28f6 ca1b
000002a0: df14 e418 5340 6223 a36e 0500 2413 2629
000002b0: 3afb 172a b601 f529 9885 f6a8 638b bc8f
000002c0: 0f8e 0e1d 1cf6 afaa 676f 7f27 99cf 9ba8
000002d0: 82ea 59a3 53eb 3292 7380 0180 b9f9 3c0e
000002e0: 1118 0300 8e19 0500 351e 12a3 20d7 f4a3
000002f0: d6c2 0380 8374 0480 4a27 b8a2 4117 ad0c
00000300: d0d0 df0a b06a 9107 e509 0580 8786 0300
00000310: fc77 0480 6d6a 0180 3f64 0300 af50 028b
00000320: 47a8 cd8b 620f 0000 f02b 0d03 dc33 0200
00000330: 9d7e 0580 b301 0200 53ad 0400 5b65 0500
00000340: 8d4d 0500 c697 0280 81d8 c307 9a80 0400
00000350: 2022 0480 8fec 0100 e3c8 0480 3d64 0480
00000360: 1285 0480 a64b 0180 4bcf 0280 5fa1 fb00
00000370: f8ff 0180 714b 0080 4a76 bc86 9f91 0280
00000380: 8046 0380 dcfe 0100 6343 2100 595d 0580
00000390: b835 0400 9ce1 0400 4626 808d 3f88 0480
000003a0: 2683 0280 d18c 0300 059f 0380 681c 0580
000003b0: 3adf 0280 6e4a 0500 cdd6 0380 4003 0580
000003c0: 242a 0500 6af5 0480 39fc 0000 992e 0400
000003d0: 5559 0280 52f1 be87 8b54 0200 fbbb 0400
000003e0: a0e0 0300 9ada 0380 1c9c 0380 48e3 0200
000003f0: 5440 0080 fa68 0400 cc36 0280 c742 0500
