finetuned_maxcut_model.pt (torch, 806960 bytes, 80 tensors)

convs.0.att_src f4 [1, 8, 8]
00000000: dd9f e23a 1e20 d23b aa9f 3ebb db3b 05bb
00000010: f544 32bc 1907 df3b 0050 bc3a cb27 d23b
00000020: 5892 7f3b 8500 b4bb f52f 953b 013a 83bb
00000030: 99ff d23b db15 e5bb b51b 85bb d45b 863a
00000040: a1f4 7e3b 7448 12bc 3230 4b3b 0aed d9b7
00000050: 57ea 8d3a 3241 af3b 3958 f9bb 02ec b83b
00000060: d547 853b 144a 983b 8cdb 1739 1aa3 ab3a
00000070: ed68 65b9 17c1 28b9 063d 9abb c9a9 b339
00000080: 8a6e 15bc de87 5d3c 8b70 57bd ce40 5e3c
00000090: 93be ce3b 10b3 2fba 2997 8cbc 923e 9a3b
000000a0: b573 0a3e ec74 f63b 57a2 53bd d87b dabd
000000b0: d1a1 d83c f2ba 873e bd1f 46bc 52dd 0fbe
000000c0: fbca 013c 63ad 033c 33af 9d3b 2c11 563b
000000d0: ea4d e2bb e202 ea3b 4f9d ca3b 6ee7 c43b
000000e0: e0cb e53b 4197 893b a5c3 cc3b 03cb e23b
000000f0: 5b42 eabb 0509 503b da5a 113c f623 d93b
0.0017290075 0.00641252 -0.0029086866 -0.0020329866 -0.010880698 0.006806266 0.0014367104 0.006413435
0.003899714 -0.005493226 0.004552836 -0.0040047173 0.006439161 -0.0069911308 -0.004062141 0.0010250756
0.0038903134 -0.008928407 0.0031004068 -2.5978796e-05 0.0010827285 0.005348348 -0.007609394 0.0056433687
0.004067401 0.0046475027 0.0001448227 0.0013094873 -0.0002187823 -0.0001609366 -0.0047069816 0.0003426804
-0.009120593 0.013521163 -0.052597564 0.013565255 0.0063093393 -0.00067024026 -0.017161923 0.004707166
0.13520701 0.0075212624 -0.05166849 -0.106681526 0.026444348 0.26509815 -0.012092528 -0.14049271
0.0079219295 0.008036944 0.004812145 0.0032664044 -0.0069062607 0.007141457 0.0061833034 0.006009034
0.007012829 0.004198939 0.0062489086 0.0069211735 -0.0071490235 0.0031743657 0.008871758 0.0066266013

convs.0.att_dst f4 [1, 8, 8]
00000000: 24e3 0ebc a72b 383b 1658 3fbb c27f 9bbb
00000010: 6f04 c53b 0f0d 443b 77ec 943b bf46 23bc
00000020: 1d97 b33b 10ca 5fbb e998 7f3b 2a49 72bb
00000030: 289a e83a cba4 22bb f5f6 d4bb ecd3 c2ba
00000040: 6b2c 7539 39fd 393b 2c4f acb8 20ca a2bb
00000050: 714a b4bb 980b 5b3b ecff 9439 b782 0b3b
00000060: 58b9 50bb c713 efba f10a 783a d17c bbbb
00000070: 6561 bbba 8f9b 0dbb e4b5 9b3b 20fd 30bb
00000080: 1070 8abb bffa fbbb e525 58bc e442 16bc
00000090: 1119 a4bb 6d67 4e3c 1d2c 973b f0a6 babb
000000a0: c63a 703d 77c8 3cbc 74a3 853d f37b 1b3e
000000b0: 5df3 05bd cfb9 a5be aa4a 383c 7c61 92bc
000000c0: 47ce aeba 0b73 a2ba fea5 47bb c027 7cbb
000000d0: d62e 1b3b b932 9dbb 33e4 74bb 75da 64bb
000000e0: 6d61 603a 688c bc39 f9ce 013b 3a57 8439
000000f0: a055 6dbb 570a 4339 7080 c43a 4466 393b
-0.008721147 0.002810219 -0.002919679 -0.0047454545 0.0060124914 0.002991501 0.0045447904 -0.009965598
0.0054806606 -0.0034147538 0.0039001054 -0.0036969879 0.0017746137 -0.0024817463 -0.006499166 -0.0014864183
0.00023381568 0.0028379692 -8.216346e-05 -0.004967943 -0.005502038 0.0033423658 0.00028419436 0.002128763
-0.0031848755 -0.0018240147 0.00094620796 -0.0057216664 -0.0014295994 -0.0021607613 0.0047519077 -0.0027006343
-0.0042247847 -0.0076898034 -0.0131926285 -0.009171221 -0.005007871 0.012597901 0.004613413 -0.00569617
0.0586498 -0.011522404 0.06525317 0.15184002 -0.032702792 -0.32368323 0.01124827 -0.01786875
-0.0013336622 -0.0012393905 -0.003046393 -0.0038475841 0.002367904 -0.0047973064 -0.0037367463 -0.003492025
0.00085594394 0.00035962765 0.0019807203 0.0002524199 -0.0036214367 0.00018600501 0.0014991891 0.0028289715

convs.0.bias f4 [64]
00000000: 04df 8fb7 8b46 3138 a906 0736 975f ccb7
00000010: 9a64 b8b6 392f bd36 550a d438 0fd3 b2b7
00000020: 3e41 e837 3361 1d39 aaa1 bfb6 5582 e837
00000030: aa31 f6b7 dcd3 7438 f960 d037 981f 5e38
00000040: 4b9b 3638 e95e 36b7 f4b3 6bb8 c90f d0b7
00000050: 0408 3437 56df 26b9 4b2c 4e37 1d87 efb6
00000060: 6864 c037 1ac1 0fb9 b695 5037 6579 54b8
00000070: bf71 d336 f281 1637 107a 3d38 ba8e eeb6
00000080: 0681 c238 67f2 19b8 24c9 6037 e3b4 edb6
00000090: 21cf d536 787f a1b7 504b d036 1478 8138
000000a0: ba24 5738 4a9f 6b36 53e7 aeb6 2475 e736
000000b0: 7dd6 e436 6621 6a37 fac5 7137 5b34 b137
000000c0: 2b9c 0437 7c15 f5b6 ff75 0038 cafd 1ab6
000000d0: d0ff c837 4f58 de38 9d46 3eb8 3684 f236
000000e0: 2090 ecb6 d53b 3fb8 e05a 12b8 d417 3f38
000000f0: 57fa 11b7 1f4e dab8 4b84 3e37 7e08 6eb8
-1.7150778e-05 4.2265787e-05 2.0120444e-06 -2.4363208e-05 -5.495339e-06 5.6381364e-06 0.00010110872 -2.1317535e-05
2.7686936e-05 0.00015008896 -5.7110637e-06 2.7717246e-05 -2.9348612e-05 5.8371443e-05 2.4840689e-05 5.295835e-05
4.353681e-05 -1.0870143e-05 -5.619596e-05 -2.4802883e-05 1.0730702e-05 -0.00015914193 1.228887e-05 -7.1384843e-06
2.2934939e-05 -0.00013709479 1.2432623e-05 -5.0657796e-05 6.301532e-06 8.970952e-06 4.517479e-05 -7.1095683e-06
9.274673e-05 -3.6703797e-05 1.3398272e-05 -7.0842084e-06 6.3720076e-06 -1.9252053e-05 6.2076506e-06 6.1735656e-05
5.12942e-05 3.5110447e-06 -5.212534e-06 6.8979734e-06 6.819899e-06 1.3955263e-05 1.4410814e-05 2.1124424e-05
7.904174e-06 -7.30407e-06 3.062747e-05 -2.3095513e-06 2.396098e-05 0.00010602234 -4.5365294e-05 7.2275534e-06
-7.0501264e-06 -4.559367e-05 -3.4893746e-05 4.556014e-05 -8.70096e-06 -0.00010409601 1.1355684e-05 -5.675153e-05

convs.0.lin.weight f4 [64, 7]
00000000: 1c1d 02bc 6a1b 393e 2b1a 253f b68d 11be
00000010: 2710 9dbd e509 aebc fce7 0fbe 1038 113b
00000020: 1042 423c 624c 213c e535 563b 2a3c 3a3c
00000030: e4fc 133c f7e8 943c f372 76bc db5d 85bc
00000040: b985 2ebb f714 86bc 2dfb fdbc 3cf4 34bc
00000050: ed14 ecbc b43e 0bbb 9a70 1bbc f627 363c
00000060: c0fa e8bc 7894 e4bc 7527 89bc 94b7 22bd
00000070: d15d 653c b520 f9bd a9ca e3bd e4b8 833a
00000080: bf2c 96bd 70fa 393b 4aa0 1f3b 6908 50ba
00000090: ceca 8c3c 4fb1 853c 7b25 803c fdf6 6d3c
000000a0: 408b 843c 4d58 c93c 844e 5c3c faea f53b
000000b0: 1dfd 83bb c7b3 c03b 6216 a13b 5bc4 b53b
000000c0: 4da8 793c bb6d 463c 648d 7b3d 6eac 4b3e
000000d0: 54b1 a1bc 37d2 223d 5b3a 853b 2f16 a2bc
000000e0: 6a85 01bc 9747 dabc 246b 46bd 3a12 38bc
000000f0: 0ef1 6fbd cf5f 79bc a996 19bd a87e c73b
00000100: f1c4 043c e3ab 44bc 1ecc 173c 8ecd 4c3b
00000110: dd3f 843b e704 653c e930 f9bb e441 3abb
00000120: 7435 3e3c 3825 d1bc de8b 32bd a7bd 36bc
00000130: d542 3abd 99dc 573c 1943 ef3b 2482 743b
00000140: eced 603b 50ae 013b 4849 2e3b 673b fb3b
00000150: 26dd f0bc e90c 48bc bc65 1fbb f096 b6bb
00000160: 8ebd adbc 4c1b 81bb ceae 90bc 40f7 e23c
00000170: d540 823c c3dc ce3c a6ba 653a c4d6 bd3b
00000180: 2c30 833a f01a c03b d788 923a 29f8 103d
00000190: 0194 173d 9153 2d3c e91f ea3c 713c 8c3c
000001a0: b32f d83c db1d 5bbb e9cc 3e3e 355c 0f3f
000001b0: 6ab9 5cbd 1ccb 00bb c560 6f3c d7bc 70bd
000001c0: 8170 8cbb 9fc5 c7bb 89c9 d43b 4103 6ebc
000001d0: 0140 3fbc 820e 55bc ea0b abbc 632c cf3c
000001e0: c75a f63c 964f e23c ae9d af3b c934 273c
000001f0: 8490 303c 6427 603c 1766 95bc 7925 e03a
00000200: 469f 1b3c 75c6 20ba 1774 733a 34a2 af3a
00000210: beb1 f639 8124 eeba c3ab c0bd d2b7 65be
00000220: a1bf d63c a7fe 443c d40b f8bb 7077 393d
00000230: 2925 2dbc d1b9 5a3c 935b 7bbe c4e9 633c
00000240: 95c4 b5bd 44f6 8ebc 10f0 aebc ea0c a3bc
00000250: b040 99bb fb08 e3ba a7cd c8bb 8000 f1ba
00000260: f31d c7bb c0e1 d8bb 783a 8d3c 0e88 4c3c
00000270: b676 913c 07a1 d13b eb48 0a3c 34c5 113c
00000280: 2dcc 353c 265a a3bc b2c9 5eba 8dd1 393a
00000290: 355f 1ebc 1b6a 053b ded8 06bc c121 00bc
000002a0: 57a6 1e3c 8d52 183d e1f7 283d 41a4 2eba
000002b0: ee3c debb 7011 063c 95b5 363c 34c0 fcbc
000002c0: 0aee a5bc 7ec5 753d b35c 40bc e347 5bbc
000002d0: 3fb0 1dbc 7eed eebc 6dde acbb 53ea e9bb
000002e0: aad1 d9ba cbeb a8bc a882 9fbc 0240 77bc
000002f0: 2a55 ecbc d9f8 acbb 8ea1 333e 38da 003f
00000300: 2c03 b8bd 23c8 8a3b 6dbf 8dba 668c b7bd
00000310: 3d69 95bc 823f 8fbb de3a 00bc af75 b5bb
00000320: 2fd0 27bb 87b9 f8bb 744a ebbb 2c83 433c
00000330: cf9c 2d3d f20e 553d 2aa2 2d3c 7008 693d
00000340: f393 583c 6a7c d63c feee f83c 8eb9 2ebc
00000350: dc38 97bc a1da 0bbc f4ba b3bc 60c0 adbb
00000360: 6a0c 70bc ba8c 583c 9644 013d ea5f 343d
00000370: 9254 053c 1cbc bc3c 848c 703c 8859 973c
00000380: 6b7e 513a 6c7e db3b a373 453c c70f 073c
00000390: b3f1 b63a 6076 de3b e2a1 113c 9669 e4bc
000003a0: 017e 36bc dc37 0f3c 29f3 f6bb 7d16 02bd
000003b0: 4416 fcb9 1c0f d0bc 2cb6 07ba 5493 0abd
000003c0: c630 03bf 9448 213d 5871 be3d 6a6a a1bc
000003d0: f50d d73d 7b2b c1bc 73a4 b9ba 0d65 623b
000003e0: 047a c9bb e6c4 13bb 5eb4 d5bb a128 e7bb
000003f0: 8287 2bbc 9a7a eabc a6d7 74bd db2f 7abc
-0.0079415105 0.18076864 0.64493054 -0.14214215 -0.076690964 -0.021244952 -0.14053339 0.002215866
0.011856571 0.009844871 0.0032685932 0.011366883 0.009032462 0.018177493 -0.0150420545 -0.016280105
-0.0026629998 -0.016367419 -0.031003559 -0.011044558 -0.028818572 -0.002124709 -0.0094872955 0.011117926
-0.02843988 -0.027902827 -0.016742447 -0.039725855 0.013999418 -0.121644415 -0.11122639 0.0010049609
-0.073327534 0.0028378032 0.0024357014 -0.00079358235 0.017186549 0.016319899 0.015642872 0.014524219
0.01617968 0.024578238 0.013446454 0.007504818 -0.004027976 0.005880806 0.0049159983 0.005547089
0.01523788 0.012111123 0.061414137 0.19889995 -0.019737877 0.039751258 0.0040657944 -0.019785969
-0.007905344 -0.026645465 -0.04844202 -0.011234814 -0.058579497 -0.015220596 -0.037497196 0.0060880966
0.008103595 -0.012003872 0.009264974 0.003125045 0.0040359334 0.01397822 -0.0076047075 -0.0028420622
0.011609424 -0.025530443 -0.04359042 -0.011153615 -0.045473892 0.013175153 0.0073017 0.0037309015
0.00343215 0.0019787736 0.0026593972 0.0076669934 -0.029402327 -0.012210109 -0.0024322113 -0.0055721924
-0.02120855 -0.0039400216 -0.017661478 0.027705789 0.015900055 0.025251752 0.00087634695 0.0057934243
0.0010008863 0.005862586 0.0011179697 0.035392914 0.037006382 0.010579006 0.02857967 0.017118664
0.026389932 -0.0033434543 0.18632855 0.5600007 -0.053887762 -0.0019652313 0.014610474 -0.05877384
-0.0042858724 -0.0060965563 0.0064937514 -0.014527143 -0.011672975 -0.013003947 -0.020879705 0.02528972
0.030072583 0.02762584 0.005359373 0.010205456 0.010776643 0.013681266 -0.018237157 0.0017101011
0.009498423 -0.0006133088 0.0009287013 0.0013399781 0.00047053205 -0.0018168838 -0.09407761 -0.22433403
0.026214423 0.0120236045 -0.0075697694 0.04527992 -0.010567942 0.013349966 -0.24546652 0.013910715
-0.08875386 -0.017451413 -0.021354705 -0.019903619 -0.004676901 -0.0017321402 -0.0061280313 -0.001838699
-0.0060765683 -0.0066187084 0.017239794 0.01248361 0.017756801 0.00639737 0.008440237 0.008897115
0.011096043 -0.019940447 -0.0008498683 0.00070884154 -0.009666254 0.0020357433 -0.008230416 -0.007820548
0.009683213 0.0371881 0.04125202 -0.0006662049 -0.0067821657 0.008182868 0.011151691 -0.030853368
-0.020255107 0.060002796 -0.011740851 -0.013383838 -0.00962454 -0.02916598 -0.0052755387 -0.0071385293
-0.0016618271 -0.020620247 -0.019471481 -0.015090944 -0.028849203 -0.0052786884 0.17542097 0.50332975
-0.0898498 0.004235284 -0.0010814496 -0.08962326 -0.018238658 -0.0043715844 -0.007826535 -0.0055377106
-0.0025606265 -0.007590476 -0.0071805064 0.011933129 0.042385872 0.052016206 0.010597745 0.056892812
0.013218868 0.026182372 0.030387398 -0.010664357 -0.01845973 -0.008536012 -0.021939732 -0.005302474
-0.014651397 0.013217146 0.03155955 0.044036783 0.008137839 0.023038916 0.014681939 0.018475309
0.0007991555 0.0066984203 0.012051496 0.008243508 0.001395753 0.0067890137 0.0088886935 -0.027882379
-0.01113844 0.008741345 -0.007536311 -0.031759728 -0.00048081775 -0.02539783 -0.0005176987 -0.03383191
-0.512463 0.039375857 0.09298962 -0.019704062 0.10500709 -0.023580303 -0.001416339 0.0034545094
-0.0061485786 -0.002254778 -0.0065217456 -0.007054404 -0.010469319 -0.028622914 -0.05977597 -0.015270199

convs.1.att_src f4 [1, 8, 8]
00000000: ccff e23c efab 9b3b 0875 b43b c4b7 f43a
00000010: 66c0 57b9 fb12 173c 6244 59bc 1ee7 25bc
00000020: 0a70 9b3b 6a74 ae3b 5ed6 cd3b e1bd ecbb
00000030: 93f3 be3b a226 eb3b d1cf 0fbc 5124 64bb
00000040: 3a76 473c 3af7 11bc bf1e 773c 890c 4c3c
00000050: 1dec 22bc d826 7d3c b113 1d3b 7ae5 343c
00000060: edff 103d ce70 c93b adff c53b 0c79 af3b
00000070: 021a da3b 9a7d adbc e67f 163d 4b62 86bb
00000080: 0f44 3ebc 6800 333c f1ee 2d3c 90c2 58bc
00000090: 7a40 283c 4b7b 29bc 8b05 0dbc e1df 633c
000000a0: 1109 3dbc efaa a0ba 5d78 12bb 0bcc 993a
000000b0: 3338 28bb ee90 e839 39ba be3b e805 793a
000000c0: 8e6d a2bb 8db8 41bb 0e53 943b ac40 b1ba
000000d0: d83b e7ba 461b 73b8 46e7 2fbb 265e 4ebb
000000e0: 38c5 29bb 4035 463b 5acd 81bb ea10 2f3b
000000f0: 8499 d0bb 1b17 a43b 6627 15bc 8639 a63b
0.027709864 0.0047507207 0.0055071153 0.0018670489 -0.00020575672 0.009220834 -0.013260933 -0.010125903
0.0047435807 0.005323936 0.006281658 -0.0072247838 0.005827376 0.0071762362 -0.008777575 -0.0034811685
0.0121741835 -0.008909041 0.015083014 0.0124541605 -0.009943989 0.015451156 0.0023968036 0.01104104
0.03540032 0.0061474806 0.006042442 0.005355006 0.0066559324 -0.021178056 0.036743067 -0.004101073
-0.011612906 0.01092539 0.01061605 -0.013229981 0.010269279 -0.010344337 -0.008607279 0.013908357
-0.011537806 -0.0012257973 -0.0022349574 0.0011733783 -0.0025668263 0.0004435847 0.0058205393 0.00094994763
-0.0049569076 -0.0029559464 0.0045265025 -0.0013523302 -0.0017641736 -5.7961115e-05 -0.002684073 -0.0031489222
-0.0025904905 0.0030244142 -0.0039612474 0.0026712962 -0.0063659567 0.005007637 -0.009103632 0.0050727753

convs.1.att_dst f4 [1, 8, 8]
00000000: 946a 27bc 10b2 b83b 2957 55bb 0e23 c8bb
00000010: adfe f63b 4534 423c cf9f 13bc e208 e33b
00000020: fec8 c33a aea4 c23a bc9d 413b 9d30 d3b7
00000030: 1dbd 703b e71b 283b 7f6d b939 e4a3 26bb
00000040: 6bee 7a39 6685 39ba 14fe 2c3b f5f3 073b
00000050: 9a9c c0ba 4b73 8b3a ff7f be39 28fe 003a
00000060: 97a1 1eba 8ff2 75bb 02db 65bb 8020 a0bb
00000070: 8d8f 9bba 440f 9f3c 2e1d 6fbb 8c22 8b3b
00000080: b3f0 90bb 9b28 773b 8ccf 9c3b 9b65 e6ba
00000090: 44d3 e23a 8b84 3d3a 0d66 8ab9 38ad d73b
000000a0: 419e ea3b e90d c0b8 9090 5cbb 0fcc 45ba
000000b0: a32e b8ba 0d62 b3ba 0200 5fba a583 08bc
000000c0: ca37 9dba f304 cf3a 7492 10b8 9c99 dfb9
000000d0: c857 8c3b 71a4 103b 0e87 13ba 5f9c 243a
000000e0: d7eb 203c 5d9f b7ba 5c90 af3b 38e4 543b
000000f0: 9429 d13b a50c 733b 5c7d 873c 90ec f33a
-0.010218281 0.005636461 -0.0032553172 -0.0061076945 0.007537684 0.011853282 -0.009010269 0.006928549
0.001493722 0.0014850104 0.002954348 -2.5175797e-05 0.0036733814 0.0025651397 0.0003536753 -0.0025427276
0.00023930676 -0.0007077068 0.002639656 0.0020744775 -0.0014695108 0.0010639218 0.00036334989 0.0004920685
-0.00060513004 -0.003752861 -0.0035073166 -0.004886687 -0.0011868343 0.019416459 -0.0036485898 0.0042460617
-0.004423225 0.0037713412 0.0047854837 -0.0017577888 0.0017305394 0.0007229528 -0.00026397445 0.0065819286
0.0071599786 -9.1578644e-05 -0.0033655502 -0.0007545361 -0.0014051985 -0.0013685838 -0.0008506776 -0.008332168
-0.0011994776 0.0015794322 -3.446867e-05 -0.00042648322 0.0042829253 0.002207067 -0.00056277297 0.00062794046
0.009821854 -0.0014009286 0.005357785 0.0032484662 0.0063831303 0.0037086394 0.016539268 0.001860993

convs.1.bias f4 [64]
00000000: be7f 7d38 1890 ed37 426a 0737 80da 8c36
00000010: de88 df37 7f3a df37 f42e 9737 4621 72b7
00000020: 8563 0438 1874 b137 0c94 0f37 569b 8336
00000030: 9e85 2f38 e792 b136 f899 70b7 73ae a3b8
00000040: fe4d 2837 ca96 28b7 baf8 5438 0140 2138
00000050: a2e4 2737 f4fd ecb6 6a57 4736 500c 4038
00000060: dbe9 55b5 13ef b137 e8cc dab7 2021 8fb9
00000070: 6e0c 5539 ee26 d9b7 31f9 b3b6 fcb3 9c36
00000080: bdc2 8136 ce2b 9535 297f 4339 f8a9 94b8
00000090: 9550 6b37 6e92 8737 f197 2db6 bed7 9838
000000a0: 82fe 6b36 01f8 9eb7 c9ea 47b9 2a02 ae37
000000b0: 1673 6d37 2655 a237 79e7 ccb6 73ae b536
000000c0: 7df1 1538 502e a3b7 9bc8 ba38 d592 1237
000000d0: e470 20b7 ed26 3738 92c0 06b8 d219 b436
000000e0: db63 7b37 0dc2 7e36 1b14 cc37 b03a bb37
000000f0: a5d7 d536 9fbe 9236 0e40 d437 56c3 ec37
6.043887e-05 2.83197e-05 8.071367e-06 4.197762e-06 2.6647405e-05 2.6610911e-05 1.8022467e-05 -1.4432071e-05
3.1563937e-05 2.1154105e-05 8.557934e-06 3.9221877e-06 4.1847692e-05 5.2921127e-06 -1.4340963e-05 -7.8049394e-05
1.0031739e-05 -1.0048689e-05 5.0776383e-05 3.8445e-05 1.0007208e-05 -7.062912e-06 2.9704192e-06 4.5787834e-05
-7.968899e-07 2.1211372e-05 -2.6083042e-05 -0.00027299765 0.00020317893 -2.5886544e-05 -5.3636254e-06 4.6701152e-06
3.86717e-06 1.1114114e-06 0.0001864402 -7.088849e-05 1.40258535e-05 1.616144e-05 -2.586745e-06 7.28811e-05
3.5165872e-06 -1.8950554e-05 -0.00019065583 2.0743424e-05 1.4153096e-05 1.9351555e-05 -6.1066207e-06 5.414529e-06
3.574927e-05 -1.945268e-05 8.906537e-05 8.736465e-06 -9.563028e-06 4.3666852e-05 -3.2127435e-05 5.367424e-06
1.4984015e-05 3.7961902e-06 2.4328057e-05 2.2319466e-05 6.372999e-06 4.3733303e-06 2.5302197e-05 2.8224353e-05

convs.1.lin.weight f4 [64, 64]
00000000: 8c8e a23d 3c83 c83c ead1 9e3c bbaa 34bc
00000010: 8066 6e3d fec3 65bc 20e2 8b3c 5389 e93d
00000020: 0094 adbb 4e28 bf3b e32c c33c 9e65 a5bb
00000030: d3a2 0d3d 6d29 0fbc 6db3 0b3d 6c33 d63d
00000040: 3a0f 2abc 2f94 ab3a 7f64 50bc 36cf 0dbd
00000050: a25d 01bd 33ad d33c fc86 ea3c 7c3e 0d3d
00000060: f6ab 7f3d 2e12 ae3d b983 3f3d bbf0 1a3e
00000070: fce3 a5bb 7019 fe3b 0ef0 94bc ba42 243d
00000080: 0f9b f13c 7ae1 8d3c b50e 0b3d d9eb 8a3c
00000090: 0e39 bbbc 166c a13d f0b4 a8bc 4b18 a03b
000000a0: ef8c d63d d275 21bc 9cd7 09bc f542 043d
000000b0: 8ca0 d33b db1c b13d d7f1 8cbc 7143 793d
000000c0: d9bb 593c 06c2 22bd a72f 90bb 30b2 593c
000000d0: b9f3 513d 6d71 513c e6c5 a3bb f784 e2bc
000000e0: d51a 8e3d afc6 ae3c 91d8 3ebb 506a 77bc
000000f0: 63c6 fb3d 149b 2a3d 3473 eebc 0eec 933d
00000100: ed40 833c b670 2d3c 5200 cfbb 67b3 1fbc
00000110: f591 d5ba 42a5 233c c0c0 533b 2ebe a53c
00000120: 81df 74bc 699f b73a 5530 55bc c584 813a
00000130: c0ce fc3b 0445 643b f1d5 103c 619a b0bc
00000140: 58a6 fcbb d8a2 c13b 4b44 203c 7379 893b
00000150: ec9b e3bb d022 293a c6d0 653b 8bfa 8abb
00000160: b550 a1b8 05e5 0d3c 214f dabb 6912 c73c
00000170: bf36 0d3a 4f15 a93b 646b 21bc 03dc ccba
00000180: cac0 b43b 8f5f 9b3b d399 33bc 465f f53b
00000190: f690 94bc 88fc 333c f879 25bc 0e1c 203b
000001a0: ecf6 beba 1beb 3abc 429f e0bb 67d1 34bb
000001b0: 3ee0 7d3b 6a5f 48bc 6cdb 78bb 8eb2 1f3d
000001c0: 7ccf 493b 58fa 3abc 74e5 67bc b1aa 02bc
000001d0: df53 a13c ea24 fe3a ae1d 0fbb c9f5 c3bb
000001e0: bfe5 7cbc 6495 2cbc 5eaa 8fbc f13a 2cbc
000001f0: be05 a1bb 3e31 cb3b 220a 44b9 7ee7 643b
00000200: 2989 e7bb 7c3b f23b 0104 b2bb 2289 0abc
00000210: aeb8 e03b 377d d73b 65a8 223c 385c 013c
00000220: c5be 32bb 8b85 a93b 6ea5 54bb 4eef ed3b
00000230: 7b69 bcbb 23c0 783b 8f8a 443c e508 6e3b
00000240: d2dd c1bb 4933 193c 1788 b2ba fa91 04bc
00000250: e992 acbc 5180 e4bb fd89 b03b 9677 49bc
00000260: ea5e 3f3c 36b6 36bc fe8f 0dbc ea80 94bc
00000270: 449c aebb 7b6d ab3b 9694 053c b42c 3c3c
00000280: afd7 683b fb59 d3bb c802 05bd 8f7a a9bb
00000290: 79eb 09bc 8690 933b 8b7a 5d3c 1a26 48bb
000002a0: 5704 da3c 1410 c3bb eba7 343b 209b 3d3b
000002b0: e40a f1bb e032 5bbc c1d4 003b 1225 d6bc
000002c0: fe65 fcbb e549 3cbc 8ae8 abbb 9ee2 5dbc
000002d0: 3ba7 ffb9 294a 0e3c 49bc 3fbc 6b2e 08bc
000002e0: 7009 9abc fae3 04bc 08f0 53bc fc98 30bc
000002f0: 1d2f 993c 371b 5fbc 1786 343b a347 49bc
00000300: 65c7 533c d869 2f3b 18ec 2cbb 41d8 c9ba
00000310: c60b f73a b8e5 423a b9f5 7d3b 9db4 4ebb
00000320: 0f3d 1dbb 2941 b73b 717d 91bb 5e2b 923b
00000330: f2e7 8bbb 2105 6bba 83a5 7cba 21dd 4fb8
00000340: 740e b2bb cfe4 bc3b 2437 89ba a50e f2bb
00000350: 1bab 16bc d76d b3bb 8e46 ac3b 0d52 f4bb
00000360: 626e 943b 3821 b5bb 10eb deba 9945 25bc
00000370: ff1d c6bb 24a8 e73a d809 cf3b f5a7 92bb
00000380: a5ca 6e3b e38c 4fbb 5e0d e2bc b3b5 daba
00000390: 6e13 d0bb 6a1c 7a3a b715 013c 1fdc 20bb
000003a0: 1ae6 323c 9ff9 c6bb e1df ef3a b240 683a
000003b0: 062b a6bb 93d9 65bc c687 083a f2d1 d7bc
000003c0: ee3a 02bc 4a27 1fbc a4f3 2bbb 6556 61bc
000003d0: 4226 0c3c a2d6 d33b 9c4f 23bc eeab 05bc
000003e0: b3bb 8bbc 7241 fbbb be68 08bc f48e 9fbb
000003f0: 36e9 02bc 434b 01bc 3fb7 b4bb 1a94 27bc
0.07937345 0.02447664 0.019387204 -0.011027033 0.05820322 -0.014023779 0.017075598 0.11403146
-0.005297184 0.005833662 0.023825115 -0.005047514 0.03457911 -0.008737904 0.03410666 0.10459027
-0.010379607 0.0013090427 -0.012719273 -0.03462144 -0.031583436 0.025839424 0.028628819 0.034483418
0.062419854 0.08499561 0.04675648 0.15130894 -0.0050625782 0.007754497 -0.018180873 0.040102698
0.029492883 0.01731943 0.033949573 0.016958164 -0.022854354 0.07881944 -0.02059409 0.0048857084
0.104761 -0.009854751 -0.008413222 0.032290418 0.0064583477 0.08648082 -0.017205162 0.060855333
0.013289415 -0.039735816 -0.004400212 0.013287112 0.051257823 0.0127833905 -0.0049979566 -0.027651293
0.069387116 0.021334974 -0.0029120783 -0.0151010305 0.12293699 0.0416518 -0.029107668 0.07222758
0.01602217 0.010585954 -0.006317177 -0.009747363 -0.0016294109 0.009988131 0.0032310933 0.020232286
-0.014945866 0.00140093 -0.013012012 0.0009881487 0.007715076 0.0034831176 0.00884007 -0.021557989
-0.0077102594 0.005909305 0.009781907 0.004195386 -0.0069460776 0.0006452026 0.0035067066 -0.004241293
-7.692111e-05 0.00866056 -0.006662265 0.02430077 0.0005386881 0.005160011 -0.009852264 -0.0015629533
0.0055161463 0.004741616 -0.0109619675 0.007488164 -0.018135529 0.010985501 -0.01009988 0.0024430784
-0.0014569438 -0.011408593 -0.0068549225 -0.0027590634 0.0038738395 -0.01222978 -0.0037972583 0.038988642
0.0030793836 -0.011412226 -0.014153827 -0.007975266 0.019693313 0.0019389663 -0.0021837759 -0.0059802276
-0.015435635 -0.010533664 -0.017537292 -0.0105121 -0.0049140146 0.0062009385 -0.00018695791 0.003492802
-0.0070659113 0.007392345 -0.005432606 -0.008455547 0.006857953 0.006576206 0.009927844 0.007895522
-0.0027274352 0.0051733903 -0.0032447237 0.0072611934 -0.005749879 0.003795632 0.011995926 0.003632122
-0.0059163356 0.009350606 -0.001362088 -0.008091444 -0.021066146 -0.0069733043 0.0053875432 -0.012296578
0.011680344 -0.011151841 -0.008640287 -0.018127877 -0.005328687 0.005231557 0.008153101 0.011485267
0.0035528948 -0.0064499355 -0.032473356 -0.005172081 -0.008417957 0.0045033125 0.013517986 -0.0030540288
0.026613398 -0.0059528444 0.0027565907 0.0028931573 -0.0073560346 -0.013378829 0.0019658061 -0.026140723
-0.007702588 -0.011492227 -0.0052462267 -0.013542799 -0.00048761987 0.008684673 -0.0117026055 -0.008311848
-0.018803328 -0.0081109945 -0.012935646 -0.010778662 0.018699223 -0.013617328 0.0027545744 -0.012285146
0.012925957 0.0026765969 -0.002638584 -0.0015399532 0.0018848113 0.00074347435 0.0038751198 -0.003154076
-0.0023992693 0.0055924845 -0.0044400026 0.004460736 -0.0042695934 -0.0008965303 -0.00096377 -4.955859e-05
-0.005433852 0.005764581 -0.0010468704 -0.0073869997 -0.009196068 -0.0054757404 0.005257434 -0.0074560703
0.00452976 -0.0055276416 -0.001700731 -0.010087394 -0.0060460563 0.0017674011 0.006318312 -0.0044755884
0.0036436704 -0.0031669668 -0.027594265 -0.0016686231 -0.0063499724 0.0009540977 0.007878712 -0.0024545265
0.010919118 -0.0060722376 0.0018300974 0.0008859738 -0.0050710468 -0.0140289245 0.000520822 -0.026345227
-0.00794862 -0.009713957 -0.002623775 -0.013753508 0.008554043 0.006464795 -0.009967711 -0.008158667
-0.017057275 -0.007667714 -0.008325754 -0.0048693363 -0.007990172 -0.007891479 -0.0055150087 -0.010228181

convs.2.att_src f4 [1, 8, 64]
00000000: 0c19 22bc 1e39 963c 3e60 93bc c4b4 0fbc
00000010: 74b7 05bc 3f6c 853c c1cb 423c 996f 23bc
00000020: 8519 993c 6bd1 77bc e5bb 653c be82 73bc
00000030: 6cef 923c 514a 8d3c d358 493c 7fc0 58bc
00000040: 2500 9a3c d827 6c3c e743 8fbc caa1 8c3c
00000050: 1997 203c 7df4 8cbb 4aab 993c 85f6 a83c
00000060: b699 e63b c59d 933c 8cf1 643c 90db 11bc
00000070: df0f 733c c9fe 623c 41bf 6ebc 078d 55bc
00000080: e684 573c e5d2 25ba 2ed4 6ebc 9532 933c
00000090: 7d26 933c 4e8b 8fbc 1e62 183b 70fd 783c
000000a0: 7ec6 843c c9f5 953c fd7f 313c 5e39 923c
000000b0: 7207 723c e6ba 533c 2255 623a 9ad9 663b
000000c0: 1127 9e3c cac7 b23a d693 90bc a58a 473c
000000d0: b4c6 5bbc 437b 66bc 6250 a43c b381 4f3c
000000e0: 9872 29bb 4180 7a3c d288 81bb 7a26 8b3c
000000f0: 08b8 76bc bdf3 873c f3cf 2d3c 9bbf 003c
00000100: e854 bfbb d055 523c 1309 f0bb f352 85bb
00000110: bef0 b8bb 983d ccba a3b1 2e3c ef88 a6bb
00000120: 36de bf3b cf2b bebb a3c9 063c 3419 56bc
00000130: 5fa7 233c 907f 443c c587 12bb 3748 eebb
00000140: 64f5 283c 08b3 833b f1c4 45bc 63bd d93b
00000150: c12b 783b ed36 223b f525 0b3c 2e60 2e3c
00000160: 7bb0 543b 9b67 5a3b b4dd 173c b1d8 88bb
00000170: e3c0 203c c7e9 163c d344 1abc 5589 c5bb
00000180: b15c 253c 0d23 77ba 1e64 18bc 4982 293c
00000190: b6d4 0f3c b871 36bc 97a8 333c a964 2b3c
000001a0: d39f 2b3c 908a 253c ea92 d03b d44a 123c
000001b0: 5962 183c 1b6d 993b 45bf 3ebb 9787 69ba
000001c0: 7e22 323c 6ded 69bb c5bf 40bc 076f 813b
000001d0: 34a8 debb fdf6 8cbb ab37 323c fd75 c33b
000001e0: 05f5 b03a 96b9 2b3c 988a 1a3b 0d04 d63b
000001f0: 3954 11bc c04c 303c 9fc6 013b f324 9a3b
00000200: 3d2a 4cbc a2a8 513c c5db 25bc 793b c2bb
00000210: 3a59 a3ba 2a4e 9d3b 59d4 6a3c 8f86 d9bb
00000220: 1476 f13b 3228 4cbc 85eb 0a3c c50d 44bc
00000230: 3ae9 743c 78d1 193c eb39 703c 93e9 78bc
00000240: 1be9 c83b 3e48 d83b 4a17 51bc dde4 c83b
00000250: b7b3 963b 9f38 0fba f458 5c3c 26a9 643c
00000260: 9101 a13b 9712 4d3c 3491 473c 8bb0 32bc
00000270: a08f 403c 148a 523c 097e 7bbc 2adf 50bc
00000280: 1524 563c 27dc c3bb e4f7 5ebc e4dd c53b
00000290: 0111 713c 5342 4abc bffe 1b3c 9754 503c
000002a0: e34f 823c cbd0 743c af2a 383c 366e 883c
000002b0: 79b6 433c 58ce ab3b 6395 69bb db89 a13b
000002c0: 9810 7a3c fea6 3b3a 1c4c 69bc f9fa 293c
000002d0: 6270 53bc e13b 35bc fdbe 703c 1dd8 2e3c
000002e0: cde1 8dbb f795 683c ab9b ca3b 6350 883c
000002f0: 9806 31bc e1c7 533c 7b8a 03b9 0ac1 613c
00000300: f528 10bc 34e1 743c 1a77 31bc 2adb 4bbb
00000310: a488 36bb 6e81 bfbb 89c0 773c 9e23 debb
00000320: 7d3c 493c 47ed 3abc f08c 193b 531a 66bc
00000330: cc38 583c c4e7 5f3c 9daf 86bb b831 3abc
00000340: 746b 453c b463 c33b c062 6cbc 0204 ea3b
00000350: f511 513b c911 48ba 9902 4d3c c5e4 613c
00000360: ad15 ab3b 80f6 0c3c ea49 253c 6a29 27bc
00000370: 1ba2 513c e396 123c 3441 3abc 1262 4abc
00000380: 4dc5 0d3c 1830 1bbc 973f 50bc e7f6 443c
00000390: d366 3b3c aa2c 6bbc e1ed 103c fa57 633c
000003a0: 32ef 543c ccda 753c bcd3 323c 94a8 07bb
000003b0: 84b5 443c b6c4 213c c61a 04ba 6aad 073b
000003c0: b455 703c 7546 f2bb 2b54 71bc 0752 ca3b
000003d0: 6c46 37bc ca99 67bc e8d0 543c 6a1d 103c
000003e0: 077a 40b9 898b 763c 6b36 f9ba e97d 593c
000003f0: a125 49bc 4237 6b3c 6a3b 983b cb43 273a
-0.009893667 0.018337782 -0.017990228 -0.008771125 -0.008161414 0.016286967 0.011889399 -0.009975337
0.018688926 -0.015125613 0.014021848 -0.014862714 0.01793643 0.01724735 0.012289244 -0.013229488
0.018798897 0.014413796 -0.017488433 0.01716699 0.0098016495 -0.004301606 0.018758435 0.020625362
0.0070373667 0.018019566 0.013973605 -0.008902445 0.014835327 0.013854691 -0.014571966 -0.013034112
0.013154244 -0.0006325676 -0.014576955 0.017968455 0.017962689 -0.01752248 0.0023251842 0.015197143
0.01620793 0.018305676 0.010833737 0.01784962 0.014772283 0.012922978 0.00086339016 0.0035224915
0.019305738 0.0013639864 -0.017648619 0.0121790515 -0.013414074 -0.014067474 0.02005786 0.0126652
-0.0025855657 0.015289367 -0.003953078 0.01698612 -0.015058525 0.016595716 0.010608661 0.007858182
-0.005838979 0.012837842 -0.0073253005 -0.004068726 -0.005643933 -0.0015582321 0.010662469 -0.0050822417
0.005855347 -0.0058035622 0.008226785 -0.013067532 0.009988635 0.011993304 -0.0022358757 -0.0072717923
0.010312412 0.004019145 -0.01207088 0.006644891 0.0037867876 0.0024751977 0.008492936 0.010643048
0.0032453823 0.0033325914 0.009269167 -0.0041762223 0.009811613 0.00921101 -0.009415823 -0.006028334
0.0100929 -0.0009427525 -0.009301214 0.010346004 0.008778742 -0.011135511 0.010965488 0.010461011
0.010475117 0.010103837 0.00636517 0.008928973 0.009300792 0.004682196 -0.0029105705 -0.0008908449
0.010872481 -0.0035694495 -0.011764471 0.003950003 -0.0067949537 -0.0043019042 0.01087753 0.005964993
0.0013500756 0.010481259 0.0023581143 0.0065312446 -0.008870178 0.010760486 0.0019802225 0.0047041117
-0.012461242 0.012796553 -0.010123198 -0.0059275 -0.0012462505 0.0048005776 0.014332854 -0.006638355
0.0073688123 -0.012460755 0.008479004 -0.011966174 0.014948184 0.00938832 0.014662246 -0.015192407
0.006131304 0.006600409 -0.0127619 0.0061307983 0.0045990604 -0.0005463454 0.013448942 0.013956344
0.004913517 0.012516639 0.012180615 -0.010906349 0.011752993 0.012850303 -0.015349873 -0.012748519
0.013070126 -0.005977172 -0.013608906 0.0060384143 0.014713527 -0.0123449145 0.009521185 0.01271548
0.015907234 0.014942358 0.011240645 0.016654115 0.01194536 0.005243104 -0.003564202 0.0049297637
0.015262745 0.00071583677 -0.014239337 0.010374778 -0.012905212 -0.0110616395 0.014693973 0.010671643
-0.004329896 0.014195911 0.006183108 0.016639894 -0.010804795 0.012926073 -0.00012544722 0.013778934
-0.008798827 0.014946271 -0.010831619 -0.0031105974 -0.002785244 -0.0058442866 0.015121588 -0.0067791482
0.012282488 -0.01140911 0.0023429953 -0.014044362 0.013197135 0.013666097 -0.00411029 -0.011364393
0.012049545 0.0059628133 -0.014427841 0.007141591 0.0031901572 -0.0007632045 0.012512826 0.013787453
0.00522109 0.008603692 0.010088423 -0.010202745 0.012794997 0.008947107 -0.011368085 -0.012352483
0.008652997 -0.009471916 -0.0127104735 0.012021757 0.011438089 -0.01435391 0.008845777 0.013875956
0.012996482 0.0150057785 0.010914739 -0.0020699846 0.012006167 0.00987356 -0.000503939 0.0020702728
0.014668871 -0.007393653 -0.01472954 0.006174329 -0.0111862235 -0.014135787 0.01298926 0.008796075
-0.00018356006 0.015047916 -0.001901341 0.013274648 -0.012277038 0.014356436 0.0046457546 0.00063806464

convs.2.att_dst f4 [1, 8, 64]
00000000: de2c 7b3b 207b e03a d739 06bc 589c 40ba
00000010: 0b36 24bb 08f8 d43b ec3b a33b b3e4 a438
00000020: a15e c73b 02f2 5dbb 85c6 873b 1137 983b
00000030: 36a5 8b3b 28a0 24b9 cab0 c03a b01e b5ba
00000040: eb76 9e3b 1753 a63b ab5f 7aba 84af 6d3b
00000050: 072f 2e3b 1894 e9b9 7058 983b d0ad 033c
00000060: bb6d 1e3b a46d ce3b 5d56 653b 13cc 543b
00000070: 6fff 0d3a 3445 b53b 5f82 55bb dc77 9dbb
00000080: e8a4 52ba 3b55 7c3b a18a 9dba 5cc2 21bb
00000090: 4a40 123c 6a42 a8bb d2e4 d9ba 3825 ab3a
000000a0: f284 0dbb bbc3 a53b e3ff 453b d672 b83b
000000b0: e011 1fbb 7e43 ab3b 9858 593a 5a99 45bb
000000c0: 1e10 0e3b 3c47 cd3a b267 38ba 44ea 033b
000000d0: 4ce0 4bbb 9865 c0ba 840f 903b 5f3b 863b
000000e0: 89e0 ff3a dcf0 ae3a 391b 503b 07e7 913a
000000f0: 0d98 e13a 12ef b33b b1c3 263b a306 b33b
00000100: 96eb bf3a 03c9 c93a a060 423b e90c 64b9
00000110: cdef 1db9 308f 0aba 004a 7d3a 6c89 92ba
00000120: d878 94bb cddd 753b 24cb 323a 9768 333b
00000130: 3015 063b c53d cfba d415 33bb 835a ceba
00000140: 6eb6 9e39 75b4 03bb 34b1 54b8 714d 19ba
00000150: 9355 3e3a b245 a73b 7f4f 1bbb 079c 9fba
00000160: d9ef 12ba ba82 16bb 97cf 0fba 579a 93b8
00000170: 27c6 bbb8 6679 703b d081 26bb e871 01bb
00000180: 2095 1fbb 5351 603a e6c4 22bb b1d2 3f3a
00000190: 7a42 a93a 3614 a53a 0085 c93a b280 d83a
000001a0: 48b7 163b 35c5 f4ba 9d70 173a cc25 83bb
000001b0: 3af1 3cbb 3366 7bbb 4b23 97bb 76e9 733a
000001c0: 866e 29bb ff0e 90bb 0bc1 a03a 90dc 563a
000001d0: 9cf3 41bb 86a7 403b e506 d8ba 4bc5 23ba
000001e0: a4f4 7cba b1af 123b b159 34ba 216a b4bb
000001f0: 94c1 123b bdd8 273b a81e b73a 805d 92bb
00000200: fd71 8f3a 6407 e23a d4c2 a6ba 406f 56ba
00000210: 8403 b9ba ac17 283b 3965 813b 8835 f7ba
00000220: 707d 6739 97d2 e3b9 87bd f2b9 e0be 303b
00000230: 0a95 b13b fc7c b9ba 7789 a53b 0d0f 93bb
00000240: 099d ac3a 81b8 75bb 3ac2 f1b9 a316 0b3a
00000250: 4389 383b 7d8f 9d3a 177a 493b 0708 5c3b
00000260: ef8f 0a3b afcb 713b 829f 703b bc24 703a
00000270: f7f9 523a bfb7 c33b 4f45 c9bb 7e25 9fbb
00000280: f912 b738 f320 643b 7652 87bb 43d4 64bb
00000290: f4c6 cd3b 1568 afba 4c24 f5b9 521c 5a3b
000002a0: 8f4d a5ba 2d2c 493b 1bac 143b c398 ca3b
000002b0: 0331 96ba aec2 533b 649f 5bbb 8778 28bb
000002c0: 9362 643b f183 0c3b 2ad8 92ba 7890 923b
000002d0: ca7d a7bb 98a3 a53a 88df 9c3b f902 963b
000002e0: 4949 07b9 8004 883b 442a 5a3b 5741 853b
000002f0: 60da 3c3b 4327 7e3b 1528 993b 3073 913b
00000300: 19e7 3dbb e8ec 913b 2ed8 843a b18e aa39
00000310: c60f 29ba a91b ccba d337 6f3b d76c 8d38
00000320: b82c f33a 650d 873a 4703 b7bb 2409 183b
00000330: 7e43 6c3b 1502 b93a fb36 79bb 450c e1bb
00000340: 6bc7 d83a 784e beb9 e503 f3ba 74aa c7b9
00000350: b58f 003b 1420 0c3b 9a4d ab3a f7dd 713a
00000360: be51 c337 c834 e63a 5df6 b13a b108 85bb
00000370: 8501 393b bfc3 783b ca8d b6bb 2baa 8abb
00000380: 57e8 2abb 23ca 2abb 3ff2 57bb 56f3 c638
00000390: cf87 8a3b 6ca6 2dbb a5c5 663b ce56 5e3b
000003a0: 64aa 333b 8099 c6b6 30f6 313b 1eac 11bb
000003b0: ed7c c8b9 edf7 6639 a857 46bb 074e 843a
000003c0: e0ed dc3a dea1 b6bb d011 b1ba cfd4 2e3b
000003d0: 321d b1bb c5ef 73ba 01ce 8b3a 4854 273b
000003e0: 3787 e3ba 6926 9f3b 922f 3cba 9c2c af3a
000003f0: b21b 5238 48d4 5e3b ca25 303b e898 96bb
0.0038326303 0.0017126538 -0.008192501 -0.0007347516 -0.0025056626 0.006499294 0.0049815085 7.862728e-05
0.0060842787 -0.0033866172 0.0041435384 0.0046452363 0.004261638 -0.00015699922 0.0014701125 -0.001381835
0.0048359535 0.005075823 -0.0009550999 0.0036267946 0.0026578323 -0.00044551562 0.0046492144 0.008037046
0.0024174291 0.0062996913 0.0034994103 0.003247027 0.0005416786 0.0055319313 -0.0032578928 -0.004805548
-0.0008035437 0.003850295 -0.0012019464 -0.0024682498 0.0089264605 -0.0051348703 -0.001662398 0.0013057357
-0.0021594134 0.0050587333 0.0030212335 0.005628924 -0.002427213 0.0052265516 0.00082910946 -0.003015122
0.0021677087 0.0015661488 -0.0007034495 0.0020128647 -0.0031109033 -0.0014678715 0.004396381 0.004096433
0.0019521873 0.0013346928 0.0031754507 0.0011131474 0.0017211452 0.005491146 0.002544623 0.0054634376
0.0014642354 0.0015394989 0.0029659644 -0.00021748584 -0.0001506202 -0.0005285619 0.0009662211 -0.0011179871
-0.0045310073 0.0037516237 0.00068204314 0.0027375573 0.0020459406 -0.0015811255 -0.0027326243 -0.0015743527
0.0003027203 -0.0020096574 -5.0709772e-05 -0.00058480265 0.00072606764 0.005104744 -0.0023698506 -0.0012177237
-0.0005605198 -0.0022966103 -0.00054859504 -7.038254e-05 -8.9537636e-05 0.0036693453 -0.0025406964 -0.0019751731
-0.002435036 0.000855704 -0.00248366 0.0007317467 0.0012913488 0.0012594524 0.001537472 0.0016517846
0.0022997428 -0.0018674495 0.00057769736 -0.0040023085 -0.0028830306 -0.0038360476 -0.0046123615 0.0009304503
-0.002585323 -0.004396319 0.0012264563 0.00081963185 -0.0029594665 0.0029396727 -0.0016481547 -0.00062473555
-0.00096494914 0.0022382552 -0.000687982 -0.0055058156 0.0022393214 0.0025611364 0.0013970928 -0.0044667125
0.0010944005 0.0017244634 -0.0012722858 -0.00081800297 -0.0014115428 0.0025648875 0.0039488343 -0.0018860558
0.00022076606 -0.00043453716 -0.00046299046 0.002696924 0.005419378 -0.0014151628 0.0050517875 -0.004487878
0.0013169359 -0.0037494006 -0.00046111812 0.00053058023 0.0028157986 0.0012020912 0.0030742937 0.003357412
0.002114292 0.0036895087 0.0036716168 0.0009160747 0.0008048112 0.005972832 -0.0061422954 -0.0048567643
8.729654e-05 0.0034809678 -0.004129703 -0.0034916557 0.0062798206 -0.0013382459 -0.00046757085 0.003328104
-0.0012611615 0.0030696497 0.002268559 0.0061827614 -0.0011458698 0.0032312083 -0.0033511752 -0.0025706606
0.0034848794 0.0021440948 -0.0011203338 0.0044727884 -0.005111431 0.0012637256 0.004787389 0.004577991
-0.00012901904 0.004150927 0.0033289352 0.004066627 0.0028816685 0.0038780726 0.0046739676 0.0044387802
-0.0028976856 0.0044532903 0.0010135227 0.0003253124 -0.0006449189 -0.0015572208 0.003650178 6.743677e-05
0.0018552756 0.0010303674 -0.0055851075 0.0023198808 0.003605097 0.0014115 -0.0038027156 -0.0068679177
0.0016538923 -0.00036298088 -0.0018540589 -0.00038083235 0.0019616906 0.0021381425 0.0013069392 0.0009226496
2.3283876e-05 0.0017563337 0.001357745 -0.004059874 0.0028229665 0.003795847 -0.005571102 -0.0042317114
-0.0026078427 -0.0026060424 -0.0032950786 9.4867006e-05 0.0042276154 -0.00264969 0.003521302 0.0033926251
0.0027414793 -5.9187296e-06 0.0027154796 -0.0022227834 -0.0003824005 0.00022026869 -0.003026465 0.0010094055
0.001685556 -0.0055734953 -0.0013509337 0.0026677137 -0.0054050917 -0.0009305443 0.0010666252 0.0025532413
-0.0017359023 0.004856874 -0.00071787194 0.0013364735 5.0093695e-05 0.0034001041 0.0026877993 -0.0045958646

convs.2.bias f4 [64]
00000000: 18c5 9438 65df 8f38 1da4 25b8 80c2 24b6
00000010: 5c53 1eb8 6c1f 7139 9156 8737 39a4 05b8
00000020: fa34 2837 a0e9 0539 3bce 9a37 9373 3238
00000030: 1ad9 2337 afdf c8b8 4d3a f538 4914 cbb8
00000040: 7914 4c38 9ce7 d338 ea97 4d38 a36a 82b8
00000050: 8b3f 9b38 950a 26b9 fdc9 e437 487e 7eb7
00000060: e2b3 fa35 4a57 e937 0696 8f38 9567 8ab9
00000070: 5204 1939 6af1 c836 ac2e 6138 c289 9cb7
00000080: cac3 4eb7 ba94 9c38 b07a 88b7 a3d6 80b8
00000090: 8fac 63b6 528b 50b8 dfd9 1137 487b 8ab9
000000a0: aa6c c7b8 ccf1 1938 3d08 70b8 0a84 fd36
000000b0: a229 b138 1ad8 8838 45e5 87b7 0054 45b8
000000c0: e292 8d38 1b96 cf38 85fd f137 8d16 2bb6
000000d0: afd3 f737 aaae 1eb9 f117 8138 50bd 4638
000000e0: 3ec0 5a38 cea1 25b7 41ac 9439 62fe 2636
000000f0: 26c0 b0b8 6d03 9138 0180 80b7 dbe8 c337
7.0939015e-05 6.860382e-05 -3.9491908e-05 -2.4551118e-06 -3.774777e-05 0.00022995257 1.6133565e-05 -3.1862615e-05
1.0025915e-05 0.000127709 1.8454264e-05 4.2546144e-05 9.766105e-06 -9.5784075e-05 0.0001169337 -9.683573e-05
4.8656457e-05 0.00010104405 4.901729e-05 -6.218746e-05 7.402812e-05 -0.00015834936 2.7273776e-05 -1.5168982e-05
1.8678804e-06 2.7816412e-05 6.8467154e-05 -0.00026398586 0.00014592826 5.988569e-06 5.3687647e-05 -1.8660798e-05
-1.23241425e-05 7.466362e-05 -1.6269594e-05 -6.143495e-05 -3.3926078e-06 -4.9720817e-05 8.693401e-06 -0.00026413263
-9.5093e-05 3.6703233e-05 -5.722813e-05 7.555359e-06 8.4477724e-05 6.5252374e-05 -1.6200016e-05 -4.704669e-05
6.750763e-05 9.8984885e-05 2.8847493e-05 -2.5494112e-06 2.9543267e-05 -0.00015133122 6.155659e-05 4.738319e-05
5.215429e-05 -9.8724395e-06 0.000283571 2.4883998e-06 -8.4281244e-05 6.914777e-05 -1.5318396e-05 2.3354243e-05

convs.2.lin.weight f4 [512, 64]
00000000: 3feb 27bd 4721 5f3c 5def 5abc 8755 86bc
00000010: 9fc2 873c 023e bb3c 8048 d63b 1930 1a3d
00000020: b5b7 adbc 3e7d 2f3c 9209 0bbc d4e9 a13a
00000030: 55f9 a9bb 2cd9 0d3c c80f fc3c 8f6e 3c3a
00000040: 1112 26bc 38e9 de3b 9e32 2a39 d7b4 c6bc
00000050: 3853 d2bc 802d 3a3b 1241 2d3c 1131 393b
00000060: ff66 12bc ff12 76bc 97ec 41bc db02 89bc
00000070: a57d a1bb d401 603d 6067 8fbc d6c2 7e3b
00000080: da5d ea3b 58ef 1abb e9af 01bd 2b4d 1b3c
00000090: 5ebf abbc e3a5 303c 9393 423c a35b adbb
000000a0: 5423 1f3b afe7 04bc decf 34b9 a23a 3e3c
000000b0: d2c4 4abb e96e 99bc 1041 ca3b 5760 433c
000000c0: 701e c239 00d6 1dbd 6c8b 48bc 84eb 02bc
000000d0: f067 113b 23e5 86bc de3b 8ebb 1ac2 acbc
000000e0: ca92 8d3b 03b4 77ba 763d da3b 2d2a 74bc
000000f0: 7604 c83c 4730 dc3b 5095 933c 072e a73b
00000100: fe04 043c f18a 6e3a 8daf 753a 8be2 8eba
00000110: 8142 3f3b 5512 a53a 0d65 663a 5950 4d3b
00000120: 38ac 46b9 bf94 943a 1217 27ba fd4b 8b38
00000130: e82b ea3a 327c a3b9 5fbb c83a 4f3e ef3b
00000140: 44ac 9f3a 0d6b 7b3b 92a2 e5ba a509 293a
00000150: c272 243a 1151 9138 283b 083b d7c2 81bb
00000160: af79 793b e5e4 bf3a 0539 0bba 179b ff3b
00000170: e889 8bba ee33 643b 1871 2a3b e0e5 333b
00000180: 7bd2 ad3a 44a2 503b 868b 14ba 87f6 feba
00000190: dd6f dc39 372d 4e3b b52a a33b 2f03 d33a
000001a0: 7670 df3b 4a06 11ba b7e7 1bba de25 5dba
000001b0: c486 01bb 435d a8ba bec1 1abb cbf5 9dbb
000001c0: 7e61 9bbb 4775 f83a 9b73 76ba 239d fcba
000001d0: 16b4 eb3b db42 753b 9cd1 c4ba abcb 86ba
000001e0: d8e6 8b3a bea1 33bb 666a f93a 608e 2fbb
000001f0: 1806 71b9 25cb c5ba 9abb 053b 9518 c0bb
00000200: 07c5 f1bb 7617 89bb ca54 0f3b 854a 3c3b
00000210: 82df edba 4bfe 8dbb 4176 67bb b202 8dba
00000220: aec6 9b3b 6e67 38bb 5898 0f3b c083 dbba
00000230: e35a e13a 9a42 70b9 87c1 a9bb 741b 8fbb
00000240: 94e7 d53a c62a adbb ff21 43ba b54d 06bb
00000250: 1955 163a c2ea 563a 75cd 09bb 95a1 313b
00000260: 6dea f6ba 5999 313b c146 4c3b 6688 0d3b
00000270: 5d18 513a 487a e1b9 7bee 703b 8fe2 25bb
00000280: 37d3 a8ba bfa8 a4b9 d67e 843b dd32 573a
00000290: ad76 b33b b203 45bb 37f9 98bb 9215 ca39
000002a0: c55f 22bb f8ce 9b3b 979c 733b 009a 19bb
000002b0: 9b4c 213a 4d2b 61ba 05a0 793a b1f6 cbbb
000002c0: 2df8 da3b 82a6 063a ef57 343b d722 543b
000002d0: 3be1 84ba 6db4 163b 47b1 943b 0b0f 4a3b
000002e0: a6f4 2e3b 6d0f 713b 2aba 523a a891 b93b
000002f0: c939 bcbb ed07 4e3b 079c abba 5173 943b
00000300: 8d55 90bc 12d0 273a ffa3 cd3b 5c92 993a
00000310: 78a3 87ba f19b 5cba 4158 723a 5ea4 c5bb
00000320: 9504 06bb f926 803a 2e2c 2dbb 00e0 843a
00000330: 78b4 7fba 7115 3a3b 77e8 af3b 6cbf 513c
00000340: bdeb 763b c310 153b 4f2b 1e3a 24df 493b
00000350: 4f59 1dbc 1f62 50bb 6274 873b 68cb 3a3a
00000360: b46d 44bb cbab 773a 6156 273b 4058 cbbb
00000370: dd4f 963a 4b41 533b a988 0dbc 7b7f 0d39
00000380: 5e0b ca3a 264b 69bb 4cff 623c fd55 e9b9
00000390: eca4 65ba 2b18 1c3b f3d0 85b9 7786 98ba
000003a0: bf05 463c fd4e 08bb 5623 5eb9 a71a 683b
000003b0: 9a9a c7b9 4404 3cbb a174 35bb 3733 633b
000003c0: 6c40 81bb 8b53 193b c0cc 1fbb e752 3e3a
000003d0: d9e4 a43b 9dd2 0cbc ad19 33bb f23c 823a
000003e0: b3f7 2d3a 08aa 94ba 8a2d 28ba 7077 dc38
000003f0: 92c6 aeba 7d40 23bb 1113 20ba 525e df39
-0.040995833 0.013618774 -0.013362733 -0.016398204 0.016572295 0.022856716 0.0065394044 0.037643526
-0.021205762 0.010711012 -0.008486168 0.0012353011 -0.0051871934 0.008657735 0.030769244 0.00071881054
-0.010136143 0.006802704 0.0001623132 -0.024256153 -0.025674447 0.0028408468 0.010574596 0.0028258006
-0.008935689 -0.015019177 -0.011836193 -0.016724994 -0.004928308 0.054689243 -0.017505348 0.0038873455
0.0071523013 -0.0023641195 -0.0316619 0.0094788475 -0.020965274 0.010781738 0.011876005 -0.005290465
0.0024282532 -0.008111878 -0.00017243574 0.011610659 -0.0030940068 -0.018729644 0.006172307 0.011924825
0.0003702524 -0.038534164 -0.012240272 -0.007990722 0.0022187196 -0.016466683 -0.004340633 -0.021088649
0.004320477 -0.0009449126 0.0066601587 -0.014902634 0.02441619 0.0067196223 0.018015534 0.0051019224
0.008057831 0.00090996834 0.00093721674 -0.0010901255 0.0029183927 0.0012593964 0.00087888615 0.0031328409
-0.00018946908 0.0011335834 -0.0006373982 6.6421904e-05 0.0017865868 -0.00031182315 0.001531463 0.007301129
0.0012182076 0.0038363368 -0.0017519763 0.00064482755 0.0006273204 6.9292386e-05 0.0020787213 -0.0039599943
0.0038066914 0.001464036 -0.0005310926 0.0078004706 -0.0010645958 0.0034820992 0.002600735 0.0027450249
0.0013261581 0.0031835 -0.00056665426 -0.0019452133 0.00042045015 0.0031460056 0.0049794563 0.0016098971
0.0068188263 -0.0005532248 -0.0005947309 -0.00084361236 -0.0019764164 -0.0012845177 -0.0023614014 -0.0048205606
-0.0047418466 0.001895585 -0.0009401382 -0.0019272905 0.007193099 0.0037423882 -0.0015016082 -0.0010284086
0.0010673655 -0.0027409638 0.0019028902 -0.0026787743 -0.00022985821 -0.0015090449 0.0020406009 -0.0058623054
-0.007378224 -0.004183705 0.0021870607 0.002873094 -0.0018148276 -0.0043332926 -0.0035318288 -0.001075825
0.004753909 -0.002813782 0.0021910872 -0.0016747639 0.0017193224 -0.00022912995 -0.005180541 -0.0043672863
0.0016319626 -0.00528464 -0.00074437255 -0.0020493094 0.00057347264 0.0008198434 -0.0021027003 0.0027104367
-0.0018838175 0.002709946 0.0031170102 0.0021596192 0.00079763477 -0.0004300645 0.003676324 -0.0025312041
-0.001288033 -0.00031406243 0.0040434403 0.00082091783 0.0054767937 -0.0030062017 -0.0046683806 0.00038544514
-0.0024776321 0.004754897 0.0037172192 -0.0023437738 0.00061530777 -0.0008589521 0.0009522441 -0.0062244763
0.006682417 0.0005136506 0.0027518233 0.00323694 -0.0010137925 0.0022995726 0.0045377347 0.003083172
0.0026696115 0.0036782876 0.0008038605 0.0056631155 -0.005744193 0.003143783 -0.0013092764 0.0045303483
-0.017618919 0.00064015493 0.0062756534 0.0011716592 -0.00103484 -0.0008415571 0.0009244718 -0.006031557
-0.0020449508 0.000977724 -0.0026424038 0.0010137558 -0.000975437 0.0028394128 0.005368288 0.012801986
0.0037677132 0.0022745586 0.0006033675 0.0030803168 -0.009603812 -0.0031796766 0.004133747 0.0007125647
-0.0029972615 0.00094479014 0.0025533664 -0.0062055886 0.0011467893 0.0032234963 -0.008638539 0.00013494298
0.0015414765 -0.003559777 0.013854813 -0.0004450529 -0.0008760232 0.0023818116 -0.00025523416 -0.0011636753
0.012086331 -0.0020799034 -0.00021184733 0.0035416277 -0.00038071425 -0.0028689066 -0.0027687924 0.0034667978
-0.0039444473 0.0023395743 -0.0024383515 0.0007260278 0.0050321636 -0.008595136 -0.0027328536 0.0009936376
0.00066363363 -0.0011342177 -0.0006415477 0.000105126644 -0.0013334325 -0.0024910264 -0.0006106357 0.0004260415

batch_norms.0.weight f4 [64]
00000000: bafa 663f 6106 863d 1ea3 f33d ce65 153e
00000010: 259c de3d ec66 b73d 2e0a ac3d 381d 8e3e
00000020: 1678 273e 469d a43d 49c2 013e 3483 2d3d
00000030: 8395 d93d 3160 a13d e8e9 eb3d 007d 2b3f
00000040: 1810 c83d ea2c 053e b7a8 d73c 334d 4d3e
00000050: 7761 b03e 7de1 0f3d e9dd 7a3d 12d4 bd3d
00000060: 0cf7 853e 7013 543e 5e10 b63d 650c 383f
00000070: 75c3 3cbb 8b34 3e3e 7f09 3a3e 438e 183e
00000080: 05fc 623d b64b 293e c3bb 023f cb43 953d
00000090: ff76 303e 2d1f 3e3e ef72 dd3d 9216 8d3d
000000a0: 3a9d 3b3f 1bf1 d53d 9f00 573d 4a6e 303d
000000b0: cd07 8c3d aff5 5e3e 975d 363d 7029 323f
000000c0: 9ead 8a3d 10a4 2b3e 84f5 3b3d 9a88 8e3e
000000d0: 8741 0a3e ca3e 653e 2341 b03d 4d89 273e
000000e0: 98a1 673e dc57 bc3d 6478 503e 797a 083e
000000f0: 48b9 ee3e a704 af3d 5a45 883e 5c62 b83d
0.9022633 0.065441854 0.118963465 0.14589617 0.10869626 0.08955178 0.08400379 0.27756667
0.16354403 0.0803781 0.1267177 0.042361453 0.1062422 0.07879675 0.115192235 0.6698761
0.09768695 0.13005415 0.026325567 0.2004898 0.3444936 0.03512715 0.061246786 0.09268965
0.26165044 0.2071054 0.088898405 0.7189391 -0.0028803025 0.18574731 0.18167685 0.14898019
0.055416126 0.16532788 0.5106775 0.07288321 0.17232893 0.1856658 0.108129375 0.068890706
0.73286784 0.10446378 0.052490827 0.04307393 0.068374254 0.21773408 0.044522848 0.6959448
0.06771396 0.16761804 0.04588844 0.27838594 0.13501559 0.22387233 0.08606174 0.1636097
0.22620237 0.09196445 0.20358425 0.1332797 0.46625733 0.08545809 0.2661541 0.090031356

batch_norms.0.bias f4 [64]
00000000: c7a8 0c3e bc5c 57bd 23c9 5ebd 8f6b 5fbd
00000010: fe47 293c d0e2 a7bd 6bb4 74bd 74f9 04be
00000020: 41b0 a7bd ba57 51bd cf8c 51bc 75a2 63bd
00000030: 6b3e 83bd 72eb 8cbd c333 efbd b13b 093e
00000040: d4e3 5bbd f786 debd c372 5ebd 6c3e 16be
00000050: f19b c3bd 7dd7 373d e5ea 8bbd a8b9 9fbd
00000060: 526a cabc 318e e3bd 9e8a 5dbd a9a0 133d
00000070: c88c 52bd 88ab f5bd da58 abba 17c6 02be
00000080: 74ca 55bd 0180 a3bd 5deb 92be 8191 95bd
00000090: 0e9f 17bd a886 07be 0d51 bbbd 759a 75bd
000000a0: ea76 b63d f523 b6bd 7d87 9a3d fcfe 63bd
000000b0: 5877 7fbd db3b d5bd 854d 623d 4058 293d
000000c0: 3a3c 99bd 5bee a3bd ce87 85bd 3182 37bd
000000d0: 8e5c 95bd 1592 593d c6c8 80bd ecef b3bd
000000e0: a45d debd 3e15 75bd 5350 9abd d1c7 95bd
000000f0: c82a 183c c184 43bd 4a27 acbd ce93 88bd
0.13736258 -0.052578673 -0.054391038 -0.054545935 0.010332106 -0.08197558 -0.059742372 -0.12985784
-0.08187915 -0.051109053 -0.012789919 -0.055574853 -0.0640839 -0.06880845 -0.11679795 0.13401677
-0.05368407 -0.10865586 -0.054308664 -0.1467225 -0.09551228 0.04488324 -0.06831912 -0.07799083
-0.0247089 -0.11111105 -0.054087274 0.03604189 -0.05140379 -0.119956076 -0.0013072744 -0.12770878
-0.052195027 -0.07983399 -0.28695193 -0.07303143 -0.03701692 -0.13234961 -0.091463186 -0.059961755
0.089094 -0.08893577 0.075453736 -0.055663094 -0.062369674 -0.10411807 0.05524971 0.041343927
-0.074821904 -0.08004447 -0.06520043 -0.044801895 -0.07293044 0.05311783 -0.062882945 -0.08785996
-0.10857704 -0.05983471 -0.07534852 -0.073135026 0.009287544 -0.047734026 -0.08405931 -0.066688165

batch_norms.0.running_mean f4 [64]
00000000: d43d 8fbd 1e2a dc3b 8820 79bc f54f 8fbc
00000010: a6fc 65bc 8502 2f3c dad2 ed3b e95e 70bb
00000020: a792 83bc 9b51 d93b 3247 93bc 45e5 8c3b
00000030: 4dc9 2ebc 0bd2 b03b d84d 4b3c c439 cebc
00000040: 7105 17bc 4dbe 203c 5bae 16bb 8af1 493c
00000050: bff0 143b c5df b7bb 20f0 de3b 3c42 b9bb
00000060: be51 983b f59a 92bc 3038 46bc df85 13bd
00000070: a542 a6bb bc51 813c abe6 32bb 0370 293c
00000080: ddaa 6a3b 694f 4ebc a2e4 493d e40e bbbb
00000090: 15f6 adbc 2b06 7e3b d28f 193c 35cb 12bb
000000a0: cf29 39bc 109c 9fbb 940c 9b3b 3ef7 5f3c
000000b0: 7f9b 77bb 5d8e edbc 02b0 2b39 249a 3a3d
000000c0: 8067 8fbb e5c0 0ebc ecef 90bb ceb9 f1bc
000000d0: 9a16 143b b056 aabb 5c45 01bc 567e aebc
000000e0: e606 75bc 949c d8bb 9fc4 5fbc 2bb4 74bc
000000f0: dbf9 f039 734f 84bb fd73 e4bb baff cebb
-0.06994215 0.006718888 -0.01520551 -0.017494181 -0.014037287 0.010681753 0.0072578015 -0.0036677665
-0.01606114 0.0066320426 -0.017978285 0.004299792 -0.010668111 0.005396133 0.012408696 -0.02517403
-0.009217606 0.009810996 -0.0022992108 0.012325654 0.0022726504 -0.005611392 0.0068035275 -0.0056536477
0.0046484163 -0.017896155 -0.012098357 -0.03601634 -0.0050738626 0.015786044 -0.0027298133 0.010341647
0.003580741 -0.012592175 0.049290307 -0.005708562 -0.021235505 0.0038761 0.009372668 -0.0022398953
-0.011301472 -0.004870899 0.004731724 0.013669787 -0.0037781892 -0.028998548 0.00016373399 0.045557156
-0.004376352 -0.008712982 -0.004423132 -0.029507544 0.002259648 -0.0051983222 -0.007890072 -0.021300476
-0.014955258 -0.0066104624 -0.013657718 -0.0149355335 0.00045962524 -0.0040377914 -0.0069718347 -0.006317106
