mon_nouveau_modele.pt (torch, 806348 bytes, 80 tensors)

convs.0.att_src f4 [1, 8, 8]
0.0038909097 0.0016891436 0.0026220698 0.002917218 -0.00893118 0.001980887 -0.0037347774 0.007186738
0.0034677316 -0.005388392 0.0042449753 -0.003549831 0.0064896634 -0.0070555345 -0.0036412093 0.0009999226
0.0030078026 -0.006789176 0.003231662 -0.0003161874 0.0007410813 0.004286939 -0.005665069 0.004599511
0.002273187 0.0035611077 0.00036762963 -0.00066718267 -4.189429e-05 -0.0008058427 -0.0038086758 -0.0006547507
-0.007920923 0.012929341 -0.05293323 0.012918428 0.004738722 0.0007108156 -0.016625265 0.0049240203
0.13464276 0.007352671 -0.05191029 -0.10703326 0.026778372 0.2654872 -0.011616302 -0.1400141
0.0052808463 0.0045549273 0.0037824772 0.0013752626 -0.0045370352 0.005783566 0.004507313 0.003993818
0.0050891703 0.004098315 0.005476773 0.0047555305 -0.0010369344 0.0042550676 0.0045219385 0.0050269286
00000000: a2fe 7e3b 4166 dd3a 08d7 2b3b cc2e 3f3b
00000010: 1654 12bc c5d1 013b 2bc3 74bb ba7e eb3b
00000020: e242 633b 1c91 b0bb 6f19 8b3b 48a4 68bb
00000030: 3ea7 d43b 1d32 e7bb 5ba1 6ebb d60f 833a
00000040: 8e1e 453b bc77 debb 4bca 533b f4c5 a5b9
00000050: 2045 423a 7379 8c3b 0ba2 b9bb 7fb7 963b
00000060: c0f9 143b 7961 693b 6abe c039 dfe5 2eba
00000070: a7b7 2fb8 303f 53ba fa9a 79bb 93a3 2bba
00000080: c2c6 01bc 96d5 533c 84d0 58bd d0a7 533c
00000090: 4847 9b3b 0756 3a3a b531 88bc ad59 a13b
000000a0: cbdf 093e adee f03b e29f 54bd 4134 dbbd
000000b0: 515e db3c f0ed 873e 4d52 3ebc db5f 0fbe
000000c0: f30a ad3b 8041 953b 70e3 773b 2842 b43a
000000d0: 69ab 94bb 1184 bd3b 15b2 933b 93de 823b
000000e0: 0ec3 a63b 284b 863b 8076 b33b 48d4 9b3b
000000f0: bfe9 87ba 186e 8b3b c52c 943b efb8 a43b

convs.0.att_dst f4 [1, 8, 8]
-0.0073859384 0.0034152735 -0.003209083 -0.0046718926 0.005087138 0.0033386345 0.004974898 -0.008820088
0.0049488996 -0.003216594 0.0034714446 -0.0035883859 0.0021766697 -0.002980494 -0.0058741495 -0.0012565692
-0.0010582109 0.003256633 0.0009515781 -0.0037186428 -0.00429068 0.003217527 0.0007620151 0.00036620992
-0.0057554683 0.000121275814 0.004504597 -0.0029278747 0.0015216728 -0.0044387314 0.010092045 -0.0061727255
-0.0036391157 -0.006469666 -0.014254688 -0.007833783 -0.0055246013 0.01373154 0.004278814 -0.0025362743
0.060150344 -0.012633377 0.064503156 0.15130858 -0.03244773 -0.3230163 0.009318808 -0.018358517
-0.0038486032 -0.0035209672 -0.0035004774 -0.004019323 0.002904807 -0.0050479854 -0.0034710458 -0.003821688
-0.002429135 -0.0021730794 -0.00096401287 -0.0025558192 -0.0010998382 -0.0018373732 -0.0013518805 -0.0006927236
00000000: be05 f2bb c8d2 5f3b 7b4f 52bb ad16 99bb
00000010: 02b2 a63b fecc 5a3b 7804 a33b 2182 10bc
00000020: 612a a23b 7ecd 52bb 2d81 633b 202b 6bbb
00000030: 75a6 0e3b 6454 43bb f07b c0bb 77b3 a4ba
00000040: aab3 8aba 3c6d 553b 5373 793a 79b4 73bb
00000050: d598 8cbb 25dd 523b f8c1 473a ddff bf39
00000060: 5e98 bcbb 7555 fe38 4c9b 933b 96e1 3fbb
00000070: de72 c73a c772 91bb 1b59 253c 9344 cabb
00000080: 3b7e 6ebb 7eff d3bb 7f8c 69bc 4459 00bc
00000090: b707 b5bb 41fa 603c 4b35 8c3b 9f37 26bb
000000a0: 3560 763d 39fc 4ebc 3b1a 843d a3f0 1a3e
000000b0: e9e7 04bd 6462 a5be eaad 183c 9a64 96bc
000000c0: d938 7cbb 07c0 66bb 4468 65bb 86b4 83bb
000000d0: 935e 3e3b 9269 a5bb 7c7a 63bb 4975 7abb
000000e0: 1f32 1fbb 396a 0ebb cfb5 7cba 887f 27bb
000000f0: 7228 90ba 04d4 f0ba 9531 b1ba e597 35ba

convs.0.bias f4 [64]
-8.582053e-05 4.9840328e-05 -3.366713e-05 -3.300626e-05 3.7899015e-06 1.6314134e-05 7.359909e-05 -8.231792e-06
2.042084e-05 0.000107191525 -8.540471e-07 3.2449985e-05 4.163078e-05 4.945887e-05 8.917316e-06 -4.589805e-05
1.8134733e-05 2.0889345e-05 5.3166583e-05 -2.0150177e-05 3.212511e-05 -3.9301784e-05 2.7074773e-05 7.469021e-05
5.6256322e-05 -7.403503e-05 1.6368956e-05 1.2991981e-05 -1.5613477e-06 -3.749219e-05 -0.00013733072 2.9991785e-05
-5.2232313e-05 -3.1245574e-05 -3.6929636e-05 -1.6818272e-05 3.662007e-05 1.9709985e-05 4.2937976e-05 -0.00021155186
3.871197e-05 2.961441e-05 1.2504634e-05 -3.02088e-06 -5.51911e-05 9.044794e-06 -6.220648e-05 3.149622e-05
-1.3517484e-06 2.4104156e-05 -6.0893553e-06 -4.99588e-06 4.1445306e-05 -0.00010658735 5.0975013e-06 1.3989951e-05
3.6429599e-06 -9.1024864e-05 1.554109e-06 7.0358196e-06 -1.8883742e-05 -0.00017738603 -2.5717736e-05 -8.974341e-07
00000000: 8cfa b3b8 a50b 5138 ce35 0db8 3470 0ab8
00000010: 0356 7e36 56da 8837 3659 9a38 471b 0ab7
00000020: 6c4d ab37 03cc e038 ab41 65b5 e81a 0838
00000030: b69c 2e38 0f72 4f38 959b 1537 a882 40b8
00000040: 0b20 9837 873b af37 2fff 5e38 2d08 a9b7
00000050: 13be 0638 f8d7 24b8 a21e e337 00a3 9c38
00000060: c4f4 6b38 4143 9bb8 1150 8937 22f8 5937
00000070: 808f d1b5 ef40 1db8 6f00 10b9 de96 fb37
00000080: 0514 5bb8 ae0d 03b8 e5e4 1ab8 f714 8db7
00000090: 8098 1938 df56 a537 4d18 3438 05d4 5db9
000000a0: a95e 2238 766c f837 feca 5137 53ba 4ab6
000000b0: fe7c 67b8 18bf 1737 da74 82b8 cf1a 0438
000000c0: b96d b5b5 4833 ca37 2a53 ccb6 48a2 a7b6
000000d0: 8fd5 2d38 a687 dfb8 340b ab36 62b6 6a37
000000e0: 9379 7436 9ae4 beb8 c796 d035 3b15 ec36
000000f0: 8768 9eb7 b300 3ab9 6bbc d7b7 34e7 70b5

convs.0.lin.weight f4 [64, 7]
-0.008311687 0.18049055 0.6449032 -0.1423273 -0.07711862 -0.022242708 -0.14138673 0.0009002503
0.011103733 0.009516285 0.0037568635 0.0105822375 0.010152519 0.019061947 -0.015999982 -0.017468851
-0.0019073022 -0.014975117 -0.031859826 -0.010397624 -0.028820304 -0.0009237499 -0.009734667 0.01077559
-0.027367769 -0.028514031 -0.01753932 -0.040839944 0.015454415 -0.121279165 -0.109900296 0.00013248691
-0.074429125 0.0015883256 0.0017703228 5.5662244e-05 0.018313939 0.01770225 0.014347358 0.015523066
0.01527314 0.023876052 0.012256576 0.006045501 -0.004585973 0.006793908 0.0045195487 0.006577226
0.016167525 0.012420688 0.0606635 0.19922557 -0.019807275 0.039270274 0.00400166 -0.019881522
-0.0077929148 -0.02737654 -0.04726366 -0.011325545 -0.059026007 -0.015814645 -0.037351966 0.004890505
0.00757877 -0.012482615 0.008534112 0.0025104708 0.005234549 0.014108454 -0.006717313 -0.0030025009
0.012110116 -0.025701651 -0.043981634 -0.011646288 -0.044720642 0.013053622 0.00786641 0.006374139
0.0028941059 0.002483488 0.002252601 0.007454336 -0.028296705 -0.013101444 -0.0016409308 -0.005965266
-0.021353848 -0.0054015736 -0.017865617 0.02749546 0.016005289 0.02442788 0.0032061867 0.0058353855
0.0019694718 0.0066265683 0.0013142453 0.035892855 0.03785601 0.009555736 0.028965568 0.016783442
0.025906328 -0.0032968356 0.1868659 0.56016433 -0.053142395 -0.001744889 0.0146604795 -0.058105763
-0.0068360274 -0.008921317 0.0051453193 -0.011799858 -0.014248457 -0.012123929 -0.020332916 0.025053902
0.029109066 0.026871921 0.0066243885 0.009705038 0.011250156 0.0141444 -0.01905419 0.002775324
0.008563439 -9.013397e-06 0.002103428 0.002860793 -0.00023444004 -0.0022531636 -0.09401752 -0.22412983
0.026292535 0.011538691 -0.0067149135 0.04599889 -0.010055894 0.013298515 -0.24505827 0.015066683
-0.0888802 -0.017647171 -0.020956703 -0.019064909 -0.0028860716 0.0014365533 -0.008021137 0.0006841347
-0.0065288036 -0.006563896 0.016515685 0.011637773 0.016667863 0.007989745 0.007897641 0.0096176425
0.0115641905 -0.021340346 -0.0032619114 0.0009515838 -0.008000728 -0.00028341604 -0.007310495 -0.0077698776
0.0103493165 0.037493873 0.04261627 -0.0011598858 -0.0059095435 0.007354518 0.010412347 -0.031801954
-0.02030561 0.059890274 -0.011364727 -0.01339458 -0.0082631735 -0.028983453 -0.0055838847 -0.007993277
-0.001193163 -0.019562328 -0.020700896 -0.014264573 -0.029236423 -0.005280126 0.17581616 0.5031398
-0.09050984 0.004536585 -0.0016022747 -0.09001707 -0.018371234 -0.005844302 -0.009561751 -0.004129967
-0.0046493146 -0.006882901 -0.00615807 0.0129424045 0.042466253 0.05315407 0.010378864 0.056930408
0.012676237 0.025603974 0.029507192 -0.011518296 -0.019229475 -0.008459078 -0.022969149 -0.0048451857
-0.014147148 0.013598669 0.029639278 0.043825265 0.00982325 0.021716202 0.014792651 0.019382821
0.0004950257 0.006731175 0.0125034405 0.008333847 0.0012396516 0.006862614 0.008751868 -0.026962064
-0.011388834 0.008846173 -0.007047903 -0.031858806 -0.0016995366 -0.026390668 -0.0003880024 -0.033663817
-0.51255894 0.039198946 0.0927522 -0.019855803 0.104957774 -0.027407505 -0.0018162079 0.00069209834
-0.0024566022 -0.0038838633 -0.0036037287 -0.004975145 -0.0107170595 -0.0287732 -0.05884749 -0.014987717
00000000: be2d 08bc 84d2 383e 6018 253f 3fbe 11be
00000010: 5ef0 9dbd 5736 b6bc afc7 10be c6fe 6b3a
00000020: 6fec 353c 31ea 1b3c b635 763b 1f61 2d3c
00000030: c056 263c cd27 9c3c 6512 83bc d61a 8fbc
00000040: 71fe f9ba 315a 75bc 737f 02bd cc5a 2abc
00000050: 8f18 ecbc ce27 72ba 277e 1fbc 1a8c 303c
00000060: 5f32 e0bc 4296 e9bc 9fae 8fbc c947 27bd
00000070: 8434 7d3c 3661 f8bd 6813 e1bd 2fec 0a39
00000080: 4c6e 98bd 5d2f d03a 2d0a e83a e176 6938
00000090: 1d07 963c 4f04 913c 2e11 6b3c 7554 7e3c
000000a0: 313c 7a3c b697 c33c cecf 483c 5719 c63b
000000b0: ee45 96bb 6e9f de3b b918 943b c585 d73b
000000c0: c271 843c 2480 4b3c 4a7a 783d ca01 4c3e
000000d0: de42 a2bc ded9 203d 5b20 833b 93de a2bc
000000e0: b55b ffbb c444 e0bc 8a97 41bd c78e 39bc
000000f0: 41c5 71bd b78d 81bc 60fe 18bd 8840 a03b
00000100: 5557 f83b e283 4cbc a9d2 0b3c b686 243b
00000110: 9486 ab3b 2527 673c e81c dcbb 9bc5 44bb
00000120: 8269 463c 458c d2bc 1626 34bd 13d0 3ebc
00000130: fe2c 37bd dcde 553c 1de2 003c 27de d03b
00000140: 0aab 3d3b 04c2 223b 60a0 133b 8143 f43b
00000150: 7ece e7bc 70a7 56bc 8014 d7ba 4778 c3bb
00000160: 44ee aebc afff b0bb ea5a 92bc 293e e13c
00000170: 861d 833c fa1c c83c e31e 523b c336 bf3b
00000180: 4112 013b af23 d93b c142 ac3a 6304 133d
00000190: e70e 1b3d a98f 1c3c 3349 ed3c 6e7d 893c
000001a0: 8239 d43c b90f 58bb c659 3f3e ee66 0f3f
000001b0: d7ab 59bd c2b4 e4ba 8232 703c 4f00 6ebd
000001c0: c100 e0bb b72a 12bc 119a a83b 3154 41bc
000001d0: 5c72 69bc 72a3 46bc 3791 a6bc d73d cd3c
000001e0: 2376 ee3c 8122 dc3c 6611 d93b e101 1f3c
000001f0: 9352 383c eabd 673c 8817 9cbc 36e2 353b
00000200: ab4d 0c3c 3f38 17b7 aad9 093b 247c 3b3b
00000210: 05d4 75b9 d0a9 13bb 428c c0bd 4a82 65be
00000220: 7163 d73c c70c 3d3c c708 dcbb 5569 3c3d
00000230: 7ac1 24bc 04e2 593c 8ef0 7abe 40da 763c
00000240: d306 b6bd cd90 90bc 64ad abbc 032e 9cbc
00000250: 3f24 3dbb bb4a bc3a 166b 03bc 8157 333a
00000260: 93ef d5bb f315 d7bb e74b 873c 5cac 3e3c
00000270: 0b8b 883c 6be7 023c 1b65 013c 5193 1d3c
00000280: bb77 3d3c f3d1 aebc cbc5 55bb b573 793a
00000290: 7c15 03bc 7597 94b9 e08c efbb 759a febb
000002a0: 2e90 293c 2d93 193d 668e 2e3d 4f07 98ba
000002b0: d8a4 c1bb 2bfe f03b 8c98 2a3c c442 02bd
000002c0: f357 a6bc 814f 753d 1f33 3abc f174 5bbc
000002d0: 4362 07bc b56e edbc 05f9 b6bb 3cf6 02bc
000002e0: e863 9cba 2d41 a0bc ed94 a9bc f5b5 69bc
000002f0: 3981 efbc e804 adbb 2709 343e c5cd 003f
00000300: 395d b9bd a2a7 943b 6b03 d2ba df5a b8bd
00000310: 457f 96bc 8f81 bfbb e4a8 1cbc ad54 87bb
00000320: 4759 98bb f589 e1bb a3c9 c9bb 610c 543c
00000330: 18f1 2d3d 15b8 593d 1c0c 2a3c dc2f 693d
00000340: feaf 4f3c 6dbf d13c 11b9 f13c 3cb7 3cbc
00000350: 2287 9dbc f297 0abc cc29 bcbc 5dc4 9ebb
00000360: 70c9 67bc f4cc 5e3c 12ce f23c 1f82 333d
00000370: b2f1 203c 2de6 b13c e05c 723c b9c8 9e3c
00000380: 9dc4 013a 3091 dc3b 3bdb 4c3c b08a 083c
00000390: ce7b a23a c7df e03b ff63 0f3c 8cdf dcbc
000003a0: 3b98 3abc 8aef 103c 18f2 e6bb 617e 02bd
000003b0: fcc2 deba 3e31 d8bc cd6c cbb9 12e3 09bd
000003c0: 1037 03bf 138f 203d def4 bd3d a3a8 a2bc
000003d0: 1af4 d63d b485 e0bc d30d eeba ef6d 353a
000003e0: f2fe 20bb 6a88 7ebb 892c 6cbb 8b06 a3bb
000003f0: 9b96 2fbc c6b5 ebbc 110a 71bd 0b8f 75bc

convs.1.att_src f4 [1, 8, 8]
0.025638541 0.0027495811 0.0042543383 0.0013717088 0.00011509436 0.0069755865 -0.011032647 -0.008296121
0.0039037864 -7.052467e-05 0.004951411 -0.005716482 0.004274656 0.004151255 -0.008701017 -0.0020048977
0.012225419 -0.005855499 0.012478381 0.012195131 -0.011582191 0.013970272 0.00078832585 0.010316479
0.0353402 0.0053432756 0.005780042 0.006025927 0.005296175 -0.020918231 0.03713681 -0.003417987
-0.0129103195 0.008957284 0.00927189 -0.012437523 0.009027119 -0.0086795045 -0.006678582 0.012248452
-0.012575818 -0.0022935309 -0.0015586732 -0.00028993833 -0.004467378 0.0023449413 0.0042361193 0.002684983
-0.0029488986 -0.0015897864 0.0035781774 -0.002406307 -0.0013194077 0.0005748839 -0.0021514618 -0.0029583317
-0.0046661417 0.0040759663 -0.006028372 0.0026269215 -0.008069875 0.0039491076 -0.010673581 0.0049016667
00000000: eb07 d23c 5132 343b fa67 8b3b e9ca b33a
00000010: d05e f138 7693 e43b 47c2 34bc 74ec 07bc
00000020: abd6 7f3b a5e6 93b8 723f a23b 5451 bbbb
00000030: 6a12 8c3b 4007 883b b68e 0ebc 9a64 03bb
00000040: 204d 483c 7cdf bfbb 2072 4c3c 16ce 473c
00000050: 3bc3 3dbc 91e3 643c a7a7 4e3a 7306 293c
00000060: e3c0 103d a516 af3b 8266 bd3b 2475 c53b
00000070: 898b ad3b b65c abbc c51c 183d 4e00 60bb
00000080: ce85 53bc 92c1 123c 20e9 173c c1c6 4bbc
00000090: 7be6 133c 7b34 0ebc 02d8 dabb bbad 483c
000000a0: ce0a 4ebc 104f 16bb 654c ccba dd02 98b9
000000b0: 1563 92bb 96ad 193b 25cf 8a3b 8af6 2f3b
000000c0: 4f42 41bb 6160 d0ba db7f 6a3b 22b3 1dbb
000000d0: faef acba ceb3 163a 8aff 0cbb 92e0 41bb
000000e0: 6fe6 98bb af8f 853b a689 c5bb 6e28 2c3b
000000f0: 8237 04bc 8467 813b 3ee0 2ebc 299e a03b

convs.1.att_dst f4 [1, 8, 8]
-0.006553475 0.005749232 -0.0011517598 -0.0027966187 0.0035554692 0.008912748 -0.005732624 0.0035395666
0.0016552897 0.00029067267 0.001910027 0.0007387012 0.0021542138 0.0002797532 0.0002493115 -0.0016975021
0.00062812184 -0.00083655433 0.0016331776 0.002254445 -0.0021923557 0.002071373 -0.00057965616 0.001202046
-0.001356227 -0.003178262 -0.0025992203 -0.0048993477 -0.0011855504 0.018701509 -0.0046679783 0.0035429057
-0.0059568146 0.0030113899 0.003707617 -9.215019e-05 0.0021504862 0.00023584564 -0.0004908995 0.0036126317
0.0049819974 0.0011174995 -0.0033632566 0.00074398227 -0.0011994434 -0.0013034809 -0.0005094042 -0.008540336
-0.0019983896 0.0023716027 -0.0007247084 -0.0010342281 0.0037502144 0.0014132459 -0.0017322202 0.00067294075
0.009293474 -0.0013798204 0.005593025 0.0011658751 0.0041423477 0.004823198 0.018080145 0.00015027515
00000000: 88be d6bb 0e64 bc3b a5f6 96ba 7a47 37bb
00000010: e002 693b c606 123c bcd8 bbbb 13f8 673b
00000020: 4ef6 d83a 6d65 9839 df59 fa3a 66a5 413a
00000030: b62d 0d3b d7ab 9239 06b6 8239 b87e deba
00000040: 8ba8 243a 364c 5bba 5910 d63a 50bf 133b
00000050: a0ad 0fbb dfbf 073b 11f4 17ba f98d 9d3a
00000060: 6dc3 b1ba 634a 50bb ae57 2abb b58a a0bb
00000070: 7864 9bba e833 993c d7f5 98bb 1830 683b
00000080: 6231 c3bb bd5a 453b 7efb 723b c240 c1b8
00000090: 2cef 0c3b 554d 7739 b5af 00ba e7c1 6c3b
000000a0: 0640 a33b 1079 923a 156a 5cbb ce07 433a
000000b0: a436 9dba 90d9 aaba 8a89 05ba c4ec 0bbc
000000c0: 6af7 02bb e46c 1b3b 5cfa 3dba f08e 87ba
000000d0: 28c6 753b aa3c b93a aa0b e3ba 4a68 303a
000000e0: a843 183c 17db b4ba b245 b73b 47d0 983a
000000f0: 88bc 873b eb0b 9e3b d01c 943c 2e93 1d39

convs.1.bias f4 [64]
1.8481613e-05 1.2847606e-05 -1.3473704e-06 9.676358e-06 -1.09089615e-05 2.2714134e-05 3.342823e-06 -3.071255e-05
5.9766126e-06 -4.6012206e-05 4.9791593e-06 1.5594532e-06 2.0902615e-05 1.8564764e-05 1.0070426e-05 -0.00016108477
-6.769525e-08 2.6579122e-05 6.66751e-06 2.3476796e-05 1.924717e-05 -5.8629386e-05 -6.5196373e-06 1.0881514e-05
-5.4493203e-06 2.7475746e-05 2.7715423e-05 -0.0002955553 4.648917e-05 2.639959e-05 -2.1725997e-05 -2.838422e-05
5.9875356e-06 2.9792145e-05 8.019469e-05 -3.3865035e-05 -1.5470403e-05 -4.3191478e-05 -1.743982e-05 -1.5913345e-05
-0.00013819814 7.056872e-06 -0.00017286939 -2.2183036e-05 -6.870923e-05 -1.8293917e-07 -2.3565319e-05 2.5902213e-07
-2.1859672e-05 4.390637e-07 2.8435368e-05 2.1670077e-05 -1.8229148e-05 -1.461492e-05 4.0644194e-05 7.740693e-06
-4.5552347e-06 3.4727556e-05 1.7009039e-05 -9.213255e-06 -6.482552e-05 -3.2571243e-05 -2.042273e-05 2.9241332e-06
00000000: f608 9b37 0c8c 5737 4bd7 b4b5 a457 2237
00000010: a205 37b7 3b8a be37 4355 6036 59d1 00b8
00000020: b68a c836 3bfd 40b8 a712 a736 674e d135
00000030: 0658 af37 87bb 9b37 26f4 2837 dde8 28b9
00000040: db5f 91b3 3bf6 de37 7ab9 df36 09f0 c437
00000050: fc74 a137 d3e8 75b8 42c3 dab6 bf8f 3637
00000060: 4ed9 b6b6 b77b e637 6b7e e837 c3f4 9ab9
00000070: 5efd 4238 b074 dd37 3940 b6b7 a61a eeb7
00000080: 8ae8 c836 25ea f937 322e a838 4e0a 0eb8
00000090: 70c6 81b7 7f28 35b8 ba4b 92b7 a67d 85b7
000000a0: 48e9 10b9 12ca ec36 4644 35b9 b515 bab7
000000b0: fd17 90b8 f06d 44b4 23ae c5b7 bb0f 8b34
000000c0: 4a5f b7b7 75b8 eb34 7d88 ee37 23c8 b537
000000d0: ccea 98b7 9a32 75b7 5f79 2a38 06de 0137
000000e0: 2bd9 98b6 6ea8 1138 a2ae 8e37 a192 1ab7
000000f0: f0f2 87b8 1b9d 08b8 7b51 abb7 3a3c 4436

convs.1.lin.weight f4 [64, 64]
0.080544636 0.024289371 0.018942118 -0.011196502 0.058236912 -0.014649185 0.01643011 0.11380792
-0.0044016545 0.0067217266 0.02339522 -0.005485237 0.036076766 -0.00888524 0.033630677 0.105307065
-0.010821309 0.0012852743 -0.012384338 -0.035723034 -0.031913273 0.026402116 0.0299434 0.034491364
0.06105464 0.085538454 0.04607725 0.15100919 -0.0052611674 0.0066387057 -0.018361682 0.040464517
0.030144317 0.019261483 0.033140816 0.017247707 -0.022051658 0.07756546 -0.020985583 0.006135055
0.103490256 -0.01031045 -0.008448047 0.032286312 0.006423353 0.08648273 -0.018516459 0.060924094
0.0136961555 -0.04003217 -0.00468055 0.013233039 0.05149642 0.013278397 -0.0041365973 -0.028152071
0.068449646 0.020516453 -0.0022025837 -0.01492297 0.12204093 0.04101461 -0.028943466 0.07140972
0.015367249 0.009700678 -0.0040800814 -0.010943372 -0.0011740763 0.009205114 0.0006681751 0.019594392
-0.0154001685 0.0026643334 -0.013469251 0.00033376017 0.009140609 0.0021532497 0.008144662 -0.022425028
-0.008961235 0.0053007645 0.010480276 0.0055075097 -0.0056100735 0.0005220887 0.003196674 -0.0031888569
-0.0004917081 0.008178819 -0.007968575 0.022871358 0.0044521107 0.004720207 -0.009899262 -0.0008723353
0.007931714 0.0053366986 -0.0100691365 0.008143485 -0.0190693 0.010125571 -0.010569465 0.0029686273
-0.0021053925 -0.009509829 -0.007605117 -0.0039129658 0.0050575673 -0.011347812 -0.003003962 0.040306427
0.0034774807 -0.010822473 -0.0124143185 -0.0062046205 0.021102661 0.0032482531 -0.0028990523 -0.005864272
-0.013795063 -0.011220579 -0.015577732 -0.00875443 -0.0051365867 0.005703977 8.132735e-05 0.0033746697
-0.0063488847 0.005476403 -0.003983883 -0.008102337 0.005742368 0.005825573 0.008497751 0.009111212
-0.0020296196 0.003935098 -0.0024836382 0.0070868176 -0.0072967038 0.0053060246 0.011583958 0.0034717838
-0.0065252054 0.010431226 -0.0022257362 -0.008263153 -0.02125808 -0.008091134 0.006261414 -0.012250603
0.011052491 -0.011403789 -0.008326528 -0.018689776 -0.0016522151 0.0049964665 0.008770698 0.013179685
0.0044262432 -0.0063700792 -0.033134624 -0.0056525622 -0.008326983 0.0065833763 0.014477278 -0.00084617495
0.027069977 -0.0055282926 0.0032866728 0.0039983043 -0.007701826 -0.01360984 0.00234941 -0.026571086
-0.008839554 -0.011017417 -0.0024006811 -0.013120922 -5.8924048e-05 0.010093292 -0.010777798 -0.008194336
-0.016301781 -0.0060787136 -0.0124745285 -0.009236503 0.018534001 -0.012140964 0.0037815375 -0.011491425
0.013208225 0.002446801 -0.0028514047 -0.0021984016 0.0011360497 0.0008338929 0.0034210074 -0.001819207
-0.0015375813 0.0047780597 -0.0039339107 0.0033440164 -0.0043746107 -0.0004981525 -0.00015218301 -0.00011121567
-0.007645447 0.0062313974 -0.0007488049 -0.009060964 -0.009139765 -0.0065432484 0.0060902447 -0.00628339
0.0060464134 -0.005705223 -0.0026677982 -0.010575443 -0.0026477892 0.0026108283 0.0065392107 -0.00249927
0.0044615725 -0.0039650733 -0.028057488 -0.0017750299 -0.0061224005 0.0038162246 0.0080942055 -0.00046256813
0.011922418 -0.0037903583 0.0012340399 0.0006811878 -0.0024607726 -0.012575793 -0.00012134298 -0.027248424
-0.0075170435 -0.009024534 -0.0008965617 -0.012918925 0.008846655 0.0070607928 -0.009038571 -0.008167004
-0.014632511 -0.005589491 -0.007552034 -0.0030355155 -0.007229218 -0.005936595 -0.0049114837 -0.0077439244
00000000: 96f4 a43d 81fa c63c 802c 9b3c 8871 37bc
00000010: d489 6e3d 2303 70bc 7098 863c 2014 e93d
00000020: c13b 90bb ee41 dc3b 55a7 bf3c 81bd b3bb
00000030: 3bc5 133d 6693 11bc 52c0 093d 3bab d73d
00000040: dc4b 31bc a676 a83a aee7 4abc 5152 12bd
00000050: 7eb7 02bd 4049 d83c dc4b f53c d146 0d3d
00000060: 6e14 7a3d c92e af3d 80bb 3c3d 27a2 1a3e
00000070: df65 acbb 8089 d93b 3d6b 96bc 1fbe 253d
00000080: 37f1 f63c 42ca 9d3c aabe 073d 104b 8d3c
00000090: aea5 b4bc a4da 9e3d f5e9 abbc 9208 c93b
000000a0: b3f2 d33d 29ed 28bc ad69 0abc a73e 043d
000000b0: fe7a d23b dc1d b13d d4af 97bc 8b8b 793d
000000c0: d765 603c c6f8 23bd 4d5f 99bb 63cf 583c
000000d0: e9ed 523d a28d 593c 4b8c 87bb 2c9f e6bc
000000e0: 542f 8c3d 1f12 a83c 3959 10bb 797f 74bc
000000f0: 98f0 f93d f0fe 273d d91a edbc 423f 923d
00000100: eac6 7b3c 98ef 1e3c 34b2 85bb d44b 33bc
00000110: 77e3 99ba 0cd1 163c 7928 2f3a 6b84 a03c
00000120: fd50 7cbc 199c 2e3b 22ae 5cbc 88fc ae39
00000130: 7ec2 153c 891d 0d3b 3071 053c b1b4 b7bc
00000140: 25d2 12bc 09b2 ad3b 77b5 2b3c 5778 b43b
00000150: b5d4 b7bb c8dc 083a 4a7f 513b 24fc 50bb
00000160: f9e5 00ba 7400 063c a08e 02bc b75c bb3c
00000170: 03e3 913b f7ab 9a3b 8430 22bc 6ead 64ba
00000180: 05f4 013c 79df ae3b 05f9 24bc 406c 053c
00000190: 3837 9cbc b9e5 253c 8d2b 2dbc 4d8d 423b
000001a0: a0fa 09bb 1dcf 1bbc 5834 f9bb 5638 80bb
000001b0: f3b9 a53b 2cec 39bc 1fde 44bb 5a18 253d
000001c0: 72e6 633b be50 31bc 6d65 4bbc 2150 cbbb
000001d0: 7ddf ac3c a5e0 543b 07fe 3dbb 1429 c0bb
000001e0: b004 62bc 85d6 37bc be39 7fbc be6e 0fbc
000001f0: d050 a8bb 6de8 ba3b 4a8e aa38 9029 5d3b
00000200: 4e0a d0bb 6673 b33b 3c8b 82bb aabf 04bc
00000210: 792a bc3b 73e4 be3b 273a 0b3c 3147 153c
00000220: 5e03 05bb fff1 803b 89c4 22bb 8938 e83b
00000230: 3019 efbb 29de ad3b a4ca 3d3c de86 633b
00000240: 64d1 d5bb bce7 2a3c a8dd 11bb 2d62 07bc
00000250: 6d25 aebc ad90 04bc 8c2c cd3b c1b6 48bc
00000260: 8215 353c f5d6 3abc fd6b 08bc 4d1b 99bc
00000270: 248f d8ba 66b9 a33b f9b2 0f3c 9bef 573c
00000280: 050a 913b 19bc d0bb 2cb8 07bd 2139 b9bb
00000290: e66d 08bc 5db9 d73b 1b32 6d3c d7d1 5dba
000002a0: dbc1 dd3c ae26 b5bb 3865 573b 3504 833b
000002b0: 995f fcbb cefb 5ebc 8ff8 193b 9bab d9bc
000002c0: c7d3 10bc 6582 34bc bf54 1dbb 23f9 56bc
000002d0: 3725 77b8 565e 253c 5c95 30bc 8941 06bc
000002e0: 508b 85bc f22f c7bb f761 4cbc b454 17bc
000002f0: 9ed4 973c e5ea 46bc acd3 773b 8846 3cbc
00000300: 5067 583c 825a 203b a2de 3abb 0f13 10bb
00000310: 81e7 943a 9b99 5a3a fb32 603b 7572 eeba
00000320: ab88 c9ba 4591 9c3b 09e8 80bb 4927 5b3b
00000330: e558 8fbb 7396 02ba 5193 1fb9 753c e9b8
00000340: a886 fabb c030 cc3b 724b 44ba 7074 14bc
00000350: f4be 15bc bf68 d6bb ad90 c73b e5e4 cdbb
00000360: fe20 c63b e1f2 babb 3ad6 2ebb 9f44 2dbc
00000370: 8886 2dbb 6e1a 2b3b e046 d63b cbca 23bb
00000380: 6232 923b 72ed 81bb d1d8 e5bc 1fa8 e8ba
00000390: 6b9e c8bb a019 7a3b 8f9d 043c d884 f2b9
000003a0: 3f56 433c a967 78bb 82bf a13a bd91 323a
000003b0: ea44 21bb b30a 4ebc 8479 feb8 1638 dfbc
000003c0: 8851 f6bb a4db 13bc 3d07 6bba e6a9 53bc
000003d0: 8ff1 103c 395e e73b 8416 14bc e6ce 05bc
000003e0: 33bd 6fbc 0d28 b7bb 0e77 f7bb 80ef 46bb
000003f0: 13e3 ecbb c587 c2bb 83f0 a0bb bfc0 fdbb

convs.2.att_src f4 [1, 8, 64]
-0.010056413 0.014744126 -0.013444472 -0.009046303 -0.0048223184 0.016752273 0.006792598 -0.009581191
0.011102519 -0.008984465 0.011465128 -0.01345209 0.014753129 0.013306416 0.011639264 -0.0124214385
0.014243618 0.015578916 -0.011210246 0.012136109 0.0068676383 -0.004889259 0.014663098 0.013976017
0.0066873557 0.01215437 0.010925899 -0.008980001 0.010237604 0.009846485 -0.0131632695 -0.009080214
0.007383854 -0.014882368 -0.012106309 0.013254881 0.012416059 -0.0129293455 0.007453856 0.010583425
0.016343074 0.014421017 0.0088708 0.0103005245 0.01095345 0.006231346 0.0016590385 0.00518637
0.013870094 0.0007828787 -0.013102975 0.009309734 -0.011048113 -0.013627234 0.015186122 0.008421697
-0.004560307 0.007982716 -0.006490514 0.013310593 -0.0141522605 -0.0039314097 0.0076835933 0.005164739
-0.0096606305 0.014490546 -0.010032446 -0.0076295477 -0.008925107 -0.0027627004 0.010660525 -0.0073117847
0.008826083 -0.010589366 0.011141111 -0.014936173 0.013037569 0.0135712875 -0.0014957052 -0.008957394
0.012990737 0.00631342 -0.010329664 0.011182738 0.006628157 -0.002246335 0.013510052 0.013333947
0.0073829642 0.007697689 0.013220255 -0.005366541 0.008897099 0.011573082 -0.013021662 -0.008234215
0.009857421 -0.013183574 -0.011040237 0.005289394 0.012041465 -0.014433417 0.013104433 0.009319254
0.009402661 0.01296451 0.009121641 0.012246573 0.008819445 0.0065078763 0.00050747156 -0.0034871139
0.013718572 -0.00073169614 -0.012121132 0.006503926 -0.008065941 -0.007098411 0.012856712 0.0099476185
0.0037287876 0.0064108404 0.0053551965 0.009695865 -0.010659621 -0.006623162 0.0021510264 0.0095397215
-0.016785724 0.013082598 -0.0042956024 -0.009466819 0.00409773 0.004076349 0.009711943 -0.0053804014
-0.0015435879 -0.007867322 0.002330895 -0.012298982 0.01019077 0.012899989 0.0064016744 -0.016640116
-0.0017975434 0.0033145056 -0.012018129 -0.00018320639 -0.0006412475 -0.001932667 0.009747158 0.0055543855
0.0014922798 0.0068349773 0.005244933 -0.015973657 0.011967415 0.008621618 -0.014371519 -0.0069316146
0.009959536 -0.013285107 -0.009690617 0.0094133485 0.0076661995 -0.009027107 0.01334446 0.010555046
0.019068297 0.006087484 0.0022585588 0.010257503 0.012633518 0.00012263485 -0.00032338145 0.0119599085
0.008106005 -0.0049137236 -0.012148179 0.005013341 -0.009708748 -0.0074741743 0.0057559647 0.0057832515
-0.010741656 0.011739527 0.00034041138 0.010891121 -0.0069714333 0.0038297633 -0.005686769 0.0053290674
-0.011976972 0.012314987 -0.005226912 -0.0017545795 0.0015394832 -0.0043167393 0.011052829 -0.0052590403
0.00495151 -0.007376928 -0.0017369079 -0.011206032 0.010466584 0.013375489 -0.0038549695 -0.012196132
0.005274919 0.0069607627 -0.011254295 0.0012819404 0.00016583118 -0.0042664823 0.008446611 0.0055120997
0.0038408425 0.0055299955 0.004530342 -0.012416451 0.0102376845 0.0059118858 -0.010713665 -0.007915789
0.007386359 -0.0117824925 -0.010594857 0.010140795 0.0080235675 -0.009506581 0.00960542 0.010852069
0.013530371 0.007047051 0.008669553 -0.0026682508 0.011435816 0.0045270333 0.0026352976 0.0052858572
0.00896725 -0.009153962 -0.010536062 0.0030326971 -0.008013579 -0.010682299 0.0080432445 0.004499928
-0.0056028455 0.011417925 -0.006090735 0.008729999 -0.008112076 0.0030099803 0.0012431922 -0.0037238868
00000000: a7c3 24bc 5991 713c 3446 5cbc f236 14bc
00000010: 8a04 9ebb 103c 893c 7194 de3b 6efa 1cbc
00000020: 57e7 353c 9433 13bc 3bd8 3b3c 2866 5cbc
00000030: 1cb7 713c 2703 5a3c 9db2 3e3c 4a83 4bbc
00000040: 105e 693c b63e 7f3c 2eab 37bc 88d6 463c
00000050: ed09 e13b 1436 a0bb 7e3d 703c aafb 643c
00000060: 9b21 db3b 1f23 473c 8b02 333c db20 13bc
00000070: a0bb 273c 2753 213c c1aa 57bc 2ec5 14bc
00000080: 42f4 f13b 2dd5 73bc 8a59 46bc 002b 593c
00000090: ba6c 4b3c 9bd5 53bc 7a3f f43b 1a66 2d3c
000000a0: e9e1 853c 2146 6c3c d556 113c 88c3 283c
000000b0: 1976 333c 5230 cc3b 1874 d93a 6df2 a93b
000000c0: 643f 633c 1a3a 4d3a dcad 56bc db87 183c
000000d0: 2503 35bc c344 5fbc 36cf 783c 28fb 093c
000000e0: a16e 95bb f0c9 023c 61ae d4bb ac14 5a3c
000000f0: e2de 67bc 0ed3 80bb a7c6 fb3b f93c a93b
00000100: 9f47 1ebc c169 6d3c 215f 24bc 4901 fabb
00000110: 9d3a 12bc 6c0e 35bb 7ca9 2e3c b297 efbb
00000120: 469b 103c 057f 2dbc 3589 363c dab6 74bc
00000130: 879b 553c 1b5a 5e3c 8a0b c4ba 09c2 12bc
00000140: 1ad7 543c cee0 ce3b c03d 29bc cd37 373c
00000150: 0331 d93b 3f37 13bb 4459 5d3c a176 5a3c
00000160: cbec f13b e53c fc3b c599 583c cfd9 afbb
00000170: 23c5 113c 069d 3d3c cf58 55bc cde8 06bc
00000180: 0581 213c ebff 57bc 1ce2 34bc a752 ad3b
00000190: 9149 453c 237a 6cbc fab3 563c c9af 183c
000001a0: 9e0d 1a3c 1969 543c ef72 153c daa5 483c
000001b0: 6f7f 103c 0640 d53b d707 053a 1088 64bb
000001c0: ddc3 603c 4ccf 3fba b697 46bc e31e d53b
000001d0: 0227 04bc ca99 e8bb f5a4 523c 56fb 223c
000001e0: ad5e 743b 0712 d23b a57a af3b 68db 1e3c
000001f0: b1a5 2ebc 1c07 d9bb 3cf8 0c3b 7e4c 1c3c
00000200: 3782 89bc 6558 563c 20c2 8cbb b81a 1bbc
00000210: 4046 863b e592 853b d71e 1f3c 144e b0bb
00000220: 3752 caba f1e5 00bc eec1 183b ab81 49bc
00000230: 30f7 263c 7a5a 533c 23c5 d13b da50 88bc
00000240: 8c9b ebba 2d38 593b b0e7 44bc 171b 40b9
00000250: 6419 28ba 8b51 fdba 8bb2 1f3c 9001 b63b
00000260: 9a98 c33a f2f7 df3b b0dd ab3b 30db 82bc
00000270: fa12 443c b041 0d3c 8576 6bbc 9922 e3bb
00000280: 522d 233c c7a9 59bc 65c5 1ebc 723a 1a3c
00000290: be34 fb3b 6ee6 13bc b9a2 5a3c 12ef 2c3c
000002a0: 1e35 9c3c 8479 c73b 5404 143b 160f 283c
000002b0: d1fc 4e3c 8b97 0039 868b a9b9 7ef3 433c
000002c0: 0dcf 043c 4d03 a1bb 2809 47bc f446 a43b
000002d0: 7111 1fbc ebe9 f4bb 889c bc3b 6e81 bd3b
000002e0: c5fd 2fbc 2557 403c 3e79 b239 ac70 323c
000002f0: 9f70 e4bb c4fc 7a3b 1358 babb 759f ae3b
00000300: 103b 44bc cdc4 493c 8446 abbb ebf9 e5ba
00000310: 7cc8 c93a 6f73 8dbb ed16 353c 0754 acbb
00000320: 4740 a23b 28ba f1bb f5a8 e3ba 8199 37bc
00000330: 097c 2b3c de24 5b3c a8a3 7cbb 49d2 47bc
00000340: 3ad9 ac3b 1c17 e43b ef63 38bc c806 a83a
00000350: f8e2 2d39 d9cd 8bbb a863 0a3c d89e b43b
00000360: a5b6 7b3b f734 b53b 4373 943b 5f6e 4bbc
00000370: f6bb 273c 7eb8 c13b 5e88 2fbc 3ab1 01bc
00000380: 4509 f23b 5b0b 41bc 0d96 2dbc 9425 263c
00000390: 4875 033c 7ec1 1bbc 0d60 1d3c e0cc 313c
000003a0: 7dae 5d3c f3ea e63b be0a 0e3c d2dd 2ebb
000003b0: 4a5d 3b3c 8257 943b f5b4 2c3b fc34 ad3b
000003c0: 5feb 123c 80fa 15bc 729f 2cbc 37c0 463b
000003d0: 634b 03bc cf04 2fbc d0c7 033c 2274 933b
000003e0: 1398 b7bb 4012 3b3c ca94 c7bb 4508 0f3c
000003f0: 83e8 04bc 1743 453b 9cf2 a23a 740c 74bb

convs.2.att_dst f4 [1, 8, 64]
-0.0008270972 0.002581934 -0.004032229 -0.0026299302 -0.0028184222 0.0034428993 0.002692281 -0.0019852784
0.0024208513 0.0011092705 0.0038540007 0.002442151 0.0039727595 0.0014186569 0.00010015938 -0.0040145945
0.0038999186 0.0032076621 -0.00025668018 0.0018386567 0.0020502135 -0.001072107 0.003098576 0.0020362441
0.0028137409 0.0021689436 0.0033946761 -0.00056905975 0.0005883214 0.0042975666 -0.0049682325 -0.002293359
-0.0024124677 -0.0068835975 -0.0034081659 0.0006192266 0.00496509 -0.0029006042 -0.0011031486 0.0017979705
-0.0011943401 0.001800733 -0.0007080944 0.0007007266 0.00063144206 0.0017894075 0.0004609355 -0.0014226083
0.00041128445 0.0009917074 -8.706909e-05 0.0014893839 -0.0035595333 -0.0009113466 0.002396907 0.0036325564
-0.0008520867 -0.00079601695 0.00024900716 0.0018141028 0.0014430423 -0.0014192631 0.002618628 -6.0423772e-05
0.004205178 0.001401429 -0.0033845978 -0.0017014719 -0.0018471578 -0.00019867814 0.0030124271 -0.0011802788
0.001245765 -0.00086922117 0.0031568473 0.0010672061 0.0019827976 -0.00047612 -0.0011936846 0.0023270654
0.0032526203 0.00069365767 0.00089450896 0.0037393821 0.0020604124 -0.00016647411 0.0018322732 0.0015839989
0.002535491 0.0011818969 0.002238894 0.003547708 -0.00027245175 0.0038322217 -0.002699569 -0.0012992354
-0.002367726 -0.0047586863 -0.0020704402 -0.0003855264 0.0041435114 -0.0026249024 0.0035952271 0.00054114417
-0.00069703447 0.0018399969 -0.0028776436 0.0042552017 -0.0002977953 0.0015383569 -0.0005805923 -0.0024360244
0.0020319356 0.0006220493 0.001458327 0.0027071687 -0.003442519 0.0009781788 0.0028846764 0.0017785414
0.003414607 -0.002787218 0.0025757009 -0.0007907775 -0.00049500924 -0.0032975485 0.0025741667 0.0017823119
-0.005721824 0.0014415145 0.006187197 -0.0074841864 0.002918405 -0.0020948607 -0.00012407343 -0.0014080374
-0.008417511 0.0072688814 -0.0078599695 0.002114801 0.0011561982 0.0057049817 -0.0031130677 -0.0053993827
-0.008657258 -0.008659799 -0.0011546705 -0.007516167 -0.0030443699 0.00044264182 -0.004326742 -0.006512446
-0.0015880881 -0.0024702507 -0.0023535497 -0.0068511544 0.0033431728 0.0020936946 -0.0065465835 -0.00074533105
-0.0030951072 -0.0023492365 -0.0019602696 0.0015721351 -0.0015094333 0.0037619448 0.0048016286 0.002251203
0.0053010094 -0.006822197 -0.0039579556 -0.002202285 0.00455976 -0.0055336114 -0.00012889253 0.005129037
-0.0029710368 -0.0043629375 0.000380524 -0.00088363135 -0.0027666767 0.005021804 -0.0043484312 0.00023526652
-0.009487669 0.0022013804 -0.002712061 -0.00039628785 0.0065759183 0.0073169814 -0.00055809383 -0.004431088
-0.007969061 0.0019186259 0.006305161 -0.0012992191 0.0025729078 -0.0014249025 6.312106e-05 -0.0009724898
-0.0046324297 0.0065310914 -0.009326049 0.0034505874 -0.0014825269 0.0034979624 -0.0027778738 -0.005369343
-0.0054693646 -0.005454511 -0.0024377645 -0.006650483 -0.0033079346 0.0017861213 -0.0056021735 -0.008316344
-0.0013305229 -0.0030477995 -0.0034572503 -0.008037934 0.0031767117 -0.00092215533 -0.002629868 -0.00097049266
-0.004634608 -0.00054576615 -0.0011330518 0.0018170155 -0.0021301517 0.0029214595 0.00018274643 0.0022575539
0.0056439918 -0.006761513 -0.0013652017 -0.0061727474 0.0041987957 -0.0048497203 -0.0016012462 0.005193167
-0.0042854315 -0.009004069 0.000981942 -0.0013008835 -0.00042294443 0.0013591214 -0.0047023077 -0.0015544086
-0.0072147744 0.0002686775 -0.006002304 -0.0041675144 0.0030578484 0.0064155785 -0.0019439929 -0.009819815
00000000: 8ed1 58ba aa35 293b ca20 84bb e85a 2cbb
00000010: 47b5 38bb 44a2 613b fb70 303b 721b 02bb
00000020: 25a7 1e3b f164 913a 6793 7c3b 7f0c 203b
00000030: ec2d 823b 3af2 b93a a80c d238 dc8c 83bb
00000040: c795 7f3b a437 523b 0893 86b9 15ff f03a
00000050: e05c 063b f185 8cba 7b11 4b3b 8272 053b
00000060: bd66 383b d624 0e3b 3779 5e3b f42c 15ba
00000070: 9539 1a3a 9ad2 8c3b 8ecc a2bb 2e4c 16bb
00000080: 7e1a 1ebb cd8f e1bb 895b 5fbb 9853 223a
00000090: 32b2 a23b 1018 3ebb 8697 90ba e1a9 eb3a
000000a0: 678b 9cba 9306 ec3a 699f 39ba f7b0 373a
000000b0: 5c87 253a 8d8a ea3a b7a9 f139 d076 baba
000000c0: aaa1 d739 2efc 813a dd98 b6b8 6e37 c33a
000000d0: 0f47 69bb 6fe7 6eba 6d15 1d3b 2f10 6e3b
000000e0: 925e 5fba cbab 50ba 2d8d 8239 30c7 ed3a
000000f0: 7724 bd3a 9106 baba 4a9d 2b3b 886f 7db8
00000100: 97cb 893b 27b0 b73a 21d0 5dbb ec03 dfba
00000110: 551c f2ba 4254 50b9 246c 453b 96b3 9aba
00000120: f048 a33a 72dc 63ba 1ce3 4e3b 7fe1 8b3a
00000130: d3f1 013b bf9f f9b9 6975 9cba ae81 183b
00000140: ea29 553b 94d6 353a 7b7d 6a3a 6c10 753b
00000150: fc07 073b 8e8f 2eb9 e328 f03a 2f9e cf3a
00000160: 7b2a 263b e1e9 9a3a 69ba 123b aa80 683b
00000170: dbd7 8eb9 0326 7b3b 41eb 30bb 1b4b aaba
00000180: da2b 1bbb c1ee 9bbb 39b0 07bb 7a20 cab9
00000190: 4bc6 873b 8e06 2cbb e79d 6b3b 92db 0d3a
000001a0: 31b9 36ba 0d2c f13a d996 3cbb 386f 8b3b
000001b0: 6921 9cb9 b1a2 c93a e432 18ba b5a5 1fbb
000001c0: 392a 053b 0611 233a 5625 bf3a c16a 313b
000001d0: e39b 61bb 3c36 803a d70c 3d3b f21d e93a
000001e0: 99c7 5f3b c2a9 36bb 17cd 283b 2e4c 4fba
000001f0: 82c3 01ba af1b 58bb 5ab3 283b 779c e93a
00000200: 237e bbbb 33f1 bc3a f8bd ca3b e83d f5bb
00000210: b642 3f3b ee49 09bb b519 02b9 e58d b8ba
00000220: 9ae9 09bc cc2f ee3b 1ac7 00bc 7998 0a3b
00000230: 938b 973a dbf0 ba3b 9c04 4cbb 4eed b0bb
00000240: 2cd7 0dbc d4e1 0dbc 5058 97ba 2e4a f6bb
00000250: 0d84 47bb 6112 e839 58c7 8dbb 5b66 d5bb
00000260: 6527 d0ba eee3 21bb 033e 1abb a67f e0bb
00000270: 2219 5b3b 5e36 093b b984 d6bb 5262 43ba
00000280: 48d7 4abb a6f5 19bb de77 00bb 1a10 ce3a
00000290: 2dd8 c5ba f68a 763b fb56 9d3b eb88 133b
000002a0: 17b4 ad3b bd8c dfbb bdb1 81bb 3654 10bb
000002b0: 0a6a 953b 4c53 b5bb 5327 07b9 7b11 a83b
000002c0: bab5 42bb f9f6 8ebb 1181 c739 7fa3 67ba
000002d0: 2251 35bb f28d a43b 497d 8ebb e0b1 7639
000002e0: 2b72 1bbc 0945 103b d5bc 31bb dbc4 cfb9
000002f0: cd7a d73b 4ac3 ef3b 0b4d 12ba a932 91bb
00000300: aa90 02bc 677a fb3a 869b ce3b 8f4a aaba
00000310: 3b9e 283b cbc3 baba dc5f 8438 b0ee 7eba
00000320: a3cb 97bb c402 d63b 49cc 18bc 4023 623b
00000330: 5951 c2ba 123e 653b fd0c 36bb 50f1 afbb
00000340: 5b38 b3bb c1bb b2bb e7c2 1fbb 4bec d9bb
00000350: efc9 58bb 491c ea3a 7092 b7bb 4641 08bc
00000360: f164 aeba 97bd 47bb 0993 62bb 8ab1 03bc
00000370: 6130 503b ccbc 71ba dd59 2cbb a968 7eba
00000380: e9dd 97bb bf11 0fba e982 94ba ec28 ee3a
00000390: 049a 0bbb f575 3f3b 9f9f 3f39 78f3 133b
000003a0: 3cf1 b83b af8f ddbb 91f0 b2ba c244 cabb
000003b0: 0d96 893b 67ea 9ebb e8e0 d1ba 712b aa3b
000003c0: ce6c 8cbb cd85 13bc 82b4 803a 6882 aaba
000003d0: a4be ddb9 8c24 b23a d115 9abb 4cbd cbba
000003e0: ea69 ecbb 49dd 8c39 faae c4bb a58f 88bb
000003f0: 2f66 483b c639 d23b 94cd feba 4ae3 20bc

convs.2.bias f4 [64]
1.2940011e-05 -0.00012280952 3.6989873e-06 2.817204e-05 -3.2467763e-06 1.7785107e-05 4.245677e-06 -7.689086e-06
-2.3633722e-05 5.836183e-05 2.6988548e-06 0.00010746608 6.4815513e-06 -5.773395e-05 -0.00013952554 0.00012386835
4.5449047e-05 -0.0002759477 0.000108372755 3.0100426e-05 3.9618448e-05 0.00020888993 3.5954028e-05 -3.0811192e-05
2.3469154e-07 -2.516709e-05 2.049569e-06 -1.2917513e-05 -0.00011978046 -2.4644194e-06 -1.881678e-05 2.1716567e-05
-0.00028773138 -5.5982473e-06 -1.10617675e-05 -8.132986e-06 7.1880836e-06 6.6170585e-05 -1.0169187e-05 -0.00022564892
4.2475644e-05 4.807771e-07 -1.0614761e-05 -8.4794585e-05 -1.5872187e-05 5.094512e-06 -8.090314e-05 -0.00010120228
8.860032e-07 5.721633e-05 6.673121e-05 1.6745e-05 -3.5384546e-05 -0.00018909115 4.9185004e-05 -2.7445458e-05
7.268084e-07 3.5820205e-05 0.00011683262 -1.1046006e-05 -0.00012414243 -3.6459583e-05 2.7221568e-05 1.3484375e-05
00000000: ed18 5937 6ec6 00b9 1e3c 7836 ff52 ec37
00000010: 31e3 59b6 3a31 9537 1676 8e36 5f00 01b7
00000020: 0841 c6b7 8ac9 7438 f91d 3536 6a5f e138
00000030: 1a7c d936 5b27 72b8 9a4d 12b9 a8e2 0139
00000040: 8ba0 3e38 13ad 90b9 2e46 e338 2c80 fc37
00000050: fc2b 2638 7709 5b39 58cd 1638 443b 01b8
00000060: 85ff 7b34 ea1d d3b7 548b 0936 4cb8 58b7
00000070: a532 fbb8 6762 25b6 bad8 9db7 f92b b637
00000080: a7da 96b9 94d8 bbb6 ee95 39b7 e972 08b7
00000090: 2b31 f136 10c5 8a38 539c 2ab7 2c9c 6cb9
000000a0: e027 3238 c00e 0135 0d16 32b7 bfd3 b1b8
000000b0: 4325 85b7 86f1 aa36 8baa a9b8 8f3c d4b8
000000c0: add5 6d35 91fb 6f38 0cf2 8b38 9d77 8c37
000000d0: de69 14b8 c546 46b9 ff4b 4e38 ac3a e6b7
000000e0: e519 4335 a73d 1638 0904 f538 3c52 39b7
000000f0: 3b2c 02b9 2eec 18b8 df59 e437 f33a 6237

convs.2.lin.weight f4 [512, 64]
-0.040628165 0.0138854515 -0.014215954 -0.015640957 0.016172728 0.022791913 0.0073616565 0.037403025
-0.021581352 0.01239238 -0.008400308 0.0012324544 -0.006380775 0.009056836 0.030411521 0.0013705456
-0.008535526 0.007276999 -0.0003963268 -0.025235975 -0.026265498 0.0023703647 0.009942357 0.0031863637
-0.008738934 -0.015206273 -0.011325268 -0.01661885 -0.004666924 0.053932514 -0.017870069 0.0033655518
0.00647401 -0.002927492 -0.03234896 0.008876913 -0.021354215 0.011102759 0.012313088 -0.006101036
0.0019733466 -0.008878128 -8.674788e-05 0.012202935 -0.0048266305 -0.019852616 0.0062671695 0.011848443
0.0006651957 -0.038365092 -0.011822301 -0.008583459 0.0014262811 -0.016782464 -0.0048317323 -0.02126316
0.0027263854 -0.00013230524 0.0062376703 -0.015480936 0.024637973 0.005473584 0.01723407 0.0030137473
0.008934858 0.001331111 0.0005078887 -0.001219828 0.0022651402 0.0024758945 0.0009134979 0.00672638
0.0007433836 0.0015172107 -0.0007082745 -0.00057574845 0.0021213097 0.00013885305 0.0015392257 0.0075128186
-6.004184e-05 0.004670666 -0.00081245875 0.00094209384 0.0010469909 4.8028127e-05 0.0015910628 -0.003017377
0.0053516636 0.0018002046 -0.0011921218 0.007924228 -0.00064603426 0.00426929 0.0026860414 0.0048705977
0.0029729838 0.0017872419 -1.5515776e-05 -0.002692602 -0.00058905536 0.0038753508 0.0051626577 0.0013446521
0.0058747176 -0.0011221918 -0.00088429265 -0.00049483986 -0.0011855135 0.00021504224 -0.002305084 -0.0038364225
-0.0040858346 0.0017846131 -0.00068100734 -0.0013779112 0.0055820933 0.0036753349 -0.00081776996 -0.0007967574
0.0034061333 -0.0019880442 0.0023054208 -0.0017863824 0.0006768709 0.0010337319 0.0024142186 -0.0038458304
-0.0075410153 -0.0036077162 0.0014275105 0.003209988 -0.0019125959 -0.0039331648 -0.0027618161 -0.0039725406
0.0022112413 -0.0033456145 0.0014248515 -0.0018569719 0.0011415872 0.0005963777 -0.004248824 -0.0033321981
0.0025576388 -0.004538549 -0.0020748512 -0.0019299707 0.0012155266 0.00024492844 -0.0037070473 0.0031866601
-0.0034747515 0.0005017195 0.0026833608 0.0018141106 -0.0014597244 5.8376536e-05 0.0018139362 -0.004856464
-0.0031689093 0.00077229616 0.0027107054 -2.0777867e-05 0.004673256 -0.0013162674 -0.004207934 -0.0018359629
-0.0014309105 0.0031638197 0.002678269 -0.0024673827 -0.0018063706 -0.0053699478 0.0019466504 -0.0052639544
0.0045264447 0.000588139 0.0017348101 0.0024024718 -0.00089269294 0.0006042482 0.003902599 0.0029018389
0.0007953844 0.0030150786 0.00028399975 0.0043164245 -0.005075079 0.002387799 -0.0026363134 0.0029183784
-0.018669454 -0.00055783853 0.0061393557 0.00089664216 0.0001065485 -0.0022907949 0.0005677312 -0.00069467607
3.196884e-05 0.000942606 -0.0008771845 0.000872571 -0.00085494807 0.0027467406 0.0062840623 0.012465723
0.0022561292 0.0016327435 0.0011310949 0.0065067615 -0.006866613 -0.0014697026 0.0052634994 0.0007498908
-0.0027992208 0.0021672433 0.0032347222 -0.005458491 0.0023712355 0.003400444 -0.006645233 0.00085277477
0.0017557268 -0.003353061 0.014014604 -0.00017845858 0.00037152064 0.003616075 0.00043599532 0.00010984932
0.011710852 0.0004385168 -0.0002207017 0.0026714029 0.0023871483 -0.00032574078 -0.0015364621 0.0033851822
-0.002639942 0.004312104 -0.0005327038 0.004080725 0.004627275 -0.0059265643 -0.0008310731 0.0024389487
0.0022421444 -0.0005033637 0.0014554943 0.002545895 -0.0027180158 -0.002115491 0.0023284387 0.001019446
00000000: b869 26bd ce7f 633c 08ea 68bc 7721 80bc
00000010: ab7c 843c 1bb6 ba3c 0d3a f13b ea33 193d
00000020: 60cb b0bc 6909 4b3c 72a1 09bc 4f8a a13a
00000030: d215 d1bb 2063 143c 9521 f93c e1a3 b33a
00000040: 97d8 0bbc e473 ee3b 15ca cfb9 adbb cebc
00000050: be2a d7bc 1f58 1b3b 45e5 223c 50d2 503b
00000060: bf2d 0fbc bb23 79bc 9e8d 39bc 4124 88bc
00000070: ffec 98bb 57e8 5c3d 4064 92bc 9790 5c3b
00000080: ef23 d43b 2adb 3fbb 5880 04bd 7970 113c
00000090: 09ef aebc 59e8 353c d6bc 493c 33eb c7bb
000000a0: 4353 013b 9175 11bc 6aec b5b8 d2ee 473c
000000b0: b628 9ebb f4a1 a2bc d45c cd3b f91f 423c
000000c0: 8760 2e3a b724 1dbd 53b2 41bc a3a1 0cbc
000000d0: 0df2 ba3a 617b 89bc 8253 9ebb 1430 aebc
000000e0: 28ad 323b 6bbb 0ab9 5f65 cc3b c0a3 7dbc
000000f0: 93d5 c93c c05b b33b 772e 8d3c 4a82 453b
00000100: 8363 123c ac78 ae3a d523 053a a3e2 9fba
00000110: bf72 143b 9e42 223b ce77 6f3a f768 dc3b
00000120: a1df 423a 25dd c63a 7fab 39ba d3ed 16ba
00000130: ac05 0b3b 1599 1139 d8bf c93a 172e f63b
00000140: 6fd5 7bb8 630c 993b 2ffb 54ba d9f6 763a
00000150: 2f3b 893a cf71 4938 358b d03a 30bf 45bb
00000160: 025d af3b d8f4 eb3a f840 9cba 9fd4 013c
00000170: a05a 29ba 66e5 8b3b 4c08 303b 8999 9f3b
00000180: 64d6 423b e341 ea3a e027 82b7 5e76 30bb
00000190: d66a 1aba 99f9 7d3b 832b a93b 0a3f b03a
000001a0: b480 c03b 8216 93ba e0cf 67ba 24b8 01ba
000001b0: 3b63 9bba f67c 6139 e410 17bb 7d6c 7bbb
000001c0: 77e2 85bb aee9 e93a a185 32ba 079b b4ba
000001d0: fee9 b63b e3dd 703b 9d5f 56ba 7cdd 50ba
000001e0: 6f39 5f3b d949 02bb 8b16 173b 0c25 eaba
000001f0: 0a70 313a 497e 873a de37 1e3b 540a 7cbb
00000200: 9f1a f7bb 6f6f 6cbb 4e1b bb3a a95e 523b
00000210: 12b0 faba c7e1 80bb 96ff 34bb 162c 82bb
00000220: 79ea 103b 1942 5bbb 15c2 ba3a a365 f3ba
00000230: 4fa1 953a 3b56 1c3a b839 8bbb 0261 5abb
00000240: 0f9e 273b 1cb8 94bb 3afa 07bb 12f7 fcba
00000250: 4e52 9f3a bd69 8039 eff1 72bb 49d7 503b
00000260: a8b8 63bb d385 033a 53db 2f3b 73c7 ed3a
00000270: 3954 bfba 54d9 7438 99c1 ed3a f922 9fbb
00000280: 7aad 4fbb eb73 4a3a 17a6 313b 214c aeb7
00000290: 1d22 993b 9b86 acba b5e2 89bb b1a4 f0ba
000002a0: 648d bbba 1658 4f3b e685 2f3b d0b3 21bb
000002b0: bdc3 ecba 63f6 afbb c026 ff3a 407d acbb
000002c0: 9252 943b 572d 1a3a 9162 e33a ca72 1d3b
000002d0: 9c03 6aba 6966 1e3a bfc2 7f3b c72c 3e3b
000002e0: 5881 503a a098 453b cde5 9439 cb70 8d3b
000002f0: d94c a6bb 9f7c 1c3b 00c6 2cbb 4442 3f3b
00000300: aff0 98bc e93b 12ba a62c c93b a30c 6b3a
00000310: ca72 df38 2921 16bb ccd3 143a ec1a 36ba
00000320: 4816 0638 3819 773a dbf2 65ba 40bd 643a
00000330: 981e 60ba a902 343b 89ea cd3b 083d 4c3c
00000340: 91db 133b c801 d63a 3f41 943a ac36 d53b
00000350: 5301 e1bb 09a3 c0ba 6f79 ac3b 5294 443a
00000360: 2273 37bb 4f08 0e3b a2fd 533b 24dd b2bb
00000370: bb66 1b3b fcd9 5e3b 41c0 d9bb bf8c 5f3a
00000380: 6a20 e63a 07bf 5bbb 829d 653c 9c20 3bb9
00000390: a8c8 c239 acfb 6c3b 4d96 e439 e85e e638
000003a0: e0de 3f3c bbe8 e539 296c 67b9 b412 2f3b
000003b0: b471 1c3b 30c8 aab9 1d63 c9ba efd9 5d3b
000003c0: e102 2dbb 8d4c 8d3b 26a5 0bba 9ab7 853b
000003d0: 65a0 973b a033 c2bb 5fdc 59ba c5d6 1f3b
000003e0: f1f0 123b 2bf4 03ba 49c6 be3a 08d9 263b
000003f0: bd20 32bb 0da4 0abb b898 183b ee9e 853a

batch_norms.0.weight f4 [64]
0.9044903 0.06852855 0.11735208 0.1426125 0.10611295 0.086730294 0.08243836 0.2815071
0.16292591 0.07578742 0.122621104 0.048459385 0.10429769 0.07894019 0.11593149 0.67137915
0.089735605 0.13597178 0.02686296 0.20409672 0.3421533 0.0365551 0.06492643 0.08746403
0.25792187 0.20574687 0.08476471 0.72000897 -0.0041418145 0.18883714 0.17826414 0.15901221
0.059598308 0.16295826 0.51296306 0.06905363 0.17204094 0.19031933 0.1138152 0.06462676
0.73228323 0.10421147 0.051685583 0.041956723 0.07370986 0.21950053 0.045440137 0.6944779
0.06952932 0.16448128 0.043386664 0.2804345 0.13416553 0.22252418 0.08715192 0.16184491
0.22681779 0.09168136 0.20045921 0.13181572 0.46986032 0.08037829 0.26360577 0.0862797
00000000: ad8c 673f b258 8c3d 4a56 f03d 0309 123e
00000010: bf51 d93d a79f b13d 71d5 a83d b321 903e
00000020: 0dd6 263e 6f36 9b3d c620 fb3d 597d 463d
00000030: 079a d53d 65ab a13d 7d6d ed3d 81df 2b3f
00000040: 4dc7 b73d 303c 0b3e b60f dc3c bbfe 503e
00000050: b82e af3e cdba 153d 26f8 843d 5720 b33d
00000060: 560e 843e 4faf 523e 1f99 ad3d 8252 383f
00000070: 0fb8 87bb 865e 413e e08a 363e 19d4 223e
00000080: 5b1d 743d 88de 263e 8c51 033f fd6b 8d3d
00000090: 802b 303e 12e3 423e f217 e93d 095b 843d
000000a0: ea76 3b3f d36c d53d 43b4 533d d0da 2b3d
000000b0: 32f5 963d bfc4 603e 701f 3a3d 4ec9 313f
000000c0: 6365 8e3d c86d 283e 37b6 313d 1c95 8f3e
000000d0: b062 093e 61dd 633e b57c b23d acba 253e
000000e0: ec42 683e 70c3 bb3d 2e45 4d3e b3fa 063e
000000f0: 8891 f03e 5f9d a43d 56f7 863e 69b3 b03d

batch_norms.0.bias f4 [64]
0.13638553 -0.052975103 -0.05075705 -0.05557535 0.007001294 -0.0788224 -0.054667808 -0.124586076
-0.077878766 -0.04816194 -0.0122468285 -0.051774822 -0.057387065 -0.0674806 -0.116141446 0.13160747
-0.052612513 -0.10553576 -0.05196669 -0.1381556 -0.09294947 0.040880788 -0.06494136 -0.075327195
-0.022405857 -0.10332543 -0.049348876 0.036005616 -0.05090576 -0.114530794 -0.004794497 -0.12250555
-0.045886766 -0.079133645 -0.28273377 -0.07184117 -0.03536023 -0.12676173 -0.086484104 -0.061103597
0.09034991 -0.08961302 0.06916501 -0.050629172 -0.063253924 -0.10231019 0.05302653 0.039474707
-0.07007186 -0.07719224 -0.06076665 -0.042616066 -0.07057254 0.050450627 -0.05679095 -0.08421849
-0.10727514 -0.05992367 -0.07762188 -0.07211133 0.010763473 0.031765472 -0.080303915 -0.06493919
00000000: a6a8 0b3e 6cfc 58bd a0e6 4fbd faa2 63bd
00000010: 1c6b e53b a36d a1bd 5aeb 5fbd fc26 ffbd
00000020: e77e 9fbd 7445 45bd eca6 48bc d611 54bd
00000030: b30e 6bbd 4533 8abd 91db edbd 1cc4 063e
00000040: 3880 57bd 2223 d8bd 06db 54bd a978 0dbe
00000050: 4b5c bebd 9d72 273d faff 84bd 2545 9abd
00000060: 7d8c b7bc 489c d3bd 0c22 4abd a07a 133d
00000070: 8f82 50bd 1f8f eabd 281b 9dbb 31e4 fabd
00000080: c3f3 3bbd d210 a2bd 7bc2 90be 7721 93bd
00000090: e3d5 10bd d4cd 01be 941e b1bd c447 7abd
000000a0: 6009 b93d 0887 b7bd 62a6 8d3d 8960 4fbd
000000b0: 468b 81bd 0188 d1bd 5932 593d 3bb0 213d
000000c0: d681 8fbd f716 9ebd 73e6 78bd 2f8e 2ebd
000000d0: 5688 90bd 51a5 4e3d a19d 68bd be7a acbd
000000e0: 12b3 dbbd 8672 75bd 38f8 9ebd 1baf 93bd
000000f0: 4759 303c 831c 023d 6176 a4bd d7fe 84bd

batch_norms.0.running_mean f4 [64]
-0.05963316 0.007714312 -0.016520604 -0.018913373 -0.019200519 0.012104977 0.0076065515 0.0008378518
-0.020007582 0.006740719 -0.0197297 0.004543337 -0.011846419 0.006854372 0.015250146 -0.01012947
-0.010833925 0.011880377 -0.0012674979 0.0070196856 -0.0047294875 -0.005714857 0.008298782 -0.0063296044
0.0065981043 -0.018054172 -0.014117967 -0.024408085 -0.005696377 0.019809652 -0.0048628943 0.013437797
0.004120239 -0.013556896 0.04315332 -0.005135935 -0.025427768 0.0074109924 0.010030139 -0.002024537
0.000121064666 -0.006070953 0.0034916436 0.011934641 -0.004090505 -0.025636362 -0.0011486645 0.041497167
-0.005099195 -0.014240987 -0.0049958955 -0.035832338 0.004245861 -0.0069122235 -0.00891337 -0.026466472
-0.016749144 -0.007026096 -0.014554431 -0.017796475 0.0139456345 -0.004661197 -0.00949988 -0.007380749
00000000: e641 74bd 57c8 fc3b 3856 87bc 38f0 9abc
00000010: 684a 9dbc f453 463c 6140 f93b 48a3 5b3a
00000020: f1e6 a3bc 40e1 dc3b 2ea0 a1bc 46e0 943b
00000030: 7c17 42bc a49a e03b c0db 793c 14f6 25bc
00000040: c680 31bc eaa5 423c 2c22 a6ba 6405 e63b
00000050: d1f9 9abb b243 bbbb 9df7 073c 9268 cfbb
00000060: e934 d83b 58e6 93bc 0c4f 67bc 77f3 c7bc
00000070: aca8 babb da47 a23c ea58 9fbb 352a 5c3c
00000080: 1203 873b be1d 5ebc 89c1 303d 584b a8bb
00000090: e54d d0bc e9d7 f23b 7455 243c 18ae 04bb
000000a0: 19e4 fd38 d8ee c6bb 0fd4 643b 8389 433c
000000b0: a509 86bb 5903 d2bc c98e 96ba eff8 293d
000000c0: 2617 a7bb 0753 69bc 9cb4 a3bb eec4 12bd
000000d0: dd20 8b3b ef7f e2bb 6209 12bc 37d0 d8bc
000000e0: 8035 89bc 2a3b e6bb b575 6ebc eac9 91bc
000000f0: 3b7c 643c f4bc 98bb 62a5 1bbc 36da f1bb
